checkpoints/checkpoints_homogeneous_biomarker_void_graph/DCP_model_1_Fractal_add_sac7mjva.pt (torch, 71376 bytes, 26 tensors)

pre_processing_lin_layers.0.weight f4 [32, 15]
0.14445263 0.036480878 -0.19028789 0.18435846 0.057215434 -0.150556 -0.1693542 -0.10170353
-0.025211334 -0.16443586 -0.10398305 -0.13065061 -0.15189336 0.050053813 0.10356237 -0.022375744
-0.0040976894 0.06988109 -0.12302552 -0.039285842 0.19754927 0.20171712 0.13093926 0.022879291
0.090272814 0.080944575 0.09498737 -0.046364278 0.0150328055 -0.048013397 -0.102901906 0.11813767
-0.05229604 -0.046095494 0.04449531 -0.043455314 -0.24294847 -0.035680532 -0.23379025 0.01956661
0.13860203 -0.11137008 0.038924452 0.03960641 -0.12555963 0.13190264 -0.08357975 -0.29050487
-0.20697531 0.13613777 -0.077058285 0.017109359 0.091210924 0.108800635 -0.24325474 -0.014842453
-0.0013388081 -0.092404395 0.07506854 0.1481423 -0.003184562 -0.05939523 0.12789334 0.117498934
0.16651937 -0.069032244 0.0102978945 0.0785061 -0.10101931 -0.17022869 0.16209744 -0.20934363
0.1672219 -0.08285464 -0.025834503 0.030869853 0.0012515832 -0.055659294 0.0032202823 -0.06281693
0.083509505 0.0589229 -0.075682156 0.1073562 0.010313841 0.12593535 0.20317525 -0.04067798
-0.14162824 -0.22713861 0.014066503 0.07256317 -0.26422802 -0.113439076 -0.11042894 -0.16032255
0.009963823 0.094608404 0.07801603 -0.024702422 0.14416704 -0.11787914 0.08863456 0.056584787
-0.04624936 0.021697965 0.09798785 -0.16308953 0.06182862 0.024021221 -0.22154792 -0.21468025
-0.17096865 -0.088306785 -0.07178185 0.009507146 0.024709634 0.02488075 -0.12070617 0.026475457
-0.068667665 0.05615301 0.018722488 0.12457411 0.028596567 0.25960624 0.28842968 0.021849416
0.18219854 0.19520968 0.11025014 -0.40985078 0.10811296 0.067756005 0.12691185 -0.015585874
0.0072277915 -0.005976412 -0.10570155 0.035922807 0.025641572 -0.07692352 0.17158861 0.13391522
-0.14314947 -0.11151267 0.061646104 -0.14430901 0.014438319 -0.120076366 -0.0488742 -0.02795557
0.12825477 0.020864863 0.004996587 0.08913537 -0.15958825 0.009318823 -0.04253847 -0.1167823
0.13714045 -0.092067264 0.1090725 0.052137386 0.10010316 0.046144433 -0.1250157 -0.033407953
-0.018099373 -0.15614922 0.037956912 0.12019324 -0.12456864 -0.13623285 0.06309425 -0.023320662
-0.16117017 0.16030821 0.009664 -0.16593076 0.084909014 0.0653296 -0.012780437 0.10399726
0.08260931 -0.14189328 0.054083265 -0.03437029 -0.21593355 -0.014630971 -0.08747795 -0.09191778
0.021853017 0.030968819 -0.0020896709 0.085008875 0.01065528 -0.20560403 -0.1263601 0.19044377
0.038119204 0.0778275 -0.019484589 0.044151608 -0.2454827 0.014414971 -0.093374856 -0.06539996
-0.1856315 -0.22515304 0.038259994 0.0016488299 -0.063130505 0.03287571 0.08346593 -0.022634087
-0.016491417 0.0025291776 0.10876613 -0.139218 -0.07346591 0.09303119 -0.062856205 -0.1377002
-0.10180725 -0.11542519 0.075052835 0.09702295 -0.20700824 -0.12626094 0.048108287 0.12662414
0.01596785 -0.05507647 -0.15802875 -0.050037943 -0.121930204 -0.14232221 -0.015575146 -0.27826187
-0.117067605 0.023160327 -0.2178891 -0.20248064 -0.23625343 0.13772765 0.039533664 -0.17150158
-0.21846823 -0.20220107 0.21859653 0.068956956 0.10145487 -0.07278308 -0.059021875 -0.042732753
00000000: 64eb 133e f96c 153d d4da 42be 77c8 3c3e
00000010: bb5a 6a3d 5a2b 1abe 306b 2dbe f149 d0bd
00000020: 0088 cebc e061 28be 11f5 d4bd 46c9 05be
00000030: ef89 1bbe 3a05 4d3d 8218 d43d 564d b7bc
00000040: e945 86bb d11d 8f3d cef4 fbbd 31ea 20bd
00000050: 5b4a 4a3e ef8e 4e3e f114 063e 5a6d bb3c
00000060: f4e0 b83d 45c6 a53d bd88 c23d 78e8 3dbd
00000070: 284c 763c b2a9 44bd 3cbe d2bd 2af2 f13d
00000080: 5f34 56bd a1ce 3cbd b740 363d 33fe 31bd
00000090: 7cc7 78be c025 12bd b666 6fbe 284a a03c
000000a0: b1ed 0d3e ff15 e4bd 3f6f 1f3d 553a 223d
000000b0: b492 00be 7c11 073e dc2b abbd 0ebd 94be
000000c0: 56f1 53be b367 0b3e bcd0 9dbd ed28 8c3c
000000d0: cbcc ba3d ded2 de3d c517 79be c32d 73bc
000000e0: f27a afba 843e bdbd 89bd 993d 9db2 173e
000000f0: 16b4 50bb 6a48 73bd 79f6 023e 48a3 f03d
00000100: 0e84 2a3e c760 8dbd 80b8 283c cec7 a03d
00000110: 36e3 cebd 6e50 2ebe dffc 253e 2d5e 56be
00000120: 383c 2b3e b2af a9bd e1a2 d3bc c6e2 fc3c
00000130: 2a0c a43a 00fb 63bd 5f0b 533b 2aa6 80bd
00000140: 0807 ab3d 2459 713d 3fff 9abd 91dd db3d
00000150: 62fb 283c 32f5 003e 2c0d 503e f49d 26bd
00000160: fe06 11be 0697 68be 3177 663c 009c 943d
00000170: e548 87be bf52 e8bd 9128 e2bd 982b 24be
00000180: 4d3f 233c 0dc2 c13d dec6 9f3d bc5c cabc
00000190: 86a0 133e 9e6a f1bd 0986 b53d 73c5 673d
000001a0: f86f 3dbd eebf b13c dbad c83d f100 27be
000001b0: 0240 7d3d 27c8 c43c 75dd 62be 24d5 5bbe
000001c0: 6812 2fbe 30da b4bd 5d02 93bd dcc3 1b3c
000001d0: dc6b ca3c b7d2 cb3c cc34 f7bd 0fe3 d83c
000001e0: a2a1 8cbd b300 663d e75f 993c b620 ff3d
000001f0: 5943 ea3c 1ceb 843e 0ead 933e 8cfd b23c
00000200: 4192 3a3e 0ce5 473e d3ca e13d f6d7 d1be
00000210: 546a dd3d a9c3 8a3d 2ef5 013e e55b 7fbc
00000220: 1cd7 ec3b c7d5 c3bb 0e7a d8bd cb23 133d
00000230: 460e d23c 148a 9dbd edb4 2f3e 1221 093e
00000240: c695 12be c160 e4bd a080 7c3d bec5 13be
00000250: b38e 6c3c 99ea f5bd 5030 48bd 1403 e5bc
00000260: 3855 033e caec aa3c 69ba a33b 9b8c b63d
00000270: 1a6b 23be faad 183c d23c 2ebd 8f2b efbd
00000280: 8c6e 0c3e c38d bcbd 6761 df3d 038e 553d
00000290: e302 cd3d f201 3d3d 1e04 00be c7d6 08bd
000002a0: 2345 94bc 95e5 1fbe b578 1b3d e027 f63d
000002b0: d81d ffbd a080 0bbe 8f37 813d f90a bfbc
000002c0: cb09 25be d627 243e c155 1e3c c1e9 29be
000002d0: c7e4 ad3d 86cb 853d 0a65 51bc 84fc d43d
000002e0: 122f a93d 794c 11be 6a86 5d3d dcc7 0cbd
000002f0: af1d 5dbe bdb6 6fbc a427 b3bd 643f bcbd
00000300: 1905 b33c 52b2 fd3c dcf2 08bb 2219 ae3d
00000310: 7c93 2e3c dd89 52be 8b64 01be b103 433e
00000320: e222 1c3d 0664 9f3d 259e 9fbc 51d8 343d
00000330: d15f 7bbe c52c 6c3c 513b bfbd 6af0 85bd
00000340: 2f16 3ebe 858e 66be 83b6 1c3d 8d1d d83a
00000350: 914a 81bd aea8 063d 2ff0 aa3d 1f6b b9bc
00000360: 0219 87bc 8fc0 253b c7c0 de3d 2a8f 0ebe
00000370: 4c75 96bd 2387 be3d c1ba 80bd 4801 0dbe
00000380: 5280 d0bd 0b64 ecbd 4db5 993d f8b3 c63d
00000390: f8f9 53be 8c4a 01be 320d 453d c2a9 013e
000003a0: 02cf 823c dd97 61bd 4ad2 21be 96f4 4cbd
000003b0: 8bb6 f9bd eabc 11be e62e 7fbc 5778 8ebe
000003c0: 24c1 efbd baba bd3c 521e 5fbe 1657 4fbe
000003d0: 6bec 71be 7a08 0d3e 0dee 213d 1c9e 2fbe
000003e0: 23b6 5fbe cc0d 4fbe c5d7 5f3e 4e39 8d3d
000003f0: 92c7 cf3d 4c0f 95bd ecc0 71bd 8a08 2fbd

pre_processing_lin_layers.0.bias f4 [32]
-0.14536087 -0.045358952 0.0762987 0.055802487 -0.20315024 -0.005764273 -0.2437867 -0.19436923
0.05039595 -0.1614996 -0.051676042 -0.11745662 -0.29815397 0.13946517 -0.028797306 -0.18627024
0.12301125 0.12005696 -0.08423097 -0.119373165 0.011710376 -0.25103557 -0.15831104 -0.103364706
0.026629332 0.040068045 0.08924897 -0.21752201 -0.07740218 -0.09512392 -0.29824507 -0.21118706
00000000: 7bd9 14be 4fca 39bd 7e42 9c3d 2691 643d
00000010: 9e06 50be 3ae2 bcbb 38a3 79be ba08 47be
00000020: fc6b 4e3d 2760 25be 42aa 53bd 198d f0bd
00000030: a3a7 98be f5cf 0e3e 54e8 ebbc a0bd 3ebe
00000040: 52ed fb3d 6ce0 f53d 4981 acbd eb79 f4bd
00000050: e0dc 3f3c bc87 80be 4a1c 22be e0b0 d3bd
00000060: c225 da3c 641e 243d 2ac8 b63d 17be 5ebe
00000070: 0985 9ebd 54d0 c2bd 94b3 98be 6c41 58be

pre_processing_lin_layers.1.weight f4 [32, 32]
0.11517236 -0.03966349 0.049631853 0.054395393 0.1615186 0.022427168 0.023053287 0.12218142
-0.23360613 0.0712039 -0.004723783 -0.012203 0.07889347 0.05766168 0.05012943 -0.19386129
-0.015929023 0.09165129 0.06294551 -0.07846684 -0.00028876332 -0.10490696 -0.08699473 0.12485517
-0.12128499 -0.022864887 -0.16210982 0.119873114 -0.13796295 -0.13957421 -0.049099315 -0.008755887
-0.001078693 0.04955354 0.0027526245 0.105615884 -0.02760439 0.12783536 -0.08517854 -0.048398487
0.16180272 -0.11369513 -0.15016183 -0.032948967 -0.15395127 0.013937111 0.026273813 -0.057188477
-0.05575895 -0.054419827 -0.10006554 -0.094495274 0.054543823 0.032749277 0.11684423 0.22935608
-0.09258185 0.025390277 -0.15497984 -0.2121712 -0.116194874 0.07871381 0.00061355013 -0.14706846
-0.09169953 0.13392736 0.07417806 -0.065361105 -0.03256205 0.095964424 -0.00017662854 -0.043823615
-0.14989649 -0.07575154 0.06308037 -0.08944681 0.072630785 -0.059486866 0.045563653 0.019485462
-0.09135451 -0.18536371 0.04912822 0.110867925 -0.017105766 0.089883596 -0.08276364 -0.10586833
-0.03333205 0.12719102 0.095915645 -0.23656271 0.03135045 -0.009259138 0.025175584 0.13304503
-0.044473115 0.16781403 0.0062821703 0.06468555 -0.08166859 -0.065100715 -0.03517433 -0.004461187
-0.038980007 0.044567626 0.05157887 -0.05159604 0.13329276 0.07025443 0.082250245 -0.07985903
0.1216835 -0.073222615 0.029970374 -0.043332722 -0.026013644 -0.05074667 0.15469553 0.032517675
-0.0003460251 0.070351854 -0.032672696 -0.06728188 -0.057777986 0.08372786 -0.056428198 0.1394253
0.08186409 0.10266039 -0.09308228 -0.012276972 -0.19938594 -0.041828558 -0.08446577 -0.027776014
0.05551245 -0.07056795 -0.14370638 0.028286785 0.029368801 0.09113811 -0.0018363177 0.06660468
-0.070752785 -0.01638182 0.037961412 -0.14133511 -0.07528061 0.17026669 -0.07994213 -0.03966943
-0.020852312 0.12617792 0.044694614 -0.09016876 -0.03521133 -0.09277658 -0.049222402 -0.051792085
-0.15251563 0.1942773 -0.09474849 -0.12761997 0.099330746 -0.010291517 -0.0108059645 -0.12334631
0.3233482 -0.053595025 0.1264749 0.0054690796 0.09972944 -0.17524365 -0.0634444 0.05638887
-0.111477904 -0.17243825 -0.050253533 -0.10745048 -0.22330947 -0.29042038 0.20930195 0.32160115
-0.2808947 0.22143799 -0.19163221 -0.47668603 -0.31809348 -0.04063392 -0.009419692 0.068200804
-0.00013558443 0.027137835 0.025002267 0.07306185 0.02841778 -0.0026709288 0.09841845 0.08836477
-0.1465553 -0.045839574 -0.15287249 0.09685389 0.10665799 -0.07998925 -0.034721315 -0.08906598
-0.08185599 -0.0012766509 0.092040285 0.13119252 0.052710634 0.104684085 0.044095058 0.07289797
-0.03992788 -0.10335123 -0.011085015 -0.012300423 0.11100516 -0.08673905 0.026230307 0.07622624
-0.15705177 -0.019976683 -0.13635047 -0.07483998 -0.021690087 -0.058623444 -0.13710646 0.05890399
-0.0095269075 0.0052264016 0.0817865 -0.025584346 -0.018078173 -0.14229618 0.056501042 0.05699673
0.049829055 -0.114282995 0.057844777 0.031049848 0.008055241 -0.009324785 -0.04040302 -0.001160008
0.044426788 0.058432255 0.11984227 0.019293852 -0.0034297602 0.050465215 -0.014531953 0.022485958
00000000: 7cdf eb3d 2f76 22bd c54a 4b3d b4cd 5e3d
00000010: 2265 253e 2eb9 b73c 3fda bc3c 413a fa3d
00000020: 7236 6fbe 5ad3 913d f7c9 9abb 17ef 47bc
00000030: e692 a13d a72e 6c3d 8454 4d3d 9383 46be
00000040: 957d 82bc acb3 bb3d 93e9 803d 39b3 a0bd
00000050: 2865 97b9 76d9 d6bd 4b2a b2bd 11b4 ff3d
00000060: 4464 f8bd 254f bbbc 1e00 26be 0980 f53d
00000070: 2946 0dbe 8bec 0ebe 5d1c 49bd da74 0fbc
00000080: ee62 8dba a7f8 4a3d 6065 343b 244d d83d
00000090: 9a22 e2bc 46e7 023e 1672 aebd 7e3d 46bd
000000a0: 9daf 253e fed8 e8bd 06c4 19be 7ff5 06bd
000000b0: 67a5 1dbe 7b58 643c 2e3c d73c 773e 6abd
000000c0: 7f63 64bd 53e7 5ebd 29ef ccbd bd86 c1bd
000000d0: 5869 5f3d 1b24 063d 074c ef3d 52dc 6a3e
000000e0: 8e9b bdbd 45ff cf3c 09b3 1ebe 6843 59be
000000f0: 94f7 edbd b534 a13d a7d6 203a 1d99 16be
00000100: f7cc bbbd 4124 093e abea 973d 0bdc 85bd
00000110: c95f 05bd ff88 c43d 5d35 39b9 6480 33bd
00000120: 777e 19be a023 9bbd 4830 813d e42f b7bd
00000130: 73bf 943d 80a8 73bd f4a0 3a3d fa9f 9f3c
00000140: 1318 bbbd fccf 3dbe ac3a 493d b90e e33d
00000150: 6421 8cbc e414 b83d fc7f a9bd 7fd1 d8bd
00000160: 3087 08bd 5d3e 023e 6c6f c43d 7f3d 72be
00000170: 5469 003d a4b3 17bc 073d ce3c f53c 083e
00000180: 7129 36bd 71d7 2b3e aada cd3b dc79 843d
00000190: dd41 a7bd 8653 85bd f512 10bd 262f 92bb
000001a0: 80a9 1fbd 8b8c 363d 5d44 533d 5f56 53bd
000001b0: e67d 083e 8ee1 8f3d d172 a83d 228d a3bd
000001c0: 3335 f93d bdf5 95bd 6e84 f53c a77d 31bd
000001d0: 911a d5bc bedb 4fbd 8168 1e3e 4131 053d
000001e0: b46a b5b9 a214 903d ced3 05bd 15cb 89bd
000001f0: 9ca8 6cbd 8379 ab3d 4121 67bd 81c5 0e3e
00000200: 5ca8 a73d 9c3f d23d eca1 bebd 5a25 49bc
00000210: d42b 4cbe 6c54 2bbd 64fc acbd 868a e3bc
00000220: 0661 633d ee85 90bd c427 13be b0b9 e73c
00000230: d796 f03c 9ea6 ba3d 99b0 f0ba 0968 883d
00000240: d6e6 90bd 2b33 86bc 6d7d 1b3d 27ba 10be
00000250: b82c 9abd 645a 2e3e b3b8 a3bd 6a7c 22bd
00000260: 78d2 aabc c934 013e b311 373d 66aa b8bd
00000270: c139 10bd a601 bebd 6e9d 49bd f023 54bd
00000280: 0f2d 1cbe a1f0 463e 7f0b c2bd cfae 02be
00000290: eb6d cb3d c09d 28bc 800b 31bc fd9c fcbd
000002a0: e58d a53e 7586 5bbd a382 013e f735 b33b
000002b0: f33e cc3d 1273 33be 23ef 81bd 04f8 663d
000002c0: 874e e4bd a793 30be a6d6 4dbd ff0e dcbd
000002d0: 3dab 64be fbb1 94be 4053 563e e8a8 a43e
000002e0: 6ed1 8fbe a4c0 623e 3c3b 44be 3110 f4be
000002f0: 26dd a2be c16f 26bd 0d55 1abc ddac 8b3d
00000300: ab2b 0eb9 2a50 de3c 8ed1 cc3c 74a1 953d
00000310: 67cc e83c c00a 2fbb 9d8f c93d 97f8 b43d
00000320: 9812 16be 47c2 3bbd 9b8a 1cbe 555b c63d
00000330: 816f da3d 67d1 a3bd f037 0ebd 3968 b6bd
00000340: 1da4 a7bd 4c55 a7ba 9e7f bc3d 5557 063e
00000350: 1be7 573d 9c64 d63d 059d 343d 884b 953d
00000360: 6b8b 23bd cfa9 d3bd ec9d 35bc b787 49bc
00000370: ac56 e33d 3ea4 b1bd f1e0 d63c 811c 9c3d
00000380: 2ed2 20be 24a6 a3bc 759f 0bbe b445 99bd
00000390: 69af b1bc 231f 70bd a365 0cbe 4f45 713d
000003a0: bf16 1cbc 3c42 ab3b ae7f a73d 4396 d1bc
000003b0: ad18 94bc 17b6 11be a36d 673d 6775 693d
000003c0: 8d19 4c3d 340d eabd a5ee 6c3d 405c fe3c
000003d0: 21fa 033c fcc6 18bc a37d 25bd 690b 98ba
000003e0: ddf8 353d a956 6f3d dd6f f53d 240e 9e3c
000003f0: d4c5 60bb 9db4 4e3d 6e17 6ebc 7934 b83c

pre_processing_lin_layers.1.bias f4 [32]
0.09467247 -0.057571698 -0.026068656 -0.10039822 -0.103289545 0.02839435 0.14343256 0.0038236591
-0.00010361429 0.07010606 0.05057343 0.09429232 0.020774342 -0.011421494 -0.051345523 0.03351285
-0.010039399 -0.016081065 0.09810425 -0.0078954445 0.17071678 -0.103183694 0.091945186 0.10317199
-0.007026997 0.040545788 -0.12499235 -0.022065386 0.0747722 0.015033549 0.041866895 -0.08009608
00000000: a4e3 c13d 4dd0 6bbd ef8d d5bc 959d cdbd
00000010: 7889 d3bd 459b e83c fcdf 123e 5b96 7a3b
00000020: 804b d9b8 c493 8f3d 1626 4f3d 551c c13d
00000030: f42e aa3c 3821 3bbc af4f 52bd c544 093d
00000040: 4b7c 24bc 70bc 83bc e2ea c83d e55b 01bc
00000050: 61d0 2e3e f951 d3bd c24d bc3d d64b d33d
00000060: b942 e6bb 5713 263d fdfb ffbd 78c2 b4bc
00000070: 2b22 993d 464f 763c 9f7c 2b3d 6a09 a4bd

post_processing_lin_layers.0.weight f4 [32, 32]
0.02396997 0.009759264 -0.023685869 0.057050798 -0.002581089 -0.116567105 0.043710634 -0.09168421
-0.08005364 -0.009243385 0.007905915 0.008594938 -0.031487104 0.03199259 0.0037239399 -0.0032024528
-0.07475467 0.04532992 -0.09443061 -0.11960646 0.08888226 0.12868565 -0.1977049 -0.064692445
-0.16009483 0.13937065 -0.045504864 -0.013475145 0.035672095 0.10659675 -0.07779996 0.10757083
-0.00062650396 -0.15997066 -0.022409847 -0.17646538 -0.15840983 -0.19414537 -0.049831823 -0.27476308
-0.17212044 -0.10861918 -0.1253025 -0.11913777 0.14197797 0.08130625 0.234164 -0.1304233
-0.04110789 -0.087514214 0.0018505375 -0.0011408955 -0.06867541 -0.26501834 -0.12358092 0.16074988
-0.14098483 -0.14784074 -0.1985557 -0.11158484 0.21125671 -0.15940389 0.1549348 0.14317328
-0.12900686 -0.16291653 -0.14129342 -0.08469978 0.015083062 0.16593704 0.091755144 -0.06617262
-0.027398039 -0.1582632 0.05578349 -0.02871691 -0.022561273 0.06923943 0.021898862 0.02197046
-0.0026607907 0.029405825 -0.01573938 0.00669767 -0.12093649 0.15134315 0.04208246 -0.011596139
0.021904346 -0.02968986 0.05486092 -0.04842719 -0.03347176 -0.105764374 -0.11146268 -0.16410622
0.0851104 -0.03237631 0.07015631 -0.062031344 0.0026924212 0.037511185 0.052821822 -0.09208594
-0.079524375 -0.015372754 0.0574691 0.0011691997 0.028848127 0.087300986 0.16161345 0.13569388
0.061012678 -0.059957538 0.083372615 -0.14396685 0.018741138 0.06310933 0.010201017 0.1466004
-0.039489772 -0.04336874 -0.0035648998 -0.12159211 -0.0609453 0.10056138 -0.088377625 -0.029507203
0.009200167 0.04487242 -0.090548545 -0.0021492406 0.038186774 0.16041656 -0.002563216 0.12810905
-0.069358714 0.017625941 0.054917365 -0.06623554 0.10577566 -0.04685575 0.0696521 -0.08498425
-0.08826691 0.048815552 0.07083423 -0.029909683 -0.049941067 -0.0032279477 -0.09281407 -0.03121072
-0.09526721 -0.11018655 0.12738936 -0.18865934 -0.032659806 0.015827531 0.0182643 0.028984863
0.038913954 0.0006494662 -0.09663732 0.039090794 -0.13529688 -0.09669399 0.01539061 -0.028427182
-0.024751518 -0.045067385 0.009570947 -0.050286535 0.22762029 0.13128681 0.009789454 -0.06255596
-0.17307173 -0.1049373 -0.092792936 -0.02200222 -0.07866581 -0.0024525183 -0.06000516 0.043998405
-0.117987886 0.0048273397 -0.16766499 -0.014079358 0.12730452 -0.029949648 0.13355559 0.025562841
0.033539306 -0.02132066 0.11286474 0.05037628 -0.036989152 0.10752059 0.05386458 0.076218195
0.034620613 0.026814304 -0.031183839 -0.055893146 0.028204286 -0.15456223 0.008231812 -0.009756025
0.09328571 0.06420678 0.123031445 0.037419397 0.07378594 -0.11078632 -0.06268266 -0.09095066
-0.063089706 -0.018439393 0.07877061 0.013490273 -0.13401073 -0.025756497 -0.09282777 0.050153267
0.1344992 0.056090094 -0.10974699 -0.12671041 0.02859229 -0.0065203323 0.018703088 -0.055070277
0.02072092 0.04455461 0.019149665 -0.11822101 -0.22881874 0.02062424 -0.07133523 0.019128999
-0.19642143 -0.09563435 0.06733277 0.028048977 -0.04485575 -0.0644068 -0.08282796 0.050964214
0.05555905 0.010136919 0.0790715 0.001357663 0.12839931 0.19281366 0.01175809 0.19184645
00000000: ac5c c43c 52e5 1f3c de08 c2bc 19ae 693d
00000010: 7d27 29bb bcba eebd ec09 333d eec4 bbbd
00000020: 2af3 a3bd 9171 17bc d087 013c c8d1 0c3c
00000030: 9ff8 00bd a90a 033d 580d 743b 3ee0 51bb
00000040: fa18 99bd deab 393d d664 c1bd 3bf4 f4bd
00000050: e707 b63d 2cc6 033e 2773 4abe 797d 84bd
00000060: e6ef 23be 2eb7 0e3e 4f63 3abd dbc6 5cbc
00000070: e71c 123d 664f da3d 9655 9fbd 184e dc3d
00000080: f83b 24ba 59cf 23be db94 b7bc 57b3 34be
00000090: 3036 22be 0bce 46be 741c 4cbd bfad 8cbe
000000a0: 5740 30be bc73 debd 4c4f 00be 81fe f3bd
000000b0: ac62 113e e483 a63d b0c8 6f3e b08d 05be
000000c0: bf60 28bd a73a b3bd bc8d f23a 1a8a 95ba
000000d0: b1a5 8cbd 7cb0 87be fe17 fdbd 9e9b 243e
000000e0: 545e 10be 9063 17be 2f52 4bbe 9886 e4bd
000000f0: ae53 583e c63a 23be 3aa7 1e3e 049c 123e
00000100: 601a 04be 97d3 26be 39af 10be 1477 adbd
00000110: f31e 773c 66eb 293e 1fea bb3d 8385 87bd
00000120: da71 e0bc c00f 22be 3b7d 643d ba3f ebbc
00000130: 6bd2 b8bc 67cd 8d3d 3e65 b33c 65fb b33c
00000140: a960 2ebb 7ce4 f03c dfef 80bc 2178 db3b
00000150: 8dad f7bd b3f9 1a3e a85e 2c3d bbfd 3dbc
00000160: be70 b33c 2638 f3bc d8b5 603d 975b 46bd
00000170: af19 09bd fe9a d8bd 8c46 e4bd 760b 28be
00000180: 5d4e ae3d 069d 04bd 1dae 8f3d 9414 7ebd
00000190: 5573 303b 54a5 193d b25b 583d 8e97 bcbd
000001a0: addd a2bd 01de 7bbc b864 6b3d d53f 993a
000001b0: e852 ec3c dcca b23d ff7d 253e 56f3 0a3e
000001c0: 6ee8 793d 0996 75bd 43bf aa3d 0c6c 13be
000001d0: 0487 993c 773f 813d 2b22 273c 6a1e 163e
000001e0: 07c0 21bd 6ba3 31bd 18a1 69bb 4905 f9bd
000001f0: c7a1 79bd 20f3 cd3d 54ff b4bd 17b9 f1bc
00000200: 4cbc 163c 25cc 373d 8471 b9bd 46da 0cbb
00000210: bc69 1c3d 3d44 243e a1fb 27bb 052f 033e
00000220: f10b 8ebd 4764 903c 08f1 603d 80a6 87bd
00000230: e9a0 d83d d1eb 3fbd c3a5 8e3d 390c aebd
00000240: 48c5 b4bd d1f2 473d 8911 913d 2705 f5bc
00000250: 018f 4cbd fa8b 53bb 4e15 bebd a0ad ffbc
00000260: 741b c3bd 7ca9 e1bd 5b72 023e ea2f 41be
00000270: 4ac6 05bd bda8 813c 039f 953c aa71 ed3c
00000280: 3d64 1f3d f040 2a3a cae9 c5bd ab1d 203d
00000290: 448b 0abe 8007 c6bd e628 7c3c 1fe0 e8bc
000002a0: b2c3 cabc 9498 38bd 76cf 1c3c 41f9 4dbd
000002b0: 4b15 693e 0d70 063e f263 203c 571d 80bd
000002c0: b739 31be 5ee9 d6bd 390a bebd 003e b4bc
000002d0: 8a1b a1bd 6eba 20bb f8c7 75bd ac37 343d
000002e0: a2a3 f1bd a92e 9e3b 5fb0 2bbe 1cad 66bc
000002f0: 1e5c 023e f758 f5bc ccc2 083e 2a69 d13c
00000300: 8360 093d aaa8 aebc a125 e73d 5c57 4e3d
00000310: f081 17bd c133 dc3d 1ba1 5c3d 4918 9c3d
00000320: 58ce 0d3d aca9 db3c 4075 ffbc 36f0 64bd
00000330: ad0c e73c 9045 1ebe b9de 063c bcd7 1fbc
00000340: 940c bf3d d87e 833d e9f7 fb3d 1545 193d
00000350: 151d 973d f0e3 e2bd c45f 80bd 5744 babd
00000360: 2d35 81bd 360e 97bc 7c52 a13d 4e06 5d3c
00000370: 1c3a 09be 4aff d2bc 7c1c bebd 836d 4d3d
00000380: 29ba 093e babe 653d 08c3 e0bd 60c0 01be
00000390: 613a ea3c 83a8 d5bb 3837 993c 5f91 61bd
000003a0: ebbe a93c e57e 363d c2df 9c3c db1d f2bd
000003b0: 764f 6abe 2bf4 a83c 3418 92bd 6bb4 9c3c
000003c0: b322 49be f1db c3bd c3e5 893d f8c6 e53c
000003d0: aaba 37bd b6e7 83bd b5a1 a9bd dabf 503d
000003e0: e391 633d 5215 263c 3df0 a13d 9cf3 b13a
000003f0: 1c7b 033e f270 453e 01a5 403c 6573 443e

post_processing_lin_layers.0.bias f4 [32]
-0.002920509 0.08626549 -0.06522482 -0.039588407 0.017827127 0.06026368 0.115348324 0.00831253
0.035656653 0.08286402 0.1064149 0.0022985411 0.052798063 -0.11777157 -0.13694073 -0.029363189
-0.14503384 0.108041875 -0.01678058 0.034108985 0.075185984 -0.10664368 0.03655744 0.10781674
0.12984937 -0.015909212 0.000821675 0.16810049 0.1352633 -0.16005273 -0.109126806 -0.116347075
00000000: 0366 3fbb f6ab b03d 9794 85bd 7427 22bd
00000010: 320a 923c 0cd7 763d be3b ec3d 4731 083c
00000020: b60c 123d 9cb4 a93d 0ef0 d93d 1fa3 163b
00000030: c842 583d 3932 f1bd 313a 0cbe 128b f0bc
00000040: c083 14be 0f45 dd3d 6d77 89bc ddb5 0b3d
00000050: 1cfb 993d 0068 dabd 41bd 153d 06cf dc3d
00000060: 3cf7 043e 0954 82bc ad65 573a 8922 2c3e
00000070: 7682 0a3e dde4 23be e07d dfbd 6047 eebd

final_lin_layers.0.weight f4 [32, 32]
-0.050986096 0.043191224 0.026731933 -0.11008038 -0.13978946 -0.0017748486 -0.011902759 0.04821029
0.08481446 0.05610188 -0.06500804 0.055990327 0.04281609 0.085069954 0.15468588 -0.048498224
0.0533364 -0.035005447 -0.081239335 -0.094640054 -0.073183775 -0.014767786 -0.064476185 0.06453262
0.12907264 -0.12596782 0.1780781 0.049099725 0.08926069 -0.025048994 0.14960901 -0.12869196
-0.028537575 0.008053046 0.037599705 -0.033828203 0.14729847 -0.10244904 0.047139626 -0.12398699
-0.03685101 -0.25524378 0.14640594 -0.10849627 -0.071332335 0.02501635 0.12621397 -0.06254499
0.10601088 -0.21812382 0.015959052 0.017183183 -0.099081814 -0.10036779 0.05084431 -0.065634854
0.058593396 0.023347843 0.03347595 -0.046605717 0.064308435 -0.038527086 0.015085149 0.029775735
0.06251523 -0.2309882 -0.051103484 -0.014089376 0.10784579 0.0048371865 -0.0333252 -0.15301019
0.026051074 -0.23520498 -0.064146735 0.05860738 0.017431896 0.24183536 0.175366 -0.16580166
0.11650047 -0.01092531 -0.173244 -0.103660144 0.059065502 -0.22511332 0.18162425 -0.10645302
0.0112010455 -0.10747812 0.18340172 -0.011689189 0.17455791 -0.17393535 0.10747866 -0.08389176
0.061457206 -0.25993022 0.14132133 0.076513946 0.2075389 -0.09921295 0.14346983 -0.06465185
-0.27683893 -0.36148444 -0.1018517 -0.2068894 0.07627729 0.2901609 0.12655999 -0.16072895
0.07195913 -0.2869413 0.049172286 -0.31616157 -0.042569224 -0.41122788 0.059543937 0.008804219
-0.060193334 0.06101722 0.04701209 -0.21931952 -0.06703778 -0.18104073 -0.040275004 -0.23896073
0.054467857 0.028544592 0.020967396 0.027849637 0.025688153 0.02028544 0.09893949 -0.09510472
0.10325776 -0.06211231 0.093980916 -0.10433479 0.113544956 0.17144608 0.009831588 -0.08134114
-0.020494336 0.028123138 -0.14861241 0.08413829 -0.11970278 -0.18591328 -0.05898185 0.11617399
0.04034417 -0.06657263 0.024243835 0.08848897 0.15950978 -0.07200981 -0.0046988623 -0.11804069
-0.14331278 -0.05028305 -0.011746885 0.018700164 -0.12850168 -0.04194474 0.12366044 0.0007452304
0.047239337 -0.079719566 0.0016753566 -0.18031697 0.06327306 0.05995295 0.035490517 -0.026206894
-0.059445556 0.031040397 0.0058900323 -0.14244443 -0.13118052 -0.029899769 0.013148179 -0.025175583
-0.07232926 0.1413234 0.083560444 -0.031527884 -0.008053927 -0.06411567 0.20563637 0.038686335
-0.20601371 -0.16735747 -0.09827428 -0.036569085 -0.16205096 0.0874587 0.1555331 -0.06768883
-0.03828013 -0.2735522 -0.16051976 0.082549125 -0.13828816 0.3482664 0.27218413 -0.017547457
0.117573336 -0.24840757 -0.07481455 -0.010286824 -0.11385585 -0.21666357 -0.037985813 -0.052585363
0.20907612 0.11372471 0.10313414 -0.035372186 0.08029482 -0.087758355 0.11790853 -0.21191084
-0.111846246 -0.21862182 -0.10363235 -0.10809625 -0.113552086 0.0025930232 0.12591156 -0.11045012
-0.08008945 -0.021356586 -0.18964337 0.044952523 -0.08329303 0.22331393 0.0300447 0.08267156
-0.024258887 -0.056506738 0.051830936 -0.09688581 -0.018439598 -0.15403731 0.11134899 0.08205353
0.04358815 0.052614905 -0.0033258414 -0.07654365 0.09656996 -0.042227585 -0.044458903 0.0909039
00000000: ccd6 50bd 48e9 303d edfc da3c d371 e1bd
00000010: f824 0fbe 09a2 e8ba ca03 43bc 2778 453d
00000020: 34b3 ad3d 16cb 653d ef22 85bd 1d56 653d
00000030: ed5f 2f3d 2839 ae3d fa65 1e3e 13a6 46bd
00000040: 4577 5a3d df61 0fbd cf60 a6bd a5d2 c1bd
00000050: 60e1 95bd 95f4 71bc 170c 84bd ae29 843d
00000060: 9e2b 043e b5fd 00be 1b5a 363e cb1c 493d
00000070: 4fce b63d 8c33 cdbc 1b33 193e d3c7 03be
00000080: a2c7 e9bc ecf0 033c 2602 1a3d 718f 0abd
00000090: 69d5 163e cdd0 d1bd 7b15 413d e4ec fdbd
000000a0: 16f1 16bd 50af 82be 70eb 153e 4b33 debd
000000b0: b016 92bd 17ef cc3c 3c3e 013e 9617 80bd
000000c0: 3b1c d93d da5b 5fbe 8fbc 823c bfc3 8c3c
000000d0: 68eb cabd a18d cdbd 2042 503d 916b 86bd
000000e0: a1ff 6f3d fa43 bf3c 141e 093d a3e5 3ebd
000000f0: 24b4 833d 94ce 1dbd b327 773c 3eec f33c
00000100: fc07 803d 2c88 6cbe e351 51bd 20d7 66bc
00000110: 41de dc3d 4381 9e3b 0180 08bd b4ae 1cbe
00000120: 1069 d53c 93d9 70be 5d5f 83bd 4b0e 703d
00000130: 56cd 8e3c b0a3 773e 2593 333e e9c7 29be
00000140: cc97 ee3d 1200 33bc e066 31be c54b d4bd
00000150: abee 713d 1b84 66be b5fb 393e 0a04 dabd
00000160: 9784 373c 7d1d dcbd a9cd 3b3e 0384 3fbc
00000170: 4fbf 323e 1c1c 32be c61d dc3d 71cf abbd
00000180: 8dba 7b3d 9315 85be 8ab6 103e 58b3 9c3d
00000190: 1485 543e 2930 cbbd c1e9 123e 3068 84bd
000001a0: d5bd 8dbe 7d14 b9be a097 d0bd d1da 53be
000001b0: 4537 9c3d f88f 943e f198 013e 2196 24be
000001c0: 4f5f 933d f8e9 92be e168 493d eedf a1be
000001d0: 115d 2ebd 768c d2be 58e4 733d 923f 103c
000001e0: 498d 76bd 31ed 793d c08f 403d 4c95 60be
000001f0: 1b4b 89bd be62 39be 67f7 24bd 1fb2 74be
00000200: b019 5f3d 59d6 e93c d1c3 ab3c ec24 e43c
00000210: f66f d23c a72d a63c caa0 ca3d 43c6 c2bd
00000220: ce78 d33d 7a69 7ebd 1179 c03d 7aad d5bd
00000230: 428a e83d 908f 2f3e ab14 213c 2f96 a6bd
00000240: bde3 a7bc 7f62 e63c da2d 18be b250 ac3d
00000250: bb26 f5bd 0d60 3ebe f496 71bd a1ec ed3d
00000260: ee3f 253d 3b57 88bd 029b c63c b539 b53d
00000270: 8856 233e e179 93bd eaf8 99bb 51bf f1bd
00000280: 96c0 12be 99f5 4dbd 0276 40bc 1631 993c
00000290: f295 03be 3fce 2bbd af41 fd3d 915b 433a
000002a0: 097e 413d 0344 a3bd a497 db3a 03a5 38be
000002b0: 4e95 813d 3991 753d 815e 113d d7af d6bc
000002c0: 2f7d 73bd 6e48 fe3c 2c01 c13b f4dc 11be
000002d0: 3054 06be 5cf0 f4bc 766b 573c 063d cebc
000002e0: 5d21 94bd 15b7 103e bd21 ab3d 6223 01bd
000002f0: 9ef4 03bc 144f 83bd 5792 523e 9075 1e3d
00000300: 42f5 52be c25f 2bbe 0744 c9bd 77c9 15bd
00000310: b0f0 25be 8c1d b33d 1244 1f3e 71a0 8abd
00000320: a0cb 1cbd 090f 8cbe 4b5f 24be 840f a93d
00000330: 699b 0dbe f94f b23e b85b 8b3e afbf 8fbc
00000340: 4aca f03d 8e5e 7ebe 5f38 99bd 118a 28bc
00000350: 422d e9bd 0edd 5dbe 0397 1bbd c063 57bd
00000360: 0d18 563e 80e8 e83d fe37 d33d 6de2 10bd
00000370: 9c71 a43d a7ba b3bd 077a f13d 28ff 58be
00000380: a50f e5bd 66de 5fbe 333d d4bd 9161 ddbd
00000390: ff8d e8bd b6ef 293b f6ee 003e ac33 e2bd
000003a0: f005 a4bd 02f4 aebc df31 42be 2320 383d
000003b0: 8995 aabd 68ac 643e 4d20 f63c b54f a93d
000003c0: 93ba c6bc 9c73 67bd ad4c 543d 116c c6bd
000003d0: a40e 97bc f5bb 1dbe f00a e43d ae0b a83d
000003e0: 7d89 323d ba82 573d 5cf6 59bb ebc2 9cbd
000003f0: 79c6 c53d d5f6 2cbd 8a1a 36bd d32b ba3d

final_lin_layers.0.bias f4 [32]
0.13826504 -0.014173761 -0.29855058 -0.15768191 0.020128135 0.14675993 -0.09028862 0.15062958
0.11696819 -0.25429857 -0.10066386 -0.05133894 -0.090261735 -0.048989665 -0.1571175 -0.3732477
0.2267025 -0.33028916 0.102921024 -0.22345726 0.12228951 -0.018370103 -0.029268466 -0.07607221
0.123301655 0.057473447 -0.13504457 0.13676493 -0.076169714 0.017542893 -0.13161772 0.074840374
00000000: 5a95 0d3e 1039 68bc 9fdb 98be 5e77 21be
00000010: c2e3 a43c 3c48 163e 3de9 b8bd a43e 1a3e
00000020: 058d ef3d 6c33 82be db28 cebd c848 52bd
00000030: 25db b8bd 63a9 48bd 69e3 20be 531a bfbe
00000040: b324 683e a91b a9be 42c8 d23d fbd1 64be
00000050: ec72 fa3d e67c 96bc 6cc4 efbc bfcb 9bbd
00000060: 9485 fc3d 4769 6b3d 2049 0abe 1b0c 0c3e
00000070: defe 9bbd 1db6 8f3c ccc6 06be e945 993d

final_lin_layers.1.weight f4 [32, 32]
-0.01681115 -0.056488644 -0.13375701 0.21598773 -0.19974849 -0.09224242 -0.124695614 0.03497816
-0.025087928 0.32097387 0.13208582 -0.1254341 -0.13552666 0.022310873 -0.02223062 -0.046950616
-0.91169626 -0.14697331 -0.10679219 0.081422865 -0.0156208845 -0.18358736 0.0769007 -0.090567715
0.09768926 -0.014776672 -0.17341802 -0.32599413 0.057345793 0.04507753 -0.031730138 -0.034259103
-0.10237011 -0.06705805 -0.047722317 -0.20325291 -0.10241686 -0.27549076 0.05310768 -0.39076045
-0.529458 -0.173976 0.15393628 0.052221343 0.04117275 -0.25110736 0.04810157 -0.10279577
-1.0829493 0.12449881 -0.008253438 -0.14761148 -0.5460949 0.06420937 0.09090612 -0.15037791
-0.5668749 -1.1552962 0.021145834 -0.1093287 -0.038059093 -0.038216285 -0.107373156 -0.12159885
-0.2694596 -0.020992475 -0.093230695 0.076585464 -0.2809239 -0.4099502 -0.0023810642 -0.19256306
-0.13291949 0.07363218 -0.10153441 0.03696541 -0.14743556 0.034278195 -0.019477751 0.03248663
0.19369292 0.025434649 -0.12652327 -0.034740813 -0.20625024 -0.14831445 -0.030387063 0.007377847
-0.37279534 -0.19444914 -0.02563294 -0.33347452 -0.10140109 -0.083227895 -0.013151283 -0.12528904
-0.13563162 0.04262771 -0.061511945 0.01087673 -0.15262447 -0.10639786 0.12413394 -0.061346516
-0.05100805 0.0073040123 0.033355173 -0.02861809 0.050085947 -0.037770882 0.071681276 -0.5159051
-0.8160518 0.15261874 -0.06479736 0.1264157 -0.0734906 -0.13446078 -0.08392685 -0.1907445
-0.15082404 -0.1114134 0.017819254 -0.09723974 0.14721566 0.14290039 -0.14813413 -0.02193033
-0.074931584 0.011675825 0.12277097 0.4649705 -0.036115583 -0.02029121 0.009204135 0.09334396
0.011637673 0.7262762 -0.05121656 -0.0677925 -0.010338505 -0.003004985 0.49773026 0.60433096
-0.012427855 0.6230631 -0.030151727 0.0047394834 -0.0061831814 -0.045399744 0.16783534 0.08115454
0.009031553 0.04622474 0.08171461 0.057885483 0.101598814 0.07681204 0.044321634 0.048791982
-0.04764582 0.13668832 -0.083691664 -0.28670394 -0.34140903 -0.08994456 -0.08255342 -0.34367296
-0.10607859 -0.6300649 0.03193207 0.075699985 -0.08427422 0.007176987 0.15236872 0.025090836
-0.28702557 0.13537925 -0.06921327 0.12412638 -0.2862405 0.03413348 0.34686506 0.17223866
-0.3404762 -0.12663217 0.16928925 -0.18545444 0.19281557 0.036164865 0.03699379 -0.23396605
-0.2457386 -0.3188959 -0.30211923 -0.58687633 -0.31900918 -0.3764281 -0.29902792 -0.39260662
-0.29640812 -0.23095375 -0.10454683 -0.19867438 -0.12467878 -0.37332624 -0.33491582 -0.16983636
0.011170473 -0.058941115 -0.24424446 -0.22041845 -0.4129574 -0.07900866 -0.3759412 -0.1395912
-0.38904658 -0.21752746 -0.15408139 -0.08112947 -0.10449386 -0.17470266 -0.090350606 -0.20577568
0.08612531 0.020158764 0.09123794 0.47339773 -0.14765441 -0.08072495 -0.03537788 -0.10858371
0.12611184 0.6893114 0.5528614 0.18191352 0.044247746 -0.07750314 0.28633305 0.40024003
-0.04424436 0.41211697 -0.14492258 -0.022204934 0.05004125 -0.058930986 0.065379664 -0.054917015
-0.09790711 -0.069164746 0.048896156 0.08214336 0.39341363 0.48207378 0.10092769 0.07136381
00000000: 89b7 89bc a360 67bd 99f7 08be e32b 5d3e
00000010: de8a 4cbe 98e9 bcbd 6a60 ffbd 4245 0f3d
00000020: 3385 cdbc b056 a43e 8141 073e cc71 00be
00000030: 80c7 0abe 4bc5 b63c fd1c b6bc 4a4f 40bd
00000040: ed64 69bf 2c80 16be ddb5 dabd 08c1 a63d
00000050: bdee 7fbc 53fe 3bbe 1d7e 9d3d 917b b9bd
00000060: 4f11 c83d db19 72bc 7e94 31be b4e8 a6be
00000070: 6ce3 6a3d 37a3 383d 76f7 01bd 4653 0cbd
00000080: 6ca7 d1bd bb55 89bd 7a78 43bd 8821 50be
00000090: eebf d1bd 200d 8dbe 7087 593d c111 c8be
000000a0: 8f8a 07bf c426 32be 79a1 1d3e 0ce6 553d
000000b0: c2a4 283d 2591 80be 2706 453d 9786 d2bd
000000c0: 159e 8abf 3bf9 fe3d 6e39 07bc 7727 17be
000000d0: e0cc 0bbf 3480 833d fd2c ba3d abfc 19be
000000e0: b71e 11bf bfe0 93bf 073a ad3c bae7 dfbd
000000f0: dae3 1bbd ae88 1cbd 75e6 dbbd d108 f9bd
00000100: 9cf6 89be 69f8 abbc bcef bebd d7d8 9c3d
00000110: 42d5 8fbe fee4 d1be a10b 1cbb 402f 45be
00000120: 0c1c 08be 78cc 963d 46f1 cfbd 0b69 173d
00000130: 59f9 16be 4b67 0c3d ce8f 9fbc b310 053d
00000140: 7057 463e 535c d03c 518f 01be 624c 0ebd
00000150: 4333 53be bedf 17be 4aee f8bc dec1 f13b
00000160: 08df bebe ad1d 47be 2cfc d1bc 2cbd aabe
00000170: 60ab cfbd 6373 aabd 7b78 57bc c54b 00be
00000180: 04e3 0abe 659a 2e3d f3f3 7bbd 5034 323c
00000190: 9749 1cbe 1fe7 d9bd ef39 fe3d 7c46 7bbd
000001a0: d1ed 50bd 7f56 ef3b 6f9f 083d 7c70 eabc
000001b0: ec26 4d3d a4b5 1abd a2cd 923d 5b12 04bf
000001c0: c5e8 50bf 1648 1c3e 7ab4 84bd 1e73 013e
000001d0: 3d82 96bd 16b0 09be d7e1 abbd 8752 43be
000001e0: 9e71 1abe b52c e4bd aff9 913c a125 c7bd
000001f0: b4bf 163e 7b54 123e 79b0 17be 3ca7 b3bc
00000200: bb75 99bd f64b 3f3c 596f fb3d 9d10 ee3e
00000210: efed 13bd c039 a6bc f1cc 163c 1e2b bf3d
00000220: f0ab 3e3c 3ded 393f 75c8 51bd cbd6 8abd
00000230: d562 29bc 48ef 44bb 80d6 fe3e 6fb5 1a3f
00000240: 349e 4bbc 1081 1f3f c100 f7bc ab4d 9b3b
00000250: 499c cabb 15f5 39bd 07dd 2b3e 5a34 a63d
00000260: 14f9 133c 2756 3d3d fd59 a73d 5419 6d3d
00000270: 0a13 d03d a14f 9d3d 9a8a 353d 1ada 473d
00000280: 4328 43bd 06f8 0b3e 8966 abbd dcca 92be
00000290: 2acd aebe da34 b8bd c411 a9bd e7f5 afbe
000002a0: bb3f d9bd ef4b 21bf 34cb 023d 9808 9b3d
000002b0: f697 acbd ee2c eb3b 8c06 1c3e 4c8b cd3c
000002c0: 04f5 92be dca0 0a3e b0bf 8dbd f935 fe3d
000002d0: 1d8e 92be 8ccf 0b3d 4c98 b13e 555f 303e
000002e0: e652 aebe ddab 01be 295a 2d3e c5e7 3dbe
000002f0: 7271 453e 9c21 143d cd86 173d cc94 6fbe
00000300: e6a2 7bbe 5346 a3be 5faf 9abe 873d 16bf
00000310: 2c55 a3be 2fbb c0be 301a 99be bc03 c9be
00000320: cec2 97be 247f 6cbe a61c d6bd 4c71 4bbe
00000330: 9757 ffbd 9e24 bfbe 167a abbe 95e9 2dbe
00000340: 5c04 373c 3d6c 71bd 381b 7abe 60b5 61be
00000350: 276f d3be 4bcf a1bd 5d7b c0be fff0 0ebe
00000360: 1d31 c7be 85bf 5ebe 83c7 1dbe 3527 a6bd
00000370: e000 d6bd 41e5 32be bd09 b9bd dcb6 52be
00000380: 7762 b03d fe23 a53c f5da ba3d 3061 f23e
00000390: b832 17be 1f53 a5bd 65e8 10bd 2361 debd
000003a0: 7623 013e b676 303f 5388 0d3f 8a47 3a3e
000003b0: 203d 353d f7b9 9ebd 3f9a 923e 43ec cc3e
000003c0: 9339 35bd ff00 d33e 9666 14be 1fe7 b5bc
000003d0: 0ef8 4c3d 9e61 71bd c6e5 853d aaf0 60bd
000003e0: 8683 c8bd 3fa6 8dbd 5647 483d c73a a83d
000003f0: 836d c93e 60d2 f63e 2db3 ce3d 3027 923d

final_lin_layers.1.bias f4 [32]
-0.17169152 -0.6789432 -0.27292252 -0.4145761 0.08563395 -0.6511945 -0.018065196 0.16379882
0.19190834 0.19960882 0.100494325 0.2285416 -0.5664899 -0.9691288 -0.3614448 0.07570676
0.19084479 0.16371924 -0.40482092 -0.4310058 -0.96698 -0.5246536 0.21320444 0.20253378
0.1382207 -0.23833637 -0.66252834 -0.35124198 0.1506061 -0.340529 0.17563401 -1.008097
00000000: e7cf 2fbe 39cf 2dbf 80bc 8bbe 5243 d4be
00000010: da60 af3d afb4 26bf 76fd 93bc e1ba 273e
00000020: 9f83 443e 4166 4c3e f8cf cd3d cf06 6a3e
00000030: 7b05 11bf d318 78bf 4b0f b9be 250c 9b3d
00000040: d16c 433e 04a6 273e b044 cfbe cbac dcbe
00000050: 008c 77bf b34f 06bf 4452 5a3e 0465 4f3e
00000060: ba89 0d3e 730e 74be 759b 29bf fdd5 b3be
00000070: 7c38 1a3e d159 aebe 67d9 333e 5309 81bf

final_lin_layers.2.weight f4 [1, 32]
-0.14843278 -0.10327333 -0.21136485 -0.15939617 0.018640291 -0.18636577 -0.09407352 0.011143191
0.01008675 0.00758749 0.019380823 0.008365108 -0.04099478 -0.09614327 -0.14749423 0.018494869
0.008050102 0.009469413 -0.25557458 -0.12253566 -0.107450604 -0.1035976 0.008091608 0.008482495
0.012900637 -0.21348943 -0.13493416 -0.2750312 0.011708057 -0.20692708 0.009232962 -0.09507381
00000000: c3fe 17be f880 d3bd 0770 58be c038 23be
00000010: 86b3 983c abd6 3ebe 9ea9 c0bd ee91 363c
00000020: e542 253c 7ba0 f83b 88c4 9e3c ce0d 093c
00000030: 24ea 27bd c3e6 c4bd ba08 17be 8d82 973c
00000040: 93e4 033c 9925 1b3c acda 82be faf3 fabd
00000050: 100f dcbd fa2a d4bd aa92 043c 2afa 0a3c
00000060: 325d 533c f99c 5abe 2e2c 0abe e4d0 8cbe
00000070: 26d3 3f3c b1e4 53be d945 173c 0fb6 c2bd

convs.0.lin_l.weight f4 [32, 32]
-0.016381383 0.15076043 -0.1267693 0.054006685 0.12969267 0.07988265 0.09503722 -0.07513958
0.15559223 -0.10068387 0.040357787 -0.13871525 0.05178068 -0.07036723 0.093246244 0.047342476
0.03934993 -0.017169619 0.038605634 -0.050426826 0.26857284 -0.11340829 -0.013429004 -0.068578765
-0.03138716 -0.0039101243 -0.16834013 -0.19279663 0.04997505 0.110852174 0.041258078 0.1527492
0.1539282 -0.09516006 0.14928652 0.054621138 -0.028200284 0.010310911 -0.03694649 0.18748394
-0.2413318 0.20375057 0.055355888 -0.04099998 -0.07610986 0.2697018 0.046192337 -0.020331621
-0.01317028 -0.13862115 0.09559169 0.017905742 -0.06816009 0.124037966 -0.017230103 0.21357176
-0.0009557372 0.047873933 0.11143074 0.023225904 0.22656228 0.05023785 0.060989894 0.11550508
0.17286642 0.0320487 -0.01865503 -0.121886946 0.0980717 -0.0023600764 0.14768243 -0.06350167
0.07725497 0.12701668 -0.06564063 -0.08894202 0.10696514 0.055204317 0.09247357 0.023905337
0.12727094 -0.026032297 0.045946363 0.1856415 0.117312506 -0.011039693 0.033161502 0.0091516785
0.08259613 0.024066499 -0.055687856 0.056863762 -0.085644 0.017724205 -0.035521545 0.0517096
-0.027468296 -0.08976798 0.19060181 0.005696047 0.0145871835 -0.1280721 -0.005393143 0.1625329
0.14341316 0.21063751 -0.053009823 -0.1388999 0.1870277 0.274191 0.085046105 -0.08075443
-0.10321066 0.15700626 0.18309724 0.35843506 0.16093096 -0.07766218 -0.13132247 0.16087061
-0.0074076857 0.0060657808 0.087039754 0.20787112 -0.1573448 -0.18976195 -0.033727348 -0.02167141
-0.083375536 0.004298081 0.004983729 -0.05602625 0.04103028 0.19139439 -0.0034702122 -0.15351072
0.084477074 0.03790739 0.11215838 0.008718188 -0.02055823 -0.010227983 0.060641795 0.107397355
-0.021410616 -0.058540937 -0.18686096 0.058159236 -0.071464084 -0.08775574 -0.077602625 0.057265013
-0.07359913 0.09953158 0.0628628 0.03479027 -0.14724177 -0.038910948 0.036220063 0.10856967
-0.16097173 0.14792368 -0.0855809 0.25203407 0.10138729 0.3135459 0.047131546 -0.11174543
0.09757934 0.014637449 -0.124728635 -0.3717534 0.069062136 -0.0381229 0.11486547 -0.08224242
-0.12448198 0.14912903 -0.17903556 -0.0069842646 0.3062932 -0.027636975 -0.18336971 -0.13580874
-0.29156467 0.043048613 -0.09683266 -0.038688418 0.013344401 -0.14841433 -0.12032189 0.23635326
0.09972484 -0.04174914 0.019155959 0.07692681 -0.06914648 0.02217059 -0.15016413 -0.07152379
0.030802919 0.23168464 -0.068400614 0.08667514 -0.0008729799 -0.14422207 0.16948627 0.114710785
-0.0783673 0.1132787 0.009393537 -0.06078395 0.09931082 -0.019932816 -0.14675225 -0.1352197
0.017305057 0.099962056 0.25760764 0.31278315 0.10750116 0.12160326 -0.077804 0.02736225
-0.034348436 0.12393901 0.13482252 0.045700427 0.11631049 0.019938279 -0.22745214 -0.16789308
0.12307151 0.029250253 0.09336502 -0.16346787 -0.30117348 0.017918358 0.18452623 0.08915323
-0.09491536 -0.044833075 -0.17112221 -0.18307622 0.2715049 -0.14287305 -0.045397054 -0.16016595
-0.23024467 -0.103824295 -0.064222574 -0.06835374 -0.056180052 -0.010853836 0.025284864 0.0008327831
00000000: 4032 86bc f160 1a3e d0cf 01be 1d36 5d3d
00000010: 28ce 043e 8499 a33d e0a2 c23d c8e2 99bd
00000020: 9253 1f3e 5833 cebd 354e 253d 5f0b 0ebe
00000030: fa17 543d b21c 90bd e3f7 be3d 2fea 413d
00000040: 642d 213d 4da7 8cbc f120 1e3d 5c8c 4ebd
00000050: 6182 893e 9b42 e8bd 5305 5cbc 0673 8cbd
00000060: d38f 00bd 8020 80bb 5b61 2cbe 7b6c 45be
00000070: a3b2 4c3d 7706 e33d 3bfe 283d 496a 1c3e
00000080: 5b9f 1d3e 47e3 c2bd 91de 183e 6aba 5f3d
00000090: 4804 e7bc 18ef 283c 3455 17bd cafb 3f3e
000000a0: af1f 77be fda3 503e dbbc 623d 98ef 27bd
000000b0: 7cdf 9bbd 5b16 8a3e 2d34 3d3d 808e a6bc
000000c0: 28c8 57bc b4f2 0dbe 93c5 c33d 10af 923c
000000d0: 8497 8bbd 9e07 fe3d 2526 8dbc 8eb2 5a3e
000000e0: 708a 7aba 7517 443d cd35 e43d 4044 be3c
000000f0: f1ff 673e 34c6 4d3d 8ad0 793d ed8d ec3d
00000100: e503 313e 7f45 033d 6fd2 98bc dd9f f9bd
00000110: d1d9 c83d 83ab 1abb 103a 173e 2a0d 82bd
00000120: db37 9e3d a910 023e 986e 86bd 3c27 b6bd
00000130: 8a10 db3d ec1d 623d c862 bd3d 20d5 c33c
00000140: 5053 023e af41 d5bc 4132 3c3d ce18 3e3e
00000150: 8a41 f03d d4df 34bc 5bd4 073d ecf0 153c
00000160: 2928 a93d 1b27 c53c f318 64bd fae9 683d
00000170: 1f66 afbd 5a32 913c 0a7f 11bd 72cd 533d
00000180: 3105 e1bc 46d8 b7bd 1f2d 433e e8a5 ba3b
00000190: 15ff 6e3c 5525 03be f6b8 b0bb 066f 263e
000001a0: e6da 123e 5cb1 573e d420 59bd c63b 0ebe
000001b0: 3084 3f3e c362 8c3e a72c ae3d 9462 a5bd
000001c0: 1c60 d3bd 40c6 203e d87d 3b3e cd84 b73e
000001d0: 16cb 243e 590d 9fbd 6679 06be 44bb 243e
000001e0: 2cbc f2bb 75c3 c63b e641 b23d 2bdc 543e
000001f0: ff1e 21be f550 42be b025 0abd 3e88 b1bc
00000200: cbc0 aabd ebd6 8c3b 8d4e a33b c87b 65bd
00000210: 5e0f 283d e4fc 433e 806c 63bb ea31 1dbe
00000220: 5102 ad3d c844 1b3d 4bb3 e53d bbd6 0e3c
00000230: bc69 a8bc 4593 27bc 8863 783d 25f3 db3d
00000240: 5165 afbc 9fc8 6fbd 7b58 3fbe 6138 6e3d
00000250: c35b 92bd 48b9 b3bd 20ee 9ebd b88e 6a3d
00000260: 24bb 96bd 37d7 cb3d 36be 803d 3e80 0e3d
00000270: 8cc6 16be 1661 1fbd 7d5b 143d c659 de3d
00000280: c6d5 24be 4e79 173e 0a45 afbd 9c0a 813e
00000290: 24a4 cf3d 1789 a03e 020d 413d cada e4bd
000002a0: add7 c73d e9d1 6f3c ba71 ffbd 7656 bebe
000002b0: 7370 8d3d c226 1cbd 963e eb3d b76e a8bd
000002c0: 69f0 febd 48b5 183e 1955 37be 42dc e4bb
000002d0: 76d2 9c3e f066 e2bc 45c5 3bbe 7211 0bbe
000002e0: f747 95be be53 303d 3450 c6bd bf77 1ebd
000002f0: 79a2 5a3c edf9 17be 536b f6bd 9706 723e
00000300: 893c cc3d 2501 2bbd f5ec 9c3c ce8b 9d3d
00000310: ab9c 8dbd 199f b53c a0c4 19be 117b 92bd
00000320: 6756 fc3c bd3e 6d3e 9f15 8cbd bc82 b13d
00000330: b0d8 64ba f3ae 13be cf8d 2d3e 7ded ea3d
00000340: 097f a0bd aafe e73d 5ae7 193c 97f8 78bd
00000350: 7963 cb3d 254a a3bc 3946 16be 0877 0abe
00000360: 56c3 8d3c e8b8 cc3d 26e5 833e 1d25 a03e
00000370: 9129 dc3d 210b f93d b457 9fbd cc26 e03c
00000380: f2b0 0cbd bcd3 fd3d ea0e 0a3e 5f30 3b3d
00000390: 3234 ee3d 9a55 a33c 37e9 68be 2aec 2bbe
000003a0: ea0c fc3d 3a9e ef3c 2936 bf3d 1f64 27be
000003b0: 6933 9abe 85c9 923c 72f4 3c3e f895 b63d
000003c0: fc62 c2bd e3a2 37bd a93a 2fbe 5578 3bbe
000003d0: b102 8b3e 504d 12be 43f2 39bd 8b02 24be
000003e0: 42c5 6bbe d5a1 d4bd 2087 83bd 0cfd 8bbd
000003f0: 0e1d 66bd 4ad4 31bc 3422 cf3c 214f 5a3a

convs.0.lin_l.bias f4 [32]
-0.07016673 -0.13459682 0.11568689 -0.29410303 0.055356495 0.048283078 -0.010914127 -0.13280499
-0.22190303 -0.151316 -0.2553702 -0.037162647 -0.12386865 0.057339218 -0.031368658 -0.0017136653
-0.17206296 0.053784035 -0.19473363 0.077746384 -0.16113539 -0.01877992 0.03919844 -0.018812602
-0.05564343 -0.32797056 -0.1493671 0.04601398 -0.3265308 0.145348 0.07513863 -0.06894141
00000000: 93b3 8fbd c0d3 09be 40ed ec3d ac94 96be
00000010: 7ebd 623d 7ac4 453d 2bd1 32bc 08fe 07be
00000020: 8c3a 63be 95f2 1abe e2bf 82be dc37 18bd
00000030: d9ae fdbd 87dc 6a3d 6c7c 00bd 119d e0ba
00000040: 4631 30be a64c 5c3d 4168 47be 7f39 9f3d
00000050: ad00 25be 59d8 99bc 8b8e 203d e31c 9abc
00000060: 5eea 63bd c2eb a7be b0f3 18be 2879 3c3d
00000070: 0c2f a7be 1bd6 143e 48e2 993d 2731 8dbd

convs.0.lin_r.weight f4 [32, 32]
-0.090236925 -0.050851524 -0.09901737 -0.034293935 0.20048232 0.045583315 0.03692252 -0.03755621
0.07286126 0.10036713 0.05043106 0.106715314 -0.018764883 -0.034927487 0.044713296 0.12616354
-0.13264829 -0.087715454 -0.11775604 -0.040118217 0.16516276 -0.044798415 0.060300004 0.118237086
0.09449154 0.07683865 -0.09881467 0.097760454 0.14355613 0.036894783 -0.13163465 -0.09250293
0.16792601 -0.12754308 0.046689246 -0.030097185 -0.11799249 -0.010000946 0.10888197 0.06959567
-0.08298766 0.20123383 0.14008118 0.04183564 0.17629097 0.13784648 0.03395337 0.02273778
0.14234634 0.02111668 -0.11373504 0.051949956 0.11002987 0.1450303 -0.041756768 0.088587806
0.12942582 0.0333704 0.09727706 -0.17463562 0.22864364 0.18796006 -0.073224746 0.07399341
0.22595215 0.05542552 -0.013678091 0.058746442 -0.04872151 -0.17162398 0.117135085 0.047690585
-0.004182855 0.011101554 0.0682949 0.07580128 0.108097605 0.14644927 -0.11999459 0.09070192
0.06692778 -0.0921403 0.15784018 0.016372452 0.11951966 0.015327121 0.15578255 0.025595164
0.03735195 -0.1026416 -0.06272251 0.06355504 -0.03669605 -0.12075978 0.15139863 -0.14198264
0.06956814 -0.20317867 -0.100225754 -0.10643922 -0.25578013 -0.24324273 -0.12534621 0.16460365
0.043268032 0.2617101 -0.1663834 0.19730936 -0.056482144 -0.14831308 -0.14304674 -0.23561671
-0.0069596265 -0.041303955 0.008473611 0.29832524 0.09445189 0.15990245 0.086422905 0.13370119
-0.14144714 0.10119988 0.056974284 -0.0004176019 -0.07118465 -0.049665246 -0.10784505 -0.3093774
-0.043051437 0.036358897 0.09225275 -0.1333747 0.019934496 -0.19447106 -0.071656 -0.07076618
0.0029394298 -0.024581287 0.015932575 -0.003769847 -0.059641153 -0.06492076 -0.046024177 0.13544267
0.13544627 0.06913772 -0.18970688 0.017981684 -0.015573995 0.012517492 -0.07600315 0.27320632
0.18049204 -0.03369719 0.12063259 0.029523076 0.031159956 0.10367466 0.06403726 0.12107703
-0.17201573 0.16336769 -0.035980552 -0.04907411 0.027228259 0.251369 -0.21236393 0.08352957
0.04097542 -0.04782829 0.004800629 -0.17513977 -0.007174727 -0.04929917 0.08845302 -0.0009158814
-0.096245274 -0.011568966 -0.13652334 0.061984286 0.05421395 -0.07735162 -0.19828373 0.053859357
-0.3089338 0.042859573 -0.012691778 0.0005238991 -0.119530804 -0.10885635 -0.011644086 0.29797387
0.0129126245 0.1815765 -0.011161263 -0.030529791 0.053093188 0.042347837 -0.17273493 -0.06229221
0.025624353 0.20449288 0.2184516 -0.15578417 -0.030137569 0.091755405 0.13566512 0.0734335
0.054496523 0.100109674 -0.00388327 -0.030433923 -0.07645862 -0.11954794 -0.056999203 0.023239283
-0.018234368 0.13587499 0.081069455 0.16486368 0.2590568 0.008617788 -0.0018595394 0.10976428
0.029604135 -0.023914428 -0.19642174 -0.032983165 0.21697372 0.002797772 -0.042245556 0.0053650695
0.07683536 -0.03420996 0.014256959 -0.025273034 -0.14697655 -0.08771535 0.09522163 0.13975812
0.029087868 -0.05616976 -0.08931035 -0.02086519 -0.08577844 0.08430115 -0.06482214 0.0059203273
0.00696678 0.08842406 0.07409081 0.08513558 0.12204377 0.16896896 0.080712885 0.05454168
00000000: 23ce b8bd b049 50bd 9ec9 cabd cc77 0cbd
00000010: 3d4b 4d3e 92b5 3a3d 113c 173d 8ad4 19bd
00000020: 4938 953d 488d cd3d cd90 4e3d 8f8d da3d
00000030: d0b8 99bc 2010 0fbd 4a25 373d 0431 013e
00000040: f4d4 07be 29a4 b3bd 142a f1bd 0053 24bd
00000050: 6d20 293e 8b7e 37bd 23fd 763d 4926 f23d
00000060: c884 c13d 955d 9d3d 595f cabd a236 c83d
00000070: 6100 133e fc1e 173d 3ccb 06be 2d72 bdbd
00000080: ccf4 2b3e a79a 02be 393d 3f3d 5f8e f6bc
00000090: 0ca6 f1bd 02db 23bc 83fd de3d 2d88 8e3d
000000a0: 6ff5 a9bd 3e10 4e3e 7171 0f3e d95b 2b3d
000000b0: 9f85 343e a127 0d3e b012 0b3d 9544 ba3c
000000c0: 3dc3 113e e3fc ac3c ebed e8bd 7ac9 543d
000000d0: 5757 e13d d382 143e 2509 2bbd 866d b53d
000000e0: 3488 043e 67af 083d 3239 c73d aed3 32be
000000f0: 8f21 6a3e 9a78 403e dbf6 95bd db89 973d
00000100: 0060 673e df05 633d 121a 60bc 1ca0 703d
00000110: 3590 47bd 32be 2fbe 85e4 ef3d 3457 433d
00000120: 5510 89bb 4be3 353c 32de 8b3d b43d 9b3d
00000130: 4762 dd3d ccf6 153e b9bf f5bd eec1 b93d
00000140: 6f11 893d 0eb4 bcbd dba0 213e 851f 863c
00000150: b9c6 f43d 9b1e 7b3c 7685 1f3e f3ac d13c
00000160: 5cfe 183d c235 d2bd a974 80bd 2529 823d
00000170: 994e 16bd e750 f7bd 3e08 1b3e e663 11be
00000180: be79 8e3d 120e 50be 2943 cdbd cefc d9bd
00000190: 9df5 82be 9f14 79be c25a 00be dc8d 283e
000001a0: d239 313d defe 853e 6960 2abe 770b 4a3e
000001b0: d259 67bd 62df 17be d87a 12be 8245 71be
000001c0: 940d e4bb 562e 29bd e7d4 0a3c 16be 983e
000001d0: fe6f c13d 78bd 233e 7efe b03d f7e8 083e
000001e0: 85d7 10be e241 cf3d de5d 693d 94f1 dab9
000001f0: 42c9 91bd c96d 4bbd dedd dcbd b766 9ebe
00000200: b456 30bd 11ed 143d 03ef bc3d 6193 08be
00000210: ab4d a33c 6c23 47be 62c0 92bd dced 90bd
00000220: 73a3 403b b25e c9bc 0885 823c 8a0f 77bb
00000230: 484a 74bd 2df5 84bd d983 3cbd 7cb1 0a3e
00000240: 6db2 0a3e 1498 8d3d 8542 42be 534e 933c
00000250: 122a 7fbc 2b16 4d3c 8aa7 9bbd b3e1 8b3e
00000260: e8d2 383e 1106 0abd 380e f73d 61da f13c
00000270: 2a43 ff3c 6153 d43d f825 833d 3cf7 f73d
00000280: e424 30be dc49 273e 5860 13bd ef01 49bd
00000290: cc0d df3c 70b3 803e ee75 59be 8d11 ab3d
000002a0: d8d5 273d 99e7 43bd 984e 9d3b d757 33be
000002b0: f919 ebbb eded 49bd db26 b53d c317 70ba
000002c0: 3e1c c5bd c38b 3dbc c6cc 0bbe 3ce3 7d3d
000002d0: 720f 5e3d 876a 9ebd e40a 4bbe a19b 5c3d
000002e0: 922c 9ebe 858d 2f3d 2df1 4fbc 4656 093a
000002f0: 91cc f4bd 14f0 debd d6c6 3ebc 0890 983e
00000300: 798f 533c 31ef 393e bbdd 36bc 9d19 fabc
00000310: 3e78 593d ed74 2d3d 6de1 30be 1e26 7fbd
00000320: 2aea d13c 9566 513e c7b1 5f3e e385 1fbe
00000330: 10e3 f6bc 42ea bb3d cceb 0a3e 4e64 963d
00000340: bf37 5f3d 4d06 cd3d 767e 7ebb 9050 f9bc
00000350: 5696 9cbd 8dd5 f4bd ff77 69bd 4f60 be3c
00000360: 3e60 95bc d022 0b3e be07 a63d 06d2 283e
00000370: 18a3 843e 9f31 0d3c cabb f3ba 18cc e03d
00000380: 5f84 f23c 31e8 c3bc c822 49be 5b19 07bd
00000390: 5c2e 5e3e d35a 373b ad09 2dbd 77cd af3b
000003a0: db5b 9d3d be1f 0cbd 0596 693c 6509 cfbc
000003b0: 0581 16be 1ba4 b3bd 8f03 c33d c11c 0f3e
000003c0: ae49 ee3c 4312 66bd 58e8 b6bd 7aed aabc
000003d0: 9bac afbd 15a6 ac3d 78c1 84bd 4eff c13b
000003e0: 9649 e43b ac17 b53d ecbc 973d 905b ae3d
000003f0: 16f2 f93d 3306 2d3e cc4c a53d 1967 5f3d
