checkpoints/checkpoints_homogeneous_biomarker_void_graph/DCP_model_1_Fractal_mean_jko779d7.pt (torch, 145088 bytes, 18 tensors)

pre_processing_lin_layers.0.weight f4 [64, 15]
000000 7b 9c 92 3d 63 10 23 3d aa 05 49 be 70 76 60 3e
       0.071587525 0.03981055 -0.19631067 0.2192018
000010 7f 73 d3 3c 67 e8 19 be cc 19 2c be ab dd cb bd
       0.025811909 -0.1503006 -0.16806716 -0.09954389
000020 a1 c4 43 3b 0b 54 2a be bd 16 ee bd ed ca 03 be
       0.0029871839 -0.16633622 -0.11625431 -0.12870379
000030 7a 97 2d be 8d 5f 3b 3d 5f c9 f8 3d 34 21 05 3d
       -0.16952315 0.04574542 0.121477835 0.032502368
000040 ee 01 e8 3c cd f1 b0 bd eb 3e 14 be 22 2a a0 bd
       0.028321233 -0.0863987 -0.14477126 -0.07820536
000050 c8 1f a3 3d 8e b0 04 3e 5f a1 e7 3d 0b a4 a8 bd
       0.07965046 0.12957975 0.11310076 -0.08234414
000060 a3 db be 3b 6e 48 6e 3c f8 e7 3c 3e 22 fd c7 3c
       0.0058245226 0.014543636 0.18447864 0.024412695
000070 c4 f1 63 bc 52 d2 3a bd f0 ab 06 be 17 3a 74 3d
       -0.013912622 -0.045610733 -0.13151526 0.05962571
000080 08 09 cb 3d c5 51 82 3d 78 2b a9 3d a8 c0 1a 3d
       0.09913832 0.063632526 0.08260244 0.037781388
000090 f3 70 4e be 0a 76 5f bd c3 b6 50 be b7 71 e5 3d
       -0.20160274 -0.05455593 -0.20382218 0.1120333
0000a0 e7 36 bc 3d b8 11 11 bd 8a 44 1b 3e e6 d1 e0 3a
       0.09190159 -0.03541729 0.15162864 0.0017152398
0000b0 c9 2b e5 bd c3 4e 2a 3d 01 59 89 be 6f 46 15 be
       -0.11189992 0.04157902 -0.26825717 -0.1457765
0000c0 c6 89 68 bd 25 11 e1 3d 91 05 95 3c d0 14 d3 3d
       -0.056772016 0.10989598 0.01819113 0.10306704
0000d0 6e f2 24 3e 5b b9 71 3e 23 e6 1f be 39 a9 59 be
       0.16108105 0.23605864 -0.15615134 -0.2125596
0000e0 93 65 aa bb 82 67 aa bd 27 45 9a 3d ff b1 7b 3e
       -0.005200097 -0.08320524 0.07532721 0.24579619
0000f0 7b 5b ba bd 8e 07 05 be 5a 19 95 bc a9 51 57 bc
       -0.0909948 -0.12991163 -0.018200565 -0.013142028
000100 f8 17 f9 3d 86 24 c7 bd 61 ef 74 3d 37 a8 02 3e
       0.12162775 -0.09723763 0.059798602 0.12759481
000110 1e cb 14 be fa ba 62 be 43 35 21 3e 5b ea 65 bd
       -0.14530608 -0.22141638 0.15742974 -0.056131702
000120 e8 42 31 3e 92 2b 7b bd eb 74 c1 bd a8 ed f9 3d
       0.17310679 -0.06132085 -0.094461285 0.122035325
000130 46 3c 87 3d 79 82 2d bd f7 c0 e1 3d ce ee 2f bd
       0.06603293 -0.042360757 0.11023133 -0.04295235
000140 c2 f0 fe 3c b8 6f d4 bd 38 b4 00 be f8 3d 8b 3d
       0.031120662 -0.10372871 -0.12568748 0.06798929
000150 d8 4e 06 bc 8e 84 5e 3e d0 6c 49 bc fd 4e 6e be
       -0.008197509 0.21730253 -0.012294009 -0.23272319
000160 f7 0c 4e bd 34 ef d5 bd e3 c5 45 3a ed f1 ed 3d
       -0.050305333 -0.10446015 0.0007544441 0.11618409
000170 68 94 32 be cf dd ba 3c 62 24 08 bc 1b cb ee bc
       -0.17439425 0.022810845 -0.008309456 -0.029149583
000180 07 62 22 be 6c 46 db bd ab 6c 7d 3e 12 6b e5 3d
       -0.15857707 -0.10706791 0.24748485 0.11202063
000190 01 43 89 3e d8 09 ad bd 3a 29 0e 3d d7 84 68 3e
       0.26808932 -0.08449143 0.034707285 0.22706924
0001a0 1a ac e4 3d ac 02 bb bd d1 13 5c 3e fb 00 fa bd
       0.11165638 -0.09131369 0.21491934 -0.12207218
0001b0 3c 66 0d 3e 25 c7 73 bd f1 21 17 be 0e 67 69 be
       0.1380853 -0.05951609 -0.14759041 -0.22793218
0001c0 12 1f 4b be ea 6b 9b 3d 80 4f 3f bd 7c 1d 72 bc
       -0.19836071 0.07588942 -0.046706676 -0.014777537
0001d0 dc 22 05 3d 09 ac 61 bb b4 33 f3 bd 4a 5c ce 3d
       0.032503948 -0.0034434816 -0.11875096 0.100761965
0001e0 d5 74 a9 3d 94 c9 46 3e 62 85 2c be ff 53 20 3e
       0.08274237 0.19412833 -0.16847757 0.15657042
0001f0 43 28 7e 3c a9 66 96 bd 96 c0 47 3e 70 7f f3 3c
       0.015512529 -0.073437996 0.1950706 0.029723853
000200 df b4 0b be f6 1e 98 bd 62 d2 5f 3d c0 bf ce 3d
       -0.13643216 -0.0742778 0.054643996 0.10095167
000210 21 62 6a 3e 0f b4 9b 3d 88 00 5b 3e 2f 6c 0c be
       0.22888996 0.07602703 0.21386921 -0.13713144
000220 6e 75 2c 3e ac 1a 07 3e fb b7 df bc 68 14 2e 3e
       0.16841671 0.13193768 -0.027309408 0.16999972
000230 01 46 66 3e af 36 ed bd f7 cf 14 3e a9 1f b6 3e
       0.22487642 -0.11582696 0.14532457 0.3557103
000240 2d f0 47 bc 62 cd 4e bc 76 93 af 3d 36 85 89 be
       -0.012203258 -0.012622209 0.08573048 -0.26859444
000250 00 95 0e 3e 52 11 81 bd fb 6f ce bb 3e d9 b0 3c
       0.13924026 -0.06302132 -0.00629997 0.021587964
000260 71 14 12 3e e5 75 81 3c c6 a0 98 3d 33 0e 43 3c
       0.1426561 0.015803287 0.0745254 0.011905241
000270 ae cb 3e be 6a 6c a9 bc 10 61 1a be 56 76 4e be
       -0.18632385 -0.020681579 -0.15076089 -0.20162329
000280 5b ea 17 3e 59 df 19 bd ac a8 a8 3d a3 25 c9 3c
       0.14835493 -0.037566517 0.082352966 0.02455408
000290 b3 00 d8 3d 87 67 bc bd 37 29 1f be f6 33 49 bc
       0.10547008 -0.09199434 -0.15543066 -0.012280455
0002a0 89 52 0d bd d8 ba b2 bd 32 c9 23 3e a0 0c 5b bb
       -0.03450254 -0.08727044 0.15994719 -0.0033424273
0002b0 1a 2f 81 be 31 52 05 bd eb 22 34 3e 8d 85 d4 3d
       -0.25231248 -0.032549087 0.17591445 0.10377035
0002c0 56 6c 9e be 65 de 81 bb 4c b2 f1 3c 8b 45 53 be
       -0.3094203 -0.003963279 0.029503964 -0.20631997
0002d0 3b 8a f1 bc 8f 84 ab 3d ac 8b 04 be 1d 64 b1 3d
       -0.029484859 0.08374893 -0.12943906 0.08661673
0002e0 87 19 cc 3d d1 a9 28 be 85 8f ad 3d 68 f0 1a bc
       0.099658065 -0.1647103 0.0847464 -0.009456731
0002f0 c9 7c 6b be f9 d1 8b bc be 81 3b be cb df db bd
       -0.2299682 -0.017067896 -0.18311211 -0.107360445
000300 83 9a b4 3d a0 f6 2c 3d 01 b1 90 3b dc ef 2c 3d
       0.08818533 0.042227387 0.0044156318 0.042220935
000310 f1 36 79 bc 4a c3 02 be 13 0b ff bc 5b dc c5 3d
       -0.015210853 -0.1276981 -0.03113321 0.0966117
000320 f5 3c c6 3d 77 2d f5 3d fb 32 28 3d a0 3e e2 3d
       0.096795954 0.11971562 0.041064244 0.11047101
000330 c6 11 47 be e3 70 0c bd 3a 0f c0 bd b2 1b 11 bd
       -0.19440374 -0.034287345 -0.09377904 -0.035426803
000340 43 8c 15 be 7c af 2b be 28 56 86 3d e5 ef a0 3d
       -0.14604287 -0.1676616 0.06559402 0.07858256
000350 92 23 01 be 37 33 8b 3d d4 e7 9d 3d 02 ea b1 3d
       -0.12611225 0.06796878 0.07710233 0.086872116
000360 79 0a 92 3d bd 26 d1 3c 80 0b 87 3e b1 19 af bd
       0.07130904 0.025531167 0.2637596 -0.08549822
000370 97 26 ea bd 20 20 da 3d d6 1e 62 bd 59 b6 29 be
       -0.11433142 0.106506586 -0.05520519 -0.16573466
000380 7e de 37 be 61 e5 e1 bd 6c a0 dc 3c 7b 00 67 3c
       -0.17955968 -0.11030079 0.026931964 0.014099236
000390 19 c4 02 be bc 0f 6f bd 6a 02 a8 3d a4 7a 8c 3c
       -0.12770118 -0.058364615 0.082035854 0.017148323
0003a0 47 e4 ab bd c3 a0 92 3d ec 6e 2e be d3 d5 77 bb
       -0.0839315 0.07159569 -0.17034501 -0.0037816658
0003b0 5b 8f 00 be 60 c5 3f be e3 53 a1 3d f2 6a 32 be
       -0.12554686 -0.18727636 0.07877328 -0.17423609
0003c0 fe 03 57 be 95 72 88 bd 06 29 8b bd b0 26 f5 bd
       -0.20997617 -0.0666248 -0.06794934 -0.1197027
0003d0 c7 52 f1 bb 6f 6d b8 3e 4d 47 e1 3d a3 e3 5d be
       -0.007364604 0.3602099 0.10999928 -0.21668868
0003e0 c0 4f bc bc ab b4 67 bd 25 d0 7d 3e 66 3c ac 3c
       -0.022987247 -0.056568783 0.24786432 0.021024894
0003f0 66 1a 3e 3d ea eb e8 bd 29 1d b5 bd 77 da 33 3b
       0.046411894 -0.11373122 -0.088434525 0.0027443448

pre_processing_lin_layers.0.bias f4 [64]
000000 51 65 d2 3d 45 27 7c 3d 26 3d 47 3d c5 ac 31 3e
       0.10273231 0.061560888 0.0486423 0.17351063
000010 62 7f d7 bd 9d a6 06 3d 0e a0 12 be 5e 7f a6 bc
       -0.10522343 0.03287374 -0.14318869 -0.020324405
000020 d5 24 99 3d 92 0e 7a bd 6f 54 85 bd 35 ba bf bd
       0.07477728 -0.06104905 -0.06510245 -0.09361688
000030 4c 2f 8a bd ee c7 a1 3e 96 b1 13 3e 66 a5 ef bd
       -0.067473024 0.31597847 0.14423212 -0.11701469
000040 89 e5 2d 3e 74 15 b7 3d 7d 10 1c bc e3 a3 1b bc
       0.16982092 0.08939639 -0.0095254155 -0.009499523
000050 2c 8e ac 3d db 44 04 be 49 4c b9 bd fd 87 10 bb
       0.08425555 -0.12916891 -0.09047753 -0.0022053712
000060 a8 a9 46 3e bb 8a 0a 3d 8f 95 78 bd 24 53 d3 bd
       0.19400656 0.03382371 -0.060689505 -0.10318592
000070 8c b4 d7 3c 21 da 10 3e 74 c3 17 be a4 d0 73 bc
       0.026331209 0.1414571 -0.14820653 -0.014881287
000080 9b 87 27 3e 3f 67 46 3b 35 20 72 bd 6a 27 13 3e
       0.16360323 0.0030273942 -0.059112746 0.14370504
000090 bf 01 54 3d 89 09 fd bd a6 ab 9b 3d 75 4e d3 bb
       0.051759478 -0.12355334 0.07601099 -0.006448562
0000a0 1c 3c 51 bd c3 5a 95 3d 07 a3 fd bb 53 51 c6 3d
       -0.051082715 0.07292702 -0.0077403816 0.0968348
0000b0 c3 9e 32 be 07 80 c9 3d 2a 93 e2 3c 1d 48 0c be
       -0.17443375 0.098388724 0.027658064 -0.13699384
0000c0 13 52 c2 3c 3a 0f b1 bd 4f ec e3 3d 39 6d 9a bd
       0.023720777 -0.08645482 0.11129057 -0.07540364
0000d0 b9 06 88 3c f2 17 30 bd 1a c6 6c 3d 16 51 a0 bd
       0.016604768 -0.042991586 0.057806112 -0.07827966
0000e0 ff 4d c8 bc 44 4f 5f be f8 44 37 bd b6 84 33 3e
       -0.024451254 -0.21807581 -0.044743508 0.17531094
0000f0 66 bb 1d 3e 1b fc 62 3d d0 6e 78 3e eb ee 00 3e
       0.15403518 0.055416208 0.24261022 0.1259114

post_processing_lin_layers.0.weight f4 [64, 64]
000000 c2 b4 7d 3c 86 79 9e 3c 61 89 c5 bc 40 1f 4f bc
       0.015484991 0.019345056 -0.024113359 -0.012641728
000010 ac e7 34 3e e5 85 c0 3d 27 10 e6 3d e8 0b ea 3d
       0.17666501 0.09400538 0.112335496 0.11428052
000020 ec 3a 56 be 5f f3 27 bd 33 b0 81 bd 8a fd eb bc
       -0.20920914 -0.04100358 -0.063324355 -0.02880742
000030 f7 a0 31 3b 4d c0 aa 3c 80 80 15 bc 00 4c 38 3e
       0.0027104 0.02084365 -0.009124875 0.17997742
000040 76 e0 d1 bd a5 9a 3a 3c 0d d2 27 bd 31 4d 03 3e
       -0.10247891 0.011389409 -0.040971804 0.12822415
000050 66 56 bd bc f4 53 a6 3d 74 2a 89 bc e8 63 83 3e
       -0.023112487 0.081214815 -0.016743876 0.2566216
000060 17 be b0 bd 9c 0e 06 bd bc 3a da 3d 63 0c 00 3e
       -0.08630007 -0.032728776 0.10655734 0.12504725
000070 cd 1c 50 bd 76 a5 b9 3d 3c 0d 3b 3e 80 a0 18 bc
       -0.050808717 0.09064762 0.18266767 -0.00931561
000080 c2 fb 7f bd 6d 75 71 bc 6d e7 c8 3d a0 e5 fb bd
       -0.062495954 -0.014737469 0.09809766 -0.12299657
000090 14 87 f9 bb e5 b5 9e 3c c2 6f 91 3d 6a da 09 be
       -0.0076149795 0.019373843 0.07101394 -0.13462225
0000a0 6b 1b 81 3e 22 41 3a be a8 f6 e4 bb 73 ec 57 3d
       0.2521623 -0.18188909 -0.0069874115 0.05271573
0000b0 8e a8 12 be 96 00 5c be 0a 0b 9c 3c d2 1a c9 3d
       -0.14322111 -0.21484599 0.019048233 0.09819569
0000c0 fd d3 8a bd 81 01 48 3d 98 97 1d be 65 8b cc 3d
       -0.06778715 0.04882956 -0.1538986 0.09987525
0000d0 b0 f6 f0 3d e2 ec 66 bc 92 8a 3a be dd 1f f5 bd
       0.11765802 -0.014094563 -0.18216923 -0.11968968
0000e0 ca 67 2e 3d 4c ef 2b 3d c6 65 d6 bc 58 4d d5 bd
       0.04257945 0.04197626 -0.026171576 -0.10415143
0000f0 fa f3 78 3d 1f f9 5f 3d 0d 2a eb ba c2 4a 5e bc
       0.06077955 0.05468094 -0.0017941609 -0.013567628
000100 cb 74 c8 3d 4b 5e 0a 3e c7 45 08 3d a7 22 9e 3d
       0.097879015 0.13512532 0.03326967 0.07721453
000110 ad 1b 7d bc 7c 13 03 3e 3f d0 0b bb bc 5d 78 3d
       -0.015448493 0.12800401 -0.002133384 0.060636267
000120 87 0c 03 be c7 04 a2 3d 29 0e a7 3d 11 fb eb bd
       -0.12797748 0.079110675 0.08156998 -0.115224965
000130 42 60 21 3e f7 ba 80 3d 52 4a 47 bd f8 e2 f5 bc
       0.15759376 0.06285661 -0.04865486 -0.030015454
000140 7a b8 a8 3d c6 4b dc bd 54 cc 59 3d e9 17 57 3d
       0.08238311 -0.1075664 0.053173378 0.052513037
000150 ac 9d 99 bc c4 25 63 3d b6 58 56 3d d6 e3 c5 3d
       -0.018751942 0.055455938 0.052330695 0.09662597
000160 cc 24 e3 3b 81 cf 82 3d ac 52 20 3e 56 73 21 3e
       0.0069318768 0.063872345 0.15656537 0.15766653
000170 6c 81 b6 3c 82 fc 30 bc 74 4b 03 bc 24 84 3e 3d
       0.02227851 -0.01080239 -0.008013595 0.046512738
000180 e5 88 3b be 78 3a 5f bc a3 3a 2f bc ce ec 36 3e
       -0.1831394 -0.01362478 -0.010695132 0.17863771
000190 ee b9 cc 3b 34 96 d5 3d b3 7a 23 3d 94 8b 68 bd
       0.0062477505 0.104290396 0.039911937 -0.056773737
0001a0 a5 41 1d 3e d1 a2 83 3d a4 a3 bf 3d 1a be 8e bd
       0.15357073 0.06427539 0.09357384 -0.06969853
0001b0 99 7b b8 bd 41 a0 18 bb 9a 39 80 ba 75 7d 72 3d
       -0.090079494 -0.0023288878 -0.0009782792 0.059201676
0001c0 0b 68 12 3d 5b 7a f0 3c 0c 4a 41 be 37 32 ca 3c
       0.035743754 0.029355219 -0.18875903 0.024682147
0001d0 5f 3a b1 3d 5f b8 41 bd ff 90 2c bb 92 dc 53 3d
       0.086537115 -0.04729497 -0.0026331542 0.051724024
0001e0 2a 29 46 3e a7 bb fa 3d fa 39 00 3d a8 2d 16 3c
       0.1935164 0.12242823 0.03130529 0.009166159
0001f0 c6 78 97 bc 7a 7e c1 3d 98 be 99 bd 14 27 43 3c
       -0.018490206 0.094479516 -0.07507056 0.011911172
000200 2b a6 00 3e ec 80 0f 3e 9d ac f4 bb ab ee df 3c
       0.12563388 0.14014024 -0.007466866 0.027335485
000210 70 16 24 3e 38 62 7a 3d cd 1e fa bb be 45 26 3e
       0.16024184 0.061128825 -0.0076330663 0.16237542
000220 15 70 9c bd 8c 4b 09 bd 12 c4 82 3d a1 af 06 bd
       -0.076385655 -0.033519313 0.06385054 -0.032882337
000230 64 fc 29 3e 01 44 56 3d 90 c2 14 3e 37 ca 0b 3e
       0.16600186 0.052310947 0.14527345 0.13651358
000240 e5 dc 17 bd 00 e5 58 be d4 18 05 3e 1c 9b 41 bc
       -0.037075896 -0.21181107 0.12997752 -0.011816766
000250 0f f1 0d 3e 7e bb 14 3d 50 83 08 bd f2 90 6c 3e
       0.13861488 0.03631162 -0.033328354 0.23102167
000260 e9 d4 e0 3d 27 c2 a0 3a 72 74 2d bd 01 b4 28 3d
       0.109781094 0.0012264893 -0.04234738 0.04118729
000270 5f ac a5 b9 70 6a 23 be e5 b0 e6 3d bc 63 2e 3e
       -0.0003159968 -0.15958571 0.11264209 0.17030233
000280 ad 27 fa bd 36 07 07 3a 68 48 1b 3d 74 e5 38 3d
       -0.12214599 0.0005150916 0.03791085 0.0451407
000290 66 a7 42 bd 4b 96 2a 3e 4e 5b 63 bc 90 e9 de ba
       -0.047522925 0.16658895 -0.013876749 -0.0017006863
0002a0 ab 1b aa 3d a1 ec 20 bd 5d 94 a2 3d 5b ad 7e bc
       0.083060585 -0.039288167 0.07938454 -0.015544261
0002b0 48 b8 45 bd f0 c0 70 3d 4c 73 97 bb 00 ac 12 3e
       -0.048271447 0.05877775 -0.0046218988 0.14323425
0002c0 21 82 0f bd 01 77 41 bb 64 1c 1c be 7e 84 01 3e
       -0.03503621 -0.0029520395 -0.15245205 0.12648198
0002d0 cb 8a 74 3d 3e 0d a2 ba 41 c9 6e 3d 19 76 cf 3d
       0.059702676 -0.0012363566 0.0582974 0.10129947
0002e0 6b 56 94 bb 9b 27 e7 3d 6f ea 3c be 47 ae 8c bc
       -0.0045269034 0.11286851 -0.18448804 -0.017172946
0002f0 10 03 54 bd 45 b1 06 bc b1 a6 ff bb 6b 9b fc 3d
       -0.051760733 -0.008220975 -0.0078018536 0.12334331
000300 7a d0 e0 3c a2 15 08 3e af 25 de bd 7f a4 5e bb
       0.02744316 0.13289502 -0.10847031 -0.003397256
000310 07 b3 62 3e 41 56 c3 bd eb 3c 00 be bc 34 ed b9
       0.22138606 -0.09537936 -0.12523238 -0.00045243453
000320 5f 36 5c 3d 86 da 2f bd ed 09 10 be dc 7a bb 3c
       0.05376279 -0.04293301 -0.14066286 0.022885732
000330 4f 61 0a 3e 4d aa a4 bd 75 97 72 3d cf ca a6 bd
       0.13513683 -0.08040295 0.059226472 -0.081441514
000340 25 d2 7d 3d 6b 87 1e be 0c dc 90 3d 68 8f bb 3d
       0.061967988 -0.15481345 0.070732206 0.09158212
000350 8e fb 05 3e d7 4a a9 3d 15 e3 95 bd 78 32 8c 3c
       0.13084242 0.08266228 -0.07318703 0.01711391
000360 e2 e5 c2 bc 42 fb c3 3d be d7 ca bd 22 c5 f3 bc
       -0.023791257 0.09569408 -0.09904431 -0.029757086
000370 a0 a6 35 3d 60 e5 5b bd ab b8 57 3e 98 6c 29 3e
       0.04434836 -0.053685546 0.21066539 0.16545331
000380 51 e6 9f 3d 57 54 5a 3d 64 37 84 3d e5 33 fe bd
       0.07807601 0.05330309 0.064558774 -0.12412242
000390 0c 49 0f 3e 44 f5 a8 bc 0b b9 2d bb 55 ac 59 bd
       0.13992709 -0.020624764 -0.0026508 -0.053142864
0003a0 58 76 d8 39 69 9b 06 be 56 c8 d9 3d d4 29 49 3c
       0.00041286903 -0.13145222 0.10633914 0.012278039
0003b0 aa 06 93 bd ab b4 0a 3e 00 65 96 bd 62 6d 1f 3e
       -0.071790054 0.13545482 -0.07343483 0.1556907
0003c0 91 36 4d 3c 2a 7f ca 3d ed 92 37 bd 10 33 b7 3d
       0.012525217 0.09887536 -0.044817854 0.08945286
0003d0 10 39 25 3e f7 70 9f 3c 79 a8 9c bd 92 5f bc bc
       0.16135049 0.019463046 -0.07649321 -0.02299479
0003e0 84 01 2f bd 6c c9 35 3d ce f1 fd bc 5d ee b9 bc
       -0.042726055 0.044381544 -0.03099909 -0.022696668
0003f0 07 93 f5 3d c3 34 ca bd 2f 3f ff bd f7 07 db 3d
       0.11990934 -0.09873345 -0.12463223 0.106948785

post_processing_lin_layers.0.bias f4 [64]
000000 d5 06 cf bd 2c bb 0b be bc 3e 05 be 36 c4 19 be
       -0.10108725 -0.13645619 -0.13012213 -0.15016255
000010 0b 3f 5c 3d 57 f4 59 bd d6 93 1e 39 55 09 d3 bd
       0.05377106 -0.053211536 0.00015123127 -0.10304514
000020 18 14 55 3d af c8 7e bd 95 47 2f bd be 94 63 3b
       0.052021116 -0.062203106 -0.042792875 0.0034726108
000030 eb 49 83 bd 1a c1 d5 bd 4a 22 25 be ab 35 ec 3d
       -0.06410583 -0.10437222 -0.16126361 0.11533674
000040 d1 97 01 be 7f 61 2e be 8b 77 de bd 58 d8 cb bd
       -0.1265557 -0.1702938 -0.10862645 -0.09953374
000050 81 ab 99 bd e6 52 3c bd f2 ff 2d bc 29 c8 b1 3d
       -0.07503415 -0.045977496 -0.010620104 0.08680756
000060 f8 e4 33 3c d8 ac a9 ba 99 5c 54 be f9 f6 69 bd
       0.010979883 -0.0012945188 -0.20738448 -0.057120297
000070 8d 39 f9 3d c2 13 fa bd 2e ae 1f be 82 e0 58 be
       0.1216918 -0.122108 -0.15593788 -0.21179393
000080 a6 c8 61 3c 8e 31 30 be d3 9b d6 bd 8f 3a 72 bc
       0.0137807485 -0.17206404 -0.1047894 -0.014784469
000090 b7 f5 15 be bd 7c 8b bd a8 6c 83 3d 12 64 12 be
       -0.14644514 -0.06810901 0.06417209 -0.14295986
0000a0 02 cc ff bc b4 ae 23 bc 1c f1 13 bb 30 cf c9 3c
       -0.031225208 -0.009990383 -0.0022574132 0.024634928
0000b0 e8 3b 0b 3e 74 57 6f 3a e6 f3 09 be 65 16 17 be
       0.13597071 0.0009130158 -0.13471946 -0.14754637
0000c0 9b b6 08 3e ff 94 a7 bc 8c 72 13 be c9 9e af bd
       0.13350908 -0.020456789 -0.14399165 -0.08575208
0000d0 12 47 83 3c 24 a3 51 bd 20 c2 20 be 72 10 9d bd
       0.0160251 -0.051180974 -0.15699053 -0.07669152
0000e0 dc 44 4c 3d 74 09 22 3c be 87 c8 3c 95 ee 4d be
       0.049870357 0.009889949 0.02447879 -0.20110543
0000f0 bd 58 42 3b c9 66 b5 3c 91 78 48 be 62 ba fd bd
       0.0029654943 0.022143738 -0.19577242 -0.12389065

post_processing_lin_layers.1.weight f4 [64, 64]
000000 ff c2 e0 3b 44 78 1e bc 5c 97 b6 bd 7b 39 68 bb
       0.006859183 -0.009672228 -0.08915588 -0.0035434652
000010 c3 d8 3d 3d 74 7d 5c 3c 0e c8 fc bb 73 b3 fb 3d
       0.0463493 0.013457645 -0.007714278 0.122900866
000020 8d db 94 bd b7 d9 cb bd 3d 5d 29 bd ef 9b 52 bd
       -0.072684385 -0.09953635 -0.041348685 -0.05141824
000030 64 c9 5e bd 92 7f 11 be e5 4a 07 bc bc fc 0b be
       -0.05439128 -0.1420882 -0.008257602 -0.1367063
000040 15 be c5 bd 34 f7 87 3b e3 0a 12 be 3c 91 0a be
       -0.09655396 0.004149342 -0.14261965 -0.13531965
000050 5f 82 ec bd 22 e2 e3 bd b0 66 c5 3d f4 58 89 bd
       -0.11548304 -0.11127116 0.09638727 -0.067064196
000060 c0 7e 57 bd 45 0c 0b be 5c 3c 36 3e d3 1b 27 3c
       -0.052611113 -0.13578899 0.17796463 0.010199505
000070 7a e8 22 bd 89 eb 11 be d9 31 86 3d c0 35 8d 3c
       -0.03977249 -0.14250006 0.065524764 0.017237544
000080 13 8d 3c bd d6 eb 5f 3d b1 29 81 3c 31 ae 24 be
       -0.046032976 0.05466827 0.01576695 -0.16082074
000090 bd 56 af bd 59 e2 19 be 60 14 ca bd 52 dd c7 bd
       -0.08561466 -0.15027751 -0.098671675 -0.097590104
0000a0 0e fa 4d 3d 7e 01 41 bd 05 ce a8 bd f9 93 d7 bd
       0.0502873 -0.047120564 -0.0824242 -0.105262704
0000b0 97 d6 cc bc 0a 90 4f 3d 97 63 0f 3d 5e e9 e9 bd
       -0.025004668 0.050674476 0.035007086 -0.114214644
0000c0 fd 10 92 bd 93 03 04 3c 36 62 a7 bd c2 14 bf bd
       -0.071321465 0.008057493 -0.08173029 -0.09330131
0000d0 e2 53 9f bb a4 fb 52 bd 8a 52 93 bc cc 99 2b 3e
       -0.0048622945 -0.051509514 -0.017983694 0.16757888
0000e0 8f f7 42 3c b5 08 18 be c1 b7 4f 3c 4a ab 23 3e
       0.011899843 -0.14847071 0.012678088 0.1598331
0000f0 00 43 82 bd 54 be 67 bd 33 35 13 be 6c a8 06 bd
       -0.063604355 -0.056577995 -0.14375763 -0.032875463
000100 f2 58 49 bd 21 a9 20 be e8 49 6b bd f8 dc 29 3d
       -0.04915709 -0.15689518 -0.05744353 0.041470498
000110 64 53 14 be 12 1c 78 3d e4 68 1d bc 0f d6 e8 3d
       -0.14484936 0.060573645 -0.009607527 0.113689534
000120 6b 92 16 be c4 42 40 3d 8f 6a 2b 3d 7b 5a 64 bd
       -0.14704292 0.046938673 0.04184967 -0.05575035
000130 0d 5b d1 bd 68 0e 6a bd 28 65 8a bd 75 49 38 bd
       -0.10222445 -0.057142645 -0.06757575 -0.04499193
000140 ed 09 00 3d d3 98 5f bd dd 7d 85 3d bf 23 7d bb
       0.031259466 -0.054589104 0.06518147 -0.0038626043
000150 3b cc d7 bd d0 0e 4f 3d a7 e9 1f 3e 2f ba bc 3d
       -0.10537001 0.050551236 0.15616475 0.09215199
000160 3f bd 8f 3d 9e 97 57 be 7b c5 3b 3e 43 5d ac bd
       0.07018518 -0.21053931 0.18337052 -0.08416226
000170 a4 d1 cc bd e8 a3 8b bd d7 5b f6 bd 64 e9 8a 3d
       -0.10000923 -0.06818372 -0.12029236 0.06782797
000180 18 6f ed 3d f2 35 ce 3b aa 72 2a 3d c8 86 c1 3c
       0.11593455 0.006293052 0.04161326 0.023623839
000190 f9 fd 47 3d f5 87 9a bd 11 04 9c bd ae 13 4c bc
       0.04882619 -0.07545463 -0.07617963 -0.012455864
0001a0 5c 47 0e bd 14 66 81 bd 4c fd 19 bc 18 b7 fa bd
       -0.034736022 -0.06318298 -0.00939877 -0.122419536
0001b0 3e 62 3d be 0f 31 2f 3d 83 54 4e 3d e2 9f a0 3d
       -0.18494508 0.042771395 0.050373565 0.07842995
0001c0 93 46 c0 bd cd 15 28 3d 00 1d 15 3d c6 b8 07 be
       -0.09388461 0.041036416 0.03640461 -0.13254079
0001d0 a5 d5 a6 be 0d f2 77 3d 9f 6e 33 3e 55 7e 86 3e
       -0.32584873 0.060533572 0.17522667 0.2626826
0001e0 64 42 8c be 56 1c c1 bd b5 e7 8c 3a cc 11 67 3e
       -0.27394402 -0.09429233 0.0010750206 0.22565383
0001f0 a1 a9 e1 bd 17 9c 47 bc 25 5f 21 3e 29 42 15 bd
       -0.11018682 -0.012183211 0.15758951 -0.03644005
000200 0b 0d 16 3c 0a 94 af bd 99 b5 13 be 2c 04 30 bd
       0.009158383 -0.08573158 -0.14424743 -0.04297273
000210 09 b5 cb bd dc bd 0b be 9f e7 63 bd ed 96 37 bc
       -0.09946639 -0.13646644 -0.055640813 -0.011205417
000220 e9 6f 66 bd 30 65 db b9 02 29 0e be f2 c1 1c be
       -0.05625907 -0.00041846326 -0.1388283 -0.1530836
000230 32 09 aa 3d 4b 65 f9 3d 35 ae 4b 3d da 42 c7 bd
       0.08302535 0.12177523 0.049726684 -0.09729548
000240 b8 0f ea bd 5b f9 10 3d d9 30 ae bc 10 e8 9c bd
       -0.11428779 0.035394054 -0.021263527 -0.0766145
000250 23 27 01 be cb 7b 7a 3d 9c b9 c8 bd ec 75 1a be
       -0.12612586 0.061153214 -0.09801027 -0.15084046
000260 88 14 21 be 9b 16 13 be d3 69 06 3d f3 68 37 bd
       -0.15730488 -0.14364092 0.032815766 -0.04477782
000270 52 9a 89 bd 38 db 4b be 5d d4 04 bd b7 5f 14 3d
       -0.067188874 -0.19907844 -0.032429088 0.036224093
000280 e7 be 81 bd cb 53 b6 3d 3f 05 9e 3d f3 5d 8a bd
       -0.0633524 0.08902701 0.07715844 -0.06756201
000290 07 06 50 bd a9 cd 4a bd 0d 1b 83 bc 26 cf 7f bd
       -0.050786998 -0.04951254 -0.01600411 -0.06245341
0002a0 a0 f6 cd bd db c1 8b 3d 11 b4 41 3d 2a 4a 04 3d
       -0.100568056 0.06824084 0.047290865 0.03229729
0002b0 2e b6 da bd 68 f3 ef 3c 7f 63 05 3e 99 96 12 bb
       -0.10679279 0.02929087 0.13026236 -0.0022367595
0002c0 af 64 0b 3d 5b b3 6d 3d 43 1e 47 3b 74 87 42 bd
       0.034031566 0.058032375 0.0030383028 -0.04749246
0002d0 7c f2 da bd ea 69 42 bd 93 bd a5 bd 89 32 82 bd
       -0.106907815 -0.04746429 -0.08092799 -0.06357295
0002e0 14 26 38 be 08 78 0f bd b3 b6 0d be 08 54 96 be
       -0.17983276 -0.03502658 -0.13839225 -0.29360986
0002f0 de 86 c5 bd e9 38 07 be 83 4a a7 b9 f5 3d e6 3d
       -0.096448645 -0.13205303 -0.00031908238 0.11242286
000300 cb 54 a6 3c 63 f3 29 be 28 e1 83 bd 09 39 b9 bc
       0.020304104 -0.16596751 -0.064394295 -0.022610204
000310 ab 48 5f bd 21 1d 97 3c 43 24 33 be 10 91 dd 3b
       -0.05451266 0.018446507 -0.17494301 0.0067616776
000320 98 9d c5 bd 78 1f ac bd 95 24 85 bd ab 32 5c bd
       -0.09649199 -0.0840444 -0.06501118 -0.05375926
000330 27 58 c3 bd 4d 5b 2a be c7 15 e0 3c 9b a1 29 be
       -0.09538298 -0.16636391 0.027354134 -0.16565554
000340 c1 ff 02 be 88 ba cb bc 48 dc 8c bc 20 01 d3 3c
       -0.12792875 -0.024869218 -0.017194882 0.025757372
000350 ad 50 a6 bd cf 91 d1 bd a5 62 39 3c e3 44 96 bc
       -0.081208564 -0.10232889 0.011315023 -0.018343395
000360 eb 5c 76 3c 02 3b 91 3b e6 46 a2 3c 67 89 2f be
       0.015036802 0.004432083 0.019809198 -0.17142259
000370 b6 28 50 3c 16 c8 8e bd c1 6b 16 be 86 fa 39 bc
       0.012705019 -0.06971757 -0.14689542 -0.011351233
000380 a4 37 37 be 88 80 6a bd 7b 77 0d be 29 90 96 bd
       -0.17892319 -0.057251483 -0.1381511 -0.07351715
000390 55 a5 1e be 56 08 d5 bd 37 5f 21 be 9e eb 1d bc
       -0.15492757 -0.104019806 -0.15758978 -0.009638695
0003a0 42 89 29 be 36 84 be bd 94 88 0d be 39 3d be bd
       -0.16556266 -0.09302561 -0.13821632 -0.09289021
0003b0 58 da b7 bd 09 56 3d be a3 e5 c3 bd 6a 10 92 3c
       -0.08977193 -0.18489851 -0.09565284 0.017830092
0003c0 2d 48 e2 bd 71 01 28 bd ac b9 22 be cc 90 2a be
       -0.11048923 -0.041017 -0.1589114 -0.16656798
0003d0 fc 3f b9 3b 59 7a 3b be 30 b3 dd bc 05 98 56 bd
       0.0056533795 -0.1830839 -0.027062982 -0.05239107
0003e0 4b 8d d3 3c ca 44 22 be 5f cf 04 be 03 c8 c9 3c
       0.02582421 -0.15846553 -0.12969731 0.024631506
0003f0 8d 24 9a bd aa 01 c7 bc 2d a7 9c bd 23 17 0d be
       -0.07526503 -0.024292786 -0.07649074 -0.13778357

post_processing_lin_layers.1.bias f4 [64]
000000 7d 19 1b 3d c5 17 72 be 44 08 c7 bd 9d 9f 64 3c
       0.037866104 -0.2364188 -0.097183734 0.01395407
000010 5c 02 87 3c 84 f9 d1 3c 70 9f c0 bd 89 a1 c6 3d
       0.016480617 0.025631674 -0.0940541 0.09698779
000020 33 0c 23 be d3 e3 60 3c 93 cd 21 3c 5f 22 8d bc
       -0.15922622 0.0137261925 0.009875673 -0.017228303
000030 c5 43 3a bd e9 cf bb bd d3 29 be 3c da 2c 98 3c
       -0.045474786 -0.09170515 0.023213303 0.018576074
000040 de 74 49 bc b9 11 d7 bd af b5 75 be 45 e2 e7 bd
       -0.01229593 -0.10501427 -0.23995088 -0.11322454
000050 f2 b8 ec bd 7a b6 4a be a9 79 1d 3d e8 3d 09 bd
       -0.11558713 -0.19796172 0.038446102 -0.033506304
000060 af 45 98 bd 66 3d 10 bd 4e 3a a3 bc 7b 31 ab 3c
       -0.07435166 -0.035214804 -0.019925263 0.020897618
000070 b8 9d 0f be 91 b8 a7 bd 18 06 8e bd b4 8f e1 3c
       -0.14025009 -0.081895 -0.06934756 0.027534343
000080 c6 b5 b8 3c 9d fc ae bb 5d e5 cd bc ad cc 45 be
       0.022547614 -0.0053401724 -0.025133783 -0.19316359
000090 63 4c 2a be cb 68 8e bc b4 25 2c bd 58 15 3e bd
       -0.16630702 -0.017383954 -0.042028144 -0.046407074
0000a0 d4 87 e7 3c d9 5a 29 be e3 ba 0e bd d1 42 31 3d
       0.02826301 -0.16538562 -0.034846198 0.04327661
0000b0 b2 33 88 bd 93 29 44 3d 29 07 e8 bd c7 48 d6 bc
       -0.06650485 0.04789121 -0.11329491 -0.02615775
0000c0 83 01 3c be 40 37 aa bd 2e 1b ce bc e9 58 09 be
       -0.18359952 -0.08311319 -0.025159445 -0.13412823
0000d0 dc f6 04 3d f3 00 a6 bb d4 5b 9c bd 75 6f ca bc
       0.032461986 -0.005066031 -0.07634702 -0.02471135
0000e0 0e 9c 2f bd 14 56 11 be 71 ba ca 3c 4d 7c 7c bd
       -0.042873435 -0.14192992 0.024747105 -0.06164198
0000f0 3c 62 4d bd 96 8b ec bd 33 3c 12 bc 99 bf 89 bc
       -0.05014251 -0.115500614 -0.008925485 -0.016814994

post_processing_lin_layers.2.weight f4 [64, 64]
000000 f4 30 2d 3d e3 1f 11 3e 72 e4 1b 3e d6 6b 81 3b
       0.042283013 0.1417232 0.15223864 0.0039496226
000010 fe 0a 17 bd 23 63 4d bd 77 23 9d bd 8f e9 47 bc
       -0.036875717 -0.050143372 -0.0767278 -0.012201681
000020 9b 10 09 3d 1c ab a6 bb 75 e8 ba 3c 02 82 83 bd
       0.0334631 -0.005086316 0.022815922 -0.064212814
000030 7c 86 6d 3d 22 70 4e 3d 8e 39 f4 bd fe 4c db bd
       0.057989582 0.050399907 -0.1192504 -0.107080445
000040 71 15 15 be c3 92 09 3d e3 d3 16 bd d3 4f 15 3d
       -0.1455896 0.03358723 -0.036823165 0.03645308
000050 e6 79 b9 3c e6 e5 65 3d dc 62 85 bd f4 fb ea bc
       0.022641134 0.05612745 -0.065129966 -0.028684594
000060 30 25 f5 39 e0 73 33 bc 1e ef 19 3c 2d 55 a1 bc
       0.00046757748 -0.01095292 0.009395389 -0.019693935
000070 a0 ff f8 3c aa 77 1d be f9 4a d2 ba 37 e6 4d bb
       0.030395329 -0.1537768 -0.0016044072 -0.0031417736
000080 e2 c3 f6 bd 78 5d 2b be 4f 9b 17 3d a3 27 0b 3c
       -0.120490804 -0.16734874 0.03701335 0.008493337
000090 34 c2 08 3d 24 d2 38 bd 6d 6b af 3c 71 95 b3 bd
       0.03338833 -0.04512228 0.02141353 -0.08768738
0000a0 58 2a 0f bd 03 1e 3f 3d 9a 89 14 be b4 53 7d bd
       -0.03495249 0.04665948 -0.14505616 -0.061847404
0000b0 94 6b 0c bd ec 20 8d bd 8a 04 27 bd ab 3c a2 3b
       -0.034282282 -0.06891045 -0.040775813 0.00495108
0000c0 cd a0 1a be 0c bc 3b 3e b8 e2 12 bd f8 76 ab 3d
       -0.15100403 0.18333453 -0.035860747 0.08372301
0000d0 ef 57 c9 bd 93 0d 84 bd 47 ff 13 bc cf 8f 0c 3d
       -0.09831225 -0.064479016 -0.009033031 0.034316834
0000e0 b6 91 c0 38 69 dd bc bd c5 9b e9 bc 8f 5b 3c 3d
       9.182414e-05 -0.09221918 -0.02851666 0.045985755
0000f0 a5 df 0c bd f2 c8 a9 3c d3 59 01 be a2 a2 6e 3d
       -0.03439297 0.020725701 -0.12631921 0.058260567
000100 c0 85 e6 bd 48 1d 84 3c c1 b3 79 3d cb 7a 0d 3d
       -0.112559795 0.016127244 0.060962442 0.034540933
000110 91 76 f3 3d fb 80 7d bc 3e 81 d3 bd 1c a3 1a be
       0.11887849 -0.015472646 -0.10327385 -0.15101284
000120 bd 1f f3 3a ea 30 e1 bd 21 5e 32 be 48 47 58 be
       0.0018548887 -0.10995658 -0.1741872 -0.21120942
000130 93 5c 55 3d 2b ab d6 bd d7 e5 8c 3c b7 52 ab bc
       0.05209024 -0.104818664 0.01719944 -0.020913465
000140 f6 ff 3d be 35 c1 54 3e 6e cf 16 3e 7b 0d 0b 3b
       -0.18554673 0.20776828 0.14727566 0.0021217752
000150 e9 e6 be 3d 94 34 fa 3c ab 47 fc bd c0 76 bb bd
       0.09321386 0.03054265 -0.12318357 -0.09153509
000160 bc c6 76 3d 12 a0 f6 3d f5 2d 32 3e 2e 11 21 bc
       0.06024812 0.1204225 0.17400344 -0.009830756
000170 bf d7 42 bb af 96 2f bd 1e bd 24 3e 15 7d af 3d
       -0.0029730645 -0.042868312 0.16087767 0.085687794
000180 9e 50 87 bd 44 5e bf 3c 07 5d e9 bd b2 6e 5b bd
       -0.066071734 0.023360379 -0.11394697 -0.053572364
000190 c3 95 f0 3d 91 da 2d 3c ba 93 a9 bb 29 b8 2e bd
       0.11747315 0.010611192 -0.005175081 -0.042656098
0001a0 d4 9d 46 3d 63 8a 06 3e 4e ae 28 3d 97 37 21 3d
       0.04849036 0.13138728 0.041181855 0.039359655
0001b0 bd 62 0d be 3e 18 3c bd 60 4b bf 3c c9 ee 33 be
       -0.13807197 -0.045921557 0.023351371 -0.17571558
0001c0 a8 1a ec bd dd 66 73 3b 2c 02 b6 bd 30 0f 26 be
       -0.11528522 0.0037140169 -0.08887133 -0.16216731
0001d0 10 3a 6f 3b ad d3 c6 3c 0c a6 37 bd c5 63 5d 3d
       0.0036503114 0.024270857 -0.04483609 0.054050226
0001e0 69 fc bb bc e3 5e 43 3e a5 b4 6c bd bc 7e 00 3d
       -0.022947507 0.19079165 -0.057789464 0.031370863
0001f0 a3 9e 91 3c 1d 51 18 3e 2a 54 f2 3d 85 68 e7 bd
       0.01777584 0.14874692 0.11832459 -0.112992324
000200 e3 8a a7 3c 00 c7 01 3c 6b fe 3b 3e c8 5d 2f 3e
       0.020451969 0.00792098 0.18358772 0.17125618
000210 bc 4d 2c 3e e7 b1 dc bd d3 cf 23 be fb d9 83 3b
       0.16826528 -0.1077612 -0.15997247 0.004023788
000220 91 36 a1 3b e0 dd d2 bd 8c 73 8a 3b 68 81 ad bd
       0.004919835 -0.102962255 0.0042252 -0.08471948
000230 52 5e 70 3e 5e 5f 1e bd c7 fe 00 bc 4f 49 0a 3d
       0.2347348 -0.038665168 -0.007873244 0.03376132
000240 66 f1 71 bc 23 25 3b 3e d7 9a e7 3c 40 52 43 be
       -0.0147670265 0.18275885 0.028272076 -0.19074345
000250 bd e3 9c bd 7c 7d f1 3d 13 13 08 be 53 c1 96 bd
       -0.07660625 0.11791512 -0.13288526 -0.073610924
000260 b6 c0 93 bc a5 fd 0b 3e 8c be e1 3d 4c df cd bd
       -0.018036228 0.13670976 0.11022672 -0.10052356
000270 e5 73 e4 3c 2b 66 25 bd d7 a8 0b 3e 58 91 1e 3e
       0.027887294 -0.040380638 0.13638626 0.15485132
000280 0f d0 ba 3c 2d 94 10 3c 7f e9 1e bd df 50 11 3d
       0.022804288 0.00882439 -0.038796898 0.035477515
000290 cf 3b 21 3e dc f9 12 3d e4 95 99 bd d0 f3 94 b9
       0.15745471 0.035882816 -0.074992925 -0.00028410414
0002a0 48 29 0c be 58 dc a4 3c 57 b0 78 3d cd 0d 22 bd
       -0.13687623 0.0201246 0.060715046 -0.039563943
0002b0 ec be 58 3d 0a 22 18 bc c7 4b e8 3d 6d 89 e2 bd
       0.052916452 -0.009285459 0.113425784 -0.11061368
0002c0 51 d1 6d 3c 5a 11 9f 3d 7f 38 93 bd 11 be 0c bd
       0.014515237 0.077669814 -0.0718851 -0.03436095
0002d0 b2 d5 f1 bd 25 77 22 be 2c 11 3a bc 70 eb 95 bd
       -0.11808337 -0.15865763 -0.011356633 -0.07320297
0002e0 f7 28 b9 3d 4a af e4 3d c5 cc ff bd 33 02 51 3e
       0.090410165 0.11166246 -0.124902286 0.20410995
0002f0 88 b2 77 3d 29 7b c0 3d 1a b4 d8 3d 78 34 06 be
       0.060472995 0.09398491 0.10581227 -0.13105953
000300 52 0a 2c 3e ab 91 e2 3e 0d 91 e2 3d 99 af 91 39
       0.16800812 0.4425176 0.110628225 0.00027787386
000310 9f 4b 4a 3d c7 45 db 3b c8 2d 33 3e 05 aa 79 bd
       0.049388524 0.0066916677 0.17497933 -0.06095316
000320 b6 32 86 3d c4 f1 50 be da 5a 00 3e bd ca b5 bd
       0.06552641 -0.20404726 0.12534657 -0.0887656
000330 39 47 56 3e 2c 01 0a be 89 93 08 3d 83 cb 6f 3e
       0.20925607 -0.1347701 0.033343825 0.23417477
000340 74 bb ef 3d cd 11 2b 3e cb 3d 2a 3e 06 8e 9a 3c
       0.11705676 0.16706009 0.16625135 0.01886655
000350 3f 2f 1d 3e fa 69 58 3e 77 a4 5f bd cf 7d 83 3d
       0.15350054 0.21134177 -0.054600205 0.064204805
000360 f4 0a 5a be d7 f6 3b 3e ad 0f 90 3e cc 86 10 bd
       -0.21293241 0.1835588 0.2813696 -0.035284802
000370 a4 f4 ed 3b 65 b1 e7 3b ab 77 dd 3d 01 a6 36 3e
       0.0072618295 0.0070707076 0.108138405 0.17836763
000380 1f eb f1 3d cb 0f c5 3d 73 10 6d 3d 52 43 b6 3d
       0.11812424 0.09622153 0.057877015 0.08899559
000390 f7 60 90 3e 5b d1 21 bc 33 2d 59 3d 4c c0 46 3e
       0.28198978 -0.009876574 0.05302162 0.19409293
0003a0 4d f8 e1 3c 02 c0 5c 3e 87 ec 89 bd 80 2b 4a bd
       0.02758422 0.2155762 -0.06734567 -0.04935789
0003b0 a3 9e 20 3e 7e 05 3e bd ad d3 3e 3e 97 4b a8 bd
       0.15685515 -0.046391957 0.18635435 -0.082175426
0003c0 26 37 28 3e b7 23 80 3e 2b 17 ca 3d 3a 26 ac 3d
       0.16427287 0.25027248 0.098677 0.08405729
0003d0 d0 80 59 bd ac f3 0e be cc f0 5f bd e5 1e 33 3d
       -0.05310136 -0.13960141 -0.054673 0.043730635
0003e0 d2 58 f0 3d cb 00 01 3d 7e 71 c4 3b d8 c8 61 3e
       0.11735691 0.031494897 0.0059949746 0.22049272
0003f0 02 d9 8a 3e 19 fd 48 3e 11 02 8c 3d 51 e3 70 3d
       0.2711869 0.19627799 0.06836332 0.058810536

post_processing_lin_layers.2.bias f4 [64]
000000 4d 79 5b bd 20 27 fb bb 99 09 a3 bd 4a 85 83 be
       -0.05358248 -0.007664576 -0.07960815 -0.2568763
000010 b9 88 f0 bd 4e b2 51 bd 15 b4 33 be 64 aa f1 bc
       -0.11744828 -0.051195435 -0.17549165 -0.029500194
000020 28 dd ce bd 21 c2 13 be ea ba 93 bc 17 88 8d bd
       -0.10100776 -0.14429523 -0.018033464 -0.06910723
000030 97 d0 4c bd da 43 8c 3d 82 4e 2b bc e7 4b 36 be
       -0.050003614 0.06848879 -0.010455729 -0.17802392
000040 28 e8 eb bb 3a 25 0a bd 45 1b 37 bd 18 ac db bd
       -0.007199306 -0.03372691 -0.04470374 -0.10726184
000050 3b d9 1e 3d c1 d5 27 3d 60 f2 01 bd 6e 2c 48 bd
       0.038781386 0.040975336 -0.031725287 -0.048870496
000060 b6 23 b4 bd 3a ca 34 bd 6a 4b 24 be ea 6b 0b be
       -0.08795874 -0.04413817 -0.16044393 -0.13615385
000070 e4 76 19 be 9d 06 0d be 1a f1 33 be 31 cd 9c bc
       -0.1498676 -0.13772054 -0.17572442 -0.019140812
000080 65 8f 63 bc 46 c7 6f bb bc 0e 70 bd e8 86 09 bd
       -0.013889168 -0.0036587282 -0.0586078 -0.033575922
000090 cd 92 16 bc ad 45 83 bd 89 cf 30 be 4c 13 8c be
       -0.0091902735 -0.06409774 -0.17266668 -0.27358472
0000a0 79 1c 2a bd 7d c4 39 bd aa 9f 32 bd d8 1b 43 be
       -0.04153106 -0.0453534 -0.0436093 -0.1905359
0000b0 28 20 99 bc 38 3b a9 bd 1a 05 31 be 99 e3 d4 3c
       -0.018692091 -0.08263248 -0.17287102 0.025987433
0000c0 17 7b 4e be f7 4a 16 bd 62 32 88 bc 16 17 43 bd
       -0.20164143 -0.036692586 -0.016625587 -0.04762944
0000d0 98 0c 10 bd 3a 71 46 bd 9a 8d 71 bd e4 7f b7 bd
       -0.03516826 -0.048447825 -0.058972932 -0.0895994
0000e0 e4 db 10 be 1c e2 cb bd 9a 9b 8a 3c 46 5b d1 bd
       -0.14146382 -0.09955236 0.0169199 -0.10222487
0000f0 ea 35 07 bd 61 f7 31 3c 5c 58 04 be f2 fb 95 bd
       -0.0330104 0.010862202 -0.12924331 -0.073234454

post_processing_lin_layers.3.weight f4 [64, 64]
000000 26 e8 80 3d d5 fd 10 3e 7f 42 1b 3e 20 a9 71 3e
       0.06294279 0.14159329 0.15162085 0.23599672
000010 d5 c2 8d 3d c9 f7 38 bb b7 26 29 3e 9f 3c 3c 3d
       0.06921927 -0.0028223863 0.16518675 0.04595625
000020 6e da 5c 3d a9 09 6f bc ae a3 12 bc cd 83 85 3d
       0.05391925 -0.0145897055 -0.008950157 0.0651928
000030 42 79 00 3c 76 80 8c 3d 00 1b 11 3d dc 38 c8 bc
       0.00784141 0.068604395 0.03542614 -0.024441175
000040 14 9c 05 bd fc 68 2a 3e 45 70 19 3d 4e 9d 7b 3d
       -0.03261955 0.16641611 0.037460584 0.061429314
000050 b4 f3 ff 3d 1a 73 08 3d 23 93 21 3e 1d e8 3f 3e
       0.124976546 0.033312894 0.15778784 0.18740888
000060 58 f8 32 3e e6 8a 00 3d 35 0c 49 3e 33 be f2 3c
       0.17477548 0.031382464 0.19633563 0.02963171
000070 48 fb 5e bd 0c 43 b7 3d df 55 7a 3c e1 d4 b9 3d
       -0.05443886 0.08948335 0.015279262 0.090738066
000080 de 5c 72 bc 1b 57 e3 3d ac fd d5 3d 28 99 99 3d
       -0.014792649 0.111005984 0.10448775 0.07499915
000090 84 5d 71 3d d5 10 df 3d 6a cf 01 3e 8d 82 45 be
       0.058927074 0.10891882 0.12676778 -0.19288082
0000a0 6d 18 c6 3c 82 b5 16 bd 1c cd 3f 3e 67 7e ff 3b
       0.024181569 -0.036794193 0.18730587 0.0077970508
0000b0 a6 32 39 3c b1 fa dc 3d 77 d2 72 3e 46 0e 13 3d
       0.011303579 0.10790003 0.23713098 0.035902284
0000c0 44 4c 11 bd c5 6b 2e 3d 2e c8 af 3d 3d d2 9c 3d
       -0.035473123 0.042583246 0.08583103 0.07657287
0000d0 21 35 98 bc 50 7f ec 3d 88 a9 0d 3e af 3b fe 3d
       -0.018580021 0.115477204 0.13834202 0.124137275
0000e0 03 6b b5 3c 38 60 8e bb bc a3 a2 3d 5f 56 13 3e
       0.022145754 -0.0043449663 0.07941386 0.14388417
0000f0 05 a8 48 3e 99 48 b4 3d 2b ff fd 3c a2 95 47 3d
       0.19595344 0.088029094 0.031005463 0.048726685
000100 94 fd da 3d 45 06 3c be 28 23 95 bd 7f 88 b1 3d
       0.106928974 -0.18361767 -0.07282096 0.08668613
000110 aa ad c7 bd 94 4f 43 bd e8 b9 11 be 64 40 10 be
       -0.09749921 -0.047683313 -0.14231074 -0.14087063
000120 4e f1 a5 3d 9a f7 80 3d 88 67 d8 bd 35 d5 57 bd
       0.08102666 0.06297226 -0.10566622 -0.052693564
000130 85 cc 8b bc 7b d3 c2 bc 08 4a df bd 13 13 a7 3d
       -0.017065296 -0.023782482 -0.10902792 0.08157935
000140 9a 50 79 3d 03 ad f8 bd 8f ff 7a bd 5f e5 f3 bd
       0.060867883 -0.12142374 -0.061278876 -0.119089834
000150 05 b7 e5 bd 60 23 75 3d b4 6f 28 be 3f 49 b2 bd
       -0.11216549 0.05984819 -0.16448861 -0.08705377
000160 db 20 21 bd bc 11 a0 bc d5 e0 a5 bd 68 5e ad bd
       -0.039337974 -0.019539706 -0.08099524 -0.08465272
000170 ce 3b d8 3d 26 8f a8 3c d8 ee de bd c4 4c b6 3c
       0.10558282 0.020576071 -0.108853996 0.022253402
000180 36 57 24 be 8e ef a5 3c 49 4d ee 3b a2 7b fc 3d
       -0.16048893 0.02025583 0.0072723967 0.123282686
000190 bc 30 a5 3d 01 5e 48 bc 8c b9 dd 3d 6f 5d 77 3e
       0.08065936 -0.0122294435 0.10826406 0.24156736
0001a0 e7 b1 43 be bf 40 45 bd 75 08 79 bd eb e8 94 bd
       -0.19110833 -0.04815745 -0.06079908 -0.07270988
0001b0 92 7d 05 bc f5 80 a6 3c a3 fc 09 3e 7a 7f d5 3c
       -0.008147614 0.020325163 0.1347528 0.026061762
0001c0 74 05 08 3d eb da 2f be 85 18 27 bd 62 cc fb bc
       0.033208326 -0.17173354 -0.040794868 -0.030737106
0001d0 81 66 8c bc 5c dc 2f bd f8 77 77 bd 0a 36 22 bd
       -0.017138721 -0.04293476 -0.060417145 -0.039602317
0001e0 42 48 56 3e 2d d3 3b bd 54 62 9d 3c 57 60 36 bd
       0.20926002 -0.04585569 0.019211926 -0.04452547
0001f0 70 b1 2d bc 01 db 07 be 16 55 c6 3c 96 31 e5 bc
       -0.010601386 -0.13267137 0.024210494 -0.027977746
000200 66 7e 17 be 18 c0 e1 bc 67 7f e5 bd 81 ea e9 3b
       -0.14794311 -0.027557418 -0.11205941 0.0071385507
000210 e2 fe a9 3d 57 84 40 b8 23 ec f4 bd 5d 65 13 bc
       0.08300568 -4.589962e-05 -0.11959102 -0.008996335
000220 c1 a3 58 3c bf 89 54 bc c5 d2 4e bd ee 60 4e 3d
       0.013222636 -0.012972294 -0.050493974 0.050385408
000230 84 8d cf bd 83 40 ae bb 90 68 55 bd 4a 94 59 3c
       -0.10134414 -0.005317749 -0.05210167 0.013279984
000240 ab 09 dd bd 01 7d ce bd 7e 60 18 be e6 cc 34 bd
       -0.1079286 -0.10082436 -0.14880559 -0.04414072
000250 85 4f 76 bd 24 f1 6f bd 34 54 ab bc de 78 5c bd
       -0.06013443 -0.05857958 -0.020914175 -0.053826205
000260 08 88 fb bc 61 1d 00 be 02 ce 8f bd f2 9a 10 bd
       -0.030704513 -0.12511207 -0.07021715 -0.035304017
000270 fd 59 2a 3c 4d e3 4a bd 54 d2 48 bd 51 3b 66 bd
       0.010397431 -0.049533177 -0.04902871 -0.056208912
000280 2a c0 bf bd 10 17 36 3d fb 5d de bc a0 05 05 3d
       -0.09362824 0.044455588 -0.027144423 0.032476068
000290 3d 3e 1e be 9d a4 db bd 14 14 4f 3c 57 83 a5 3d
       -0.1545343 -0.10724757 0.012639064 0.08081692
0002a0 42 64 d7 bd 6b c9 95 bc d0 59 11 be 54 f7 e8 bd
       -0.105171695 -0.01828452 -0.14194417 -0.11375299
0002b0 34 32 cf bc 1e e6 d4 bd ee 9d e7 bd a9 aa 1d be
       -0.025292493 -0.10395454 -0.113094196 -0.15397133
0002c0 34 8f 43 bd 5f 7b 99 bd 87 6c 54 3d fb 11 8f bd
       -0.04774399 -0.07494234 0.051861312 -0.069858514
0002d0 ae 91 4c 3b 63 6b 12 3d 59 d9 27 be af bb b2 3c
       0.0031214762 0.035746943 -0.16391505 0.02181801
0002e0 1a bc 16 3e 57 a9 2d bd 19 9e ba bd 48 5e aa bd
       0.14720193 -0.042397823 -0.09112186 -0.08318764
0002f0 38 c0 3e be fd 3d 44 3d 8e 63 55 3d 79 fa a5 3d
       -0.18628013 0.04791068 0.052096896 0.081044145
000300 4b 90 b0 bc 82 dc 28 3d 14 ba 2f bc 2b 29 d9 bd
       -0.02155318 0.041225918 -0.010725517 -0.10603555
000310 45 cf 03 3b 27 87 b4 3d aa f1 54 bd 61 81 f7 bc
       0.0020112556 0.08814841 -0.05198828 -0.03021306
000320 e2 6d 50 3d 0f c8 f0 3d e5 bb 2c bd 90 0f 9a bc
       0.050886042 0.11756908 -0.042171378 -0.018806249
000330 00 b1 04 3d 31 7c bd bd 34 49 a4 bc a2 a5 1a be
       0.032395363 -0.09252203 -0.020054437 -0.15102246
000340 a1 2d 04 be 77 19 87 3d a2 04 8b 3d 65 74 bf 3d
       -0.12908031 0.06596654 0.06787993 0.09348372
000350 b7 e6 6a bc cb 94 26 3d a8 20 62 bd 23 5a f0 3d
       -0.014337233 0.040669244 -0.055206925 0.11735942
000360 74 55 29 3e f5 fe d9 3d bc 55 b7 3c 51 73 4a 3c
       0.16536504 0.10644332 0.022379749 0.012356595
000370 27 27 22 be e4 04 ad 3d ab 7f da bc 87 33 bd 3b
       -0.15835248 0.084481984 -0.026672205 0.005773965
000380 1d 58 2d bc 0c 2c 09 3e 62 5a 25 be 20 8e 4d 3d
       -0.01058009 0.13395709 -0.1614776 0.05018437
000390 fa 51 a0 3d 6b d3 c8 3d 9f 40 79 bd 5e aa 57 3e
       0.07828136 0.0980595 -0.060852643 0.21061084
0003a0 74 bc a6 3c fd eb 60 3d 49 fc e5 3c e8 01 f1 bd
       0.020353533 0.054912556 0.0280744 -0.11767942
0003b0 29 0e f3 bb 54 62 af 3d 26 be e2 bd 33 36 96 3d
       -0.0074174595 0.085636765 -0.11071424 0.073345564
0003c0 0f 14 bc bc 76 16 4a bd e0 b8 f5 3b a6 33 ca bc
       -0.022958783 -0.049337827 0.0074988455 -0.024682831
0003d0 d6 1f 20 3d da 6d ce bd c0 d8 96 bd 63 d4 0d bc
       0.03909286 -0.10079546 -0.073655605 -0.008656594
0003e0 67 23 12 3e e8 fb 13 bd d2 73 a1 bd 87 8e 2f 3c
       0.14271317 -0.03612891 -0.07883419 0.0107151335
0003f0 f3 f9 a1 bd d8 a4 88 bd bd 10 97 bb b0 99 95 be
       -0.07909002 -0.066720665 -0.0046101497 -0.29218817

post_processing_lin_layers.3.bias f4 [64]
000000 f7 a2 62 bc 8b 7b d0 3c 9c e4 e4 3c ad 0e 28 bd
       -0.013832799 0.025449535 0.02794104 -0.04102962
000010 0b 57 65 bc 8b 12 95 3c c2 c1 5f bd bf 02 10 3d
       -0.013997803 0.018197319 -0.05462814 0.03515887
000020 a1 ef 24 bc 99 0e e9 3b 4d ce 86 3b 20 82 61 bc
       -0.010066898 0.007112336 0.0041139484 -0.013763934
000030 da 85 ee 3c 34 06 0b bc fd 53 ca bd 71 b4 8e 3c
       0.02911656 -0.008485366 -0.09879301 0.017420026
000040 da ce 87 bd d2 a0 5e bd d6 5b 98 bd 9d ed b0 bd
       -0.06631251 -0.05435259 -0.07439391 -0.08639071
000050 18 79 91 bc 1c 73 e8 3c 8f a0 d6 3c 2e 99 ef bb
       -0.017757937 0.0283752 0.026199607 -0.0073119616
000060 23 ba 70 3d a7 7d 34 3d f9 0d 9b bc 09 c3 41 3c
       0.058771264 0.044065144 -0.018927561 0.011826285
000070 0b bd 4f bd 79 30 0d bd 9e fc 26 3d 9a c4 03 3d
       -0.050717395 -0.034470055 0.04076826 0.032169916
000080 e2 f1 37 3c 50 69 b2 3c 9d 14 bb 39 ed 70 26 3d
       0.011227103 0.021778733 0.00035682778 0.04063504
000090 eb 98 02 3d e2 b7 b7 3d d8 b0 19 3c 4a 41 7a 3d
       0.031884115 0.0897062 0.009380542 0.06109742
0000a0 66 ce 7f bc d3 f8 e7 3c 14 ed b3 3a 63 2a 89 bc
       -0.015613174 0.02831689 0.0013727271 -0.016743844
0000b0 55 46 71 bd e7 13 3c 3d 62 5e 8f 3d fb 8c c4 3c
       -0.058904964 0.045917418 0.07000424 0.023993006
0000c0 67 2f 6e 3d 37 c9 ce bc b4 50 6c bc 36 f5 01 bc
       0.058150675 -0.025242431 -0.014423538 -0.007931998
0000d0 59 c0 4b 3c bf 50 9f 3c 40 99 78 3d 87 c4 81 bd
       0.012435996 0.019447682 0.060693026 -0.06336313
0000e0 e0 75 1a bc 35 6a a1 3b 48 72 3b 3d 03 06 d5 bc
       -0.009427518 0.004925991 0.045763284 -0.026003843
0000f0 00 13 a2 3c 46 eb 81 bd ec ff 15 bd 10 35 9d bc
       0.01978445 -0.06343703 -0.03662102 -0.019190341
