checkpoints/checkpoints_homogeneous_biomarker_void_graph/DCP_model_1_Fractal_max_wg8yogjn.pt (torch, 40856 bytes, 27 tensors)

pre_processing_lin_layers.0.weight f4 [32, 15]
00000000: f07a f93e d899 3abe 9ff6 95be 38e3 debd
00000010: 3dd2 a03d ed6d 3c3e 996f 10be 4337 32be
00000020: b282 2c3e 84a0 f33d 865a 113e 95d5 ccbe
00000030: 0a0a 8dbe 5b3b d6be 290c 8ebe 8ce0 4fbe
00000040: 90cf 28bd ed67 48bd 7f61 ee3d 929d 633e
00000050: 5543 913e 7990 d8bd a61d 0ebe e49f 893e
00000060: 806b 373e 1447 6d3e 22e0 8ebd a1d0 5bbe
00000070: e573 a23e 13c2 433e 2bdb 42be b2e6 403d
00000080: 851e 17be ac43 64be c7ef 283e 38ff 11be
00000090: 505c 8dbd 65af 36be ac43 83be ea39 0dbe
000000a0: aaad 243e 75b3 d9bd 173d d03d 3b73 21be
000000b0: 61e2 b6be 2af3 063f d375 83bf a1ac 8bbe
000000c0: ac69 8cbe 16bd 383e 1824 8ebd 0e99 40bd
000000d0: 3309 5d3d 088e 9c3d 85d3 50be 2017 193d
000000e0: aabf fabd 898c 8dbd 4ef0 24be bef6 51be
000000f0: 0feb 91be c461 3b3e b40f 84bc d6ab 413e
00000100: c558 b13e dfe9 523e f3ad d6bd 6acc ebbd
00000110: 5bc7 fb3d 8f82 8c3d d698 843e 8a75 babe
00000120: d095 a1bd 5b0a 1f3e f270 263e 537f a63d
00000130: 7609 bd3e f1cf da3e a5a1 b2be 2bf2 163f
00000140: 9a0f 1bbf 2bc1 3abe 3887 0abf c70a 71be
00000150: 7f26 42bf e054 4ebe ebdd d0bc 1aa9 e83d
00000160: 6133 9ebf 124e a4bf 45c2 a03e 4e1c e9bd
00000170: 0afc b2be c0cf 79be 3921 813e 0d19 0dbd
00000180: 83f6 c9bd ee59 c5be 02fc 56bc da92 0b3d
00000190: 4843 223f c4a0 63be 8a27 afbe 5c43 6a3d
000001a0: cb41 08be e9f5 99be 0bd2 2f3f 6770 8abe
000001b0: 9516 81bd 2fc6 973e 5aed 00be 9013 01bf
000001c0: dd3d d9be d83f 07be 93e2 c1bd f8fb cc3d
000001d0: 7ad2 3cbb 8d2d 76be a605 3abe 69d5 36bd
000001e0: 87cb 183f f057 e53d c62a 5bbd c01e 183d
000001f0: 7c75 40be 6ad7 1a3d 3f80 1f3e 7a5d 7abc
00000200: ff3f 013e 40e3 19bd 0270 ee3d 940c d23e
00000210: 7ecf 933e 0190 08be d17a 39be 86ec 883c
00000220: 490e 36bd fb2a 14be 4000 bcbe 183c c2bc
00000230: 0e86 2bbe 946b 7d3c 9709 463e d3df 36bd
00000240: 460d a6be 3eb8 78bd 9683 483b 64ee 29be
00000250: f502 59be 1fd8 d4be fdff a2be 248d 22be
00000260: c5a2 b33d 90b3 0ebd 2350 21be 9a12 4ebe
00000270: fce4 e23d 7f54 d53d 29bf 8cbe 7ef5 9ebe
00000280: 2cc8 83be 3883 823d 667a 7e3e e4e8 e8bd
00000290: 7b26 a83c b9f0 673e 6010 2abf 4b61 13bb
000002a0: 622b 2d3d 817c 213e e1dc 373f e5f6 613f
000002b0: 4daa 79be 20d7 563f 0410 0e3f d6e6 d23e
000002c0: 65b1 35bf 960d 37bd 9cee a3bf c750 bdbf
000002d0: d0a3 77be 941f cc3e 71a1 18bd 359a 3fbe
000002e0: caaf c93e 454f b23d d067 36be 24f5 7dbe
000002f0: 4eea b43d d6ad 70bc a1dd a13d de42 acbe
00000300: 9349 48be e521 debd 6913 79be 6d2f b13e
00000310: 8112 103f afa2 c0bd 17ff a4bd 59c2 28be
00000320: 27c0 2e3e a7fb 003e a134 10be c697 2b3e
00000330: 78b2 c3bd 56b5 523e 63bc 1abe 866c 033d
00000340: 5cd0 06be 7809 89be 4c60 883d b3a1 db3e
00000350: 26a8 3bbe 917b f6bd 9a91 953e 43e5 4bbd
00000360: f499 a63d 9909 dbbd 8fe0 153d 971c 32be
00000370: a595 d3bd 2fff a6bd 004c 303d c217 8bbe
00000380: 1ef7 aebe a1c3 0dbd 38af 3f3e 3866 c43d
00000390: ef48 233e 2559 9d3d 7616 9a3e 336b cfbd
000003a0: 37b9 41be b431 983e d1d9 f93d c17d 2c3e
000003b0: 29d3 21be d5ed 84be fe71 bf3e 65fe 1b3e
000003c0: 81df 46bf 1e21 4abe af08 9cbe 8bbf 94be
000003d0: ce9e 06be 8a5c c53c 4a14 4d3e e795 00be
000003e0: beea 7fbe 323a 83be 5d34 0b3e a3f4 56be
000003f0: 026f aebb 70bb 13be 790a 3dbe 3dbc d6be
0.48726606 -0.18222749 -0.2928972 -0.10883182 0.078526 0.18401308 -0.14105071 -0.17403893
0.16846731 0.1189585 0.14194688 -0.400067 -0.27546722 -0.4184216 -0.27743652 -0.20300502
-0.041213572 -0.048927236 0.1163969 0.22228077 0.28371683 -0.10574431 -0.13878497 0.268798
0.17912102 0.23171645 -0.06976344 -0.21466304 0.31729046 0.19117002 -0.19028918 0.04709501
-0.14757736 -0.2229144 0.16497718 -0.14257514 -0.06902373 -0.17840345 -0.25637567 -0.13791624
0.16081873 -0.10629932 0.10167902 -0.15766613 -0.35719588 0.5271479 -1.0270332 -0.27280143
-0.2742437 0.1804088 -0.06940478 -0.047020964 0.05396385 0.07644278 -0.20393188 0.03737557
-0.12243588 -0.069115706 -0.16107294 -0.20504281 -0.28499648 0.18299013 -0.01612077 0.18913206
0.34638038 0.20597027 -0.10482397 -0.11513598 0.122938834 0.068608396 0.25897855 -0.364178
-0.078899026 0.15531294 0.16254023 0.08129754 0.3692128 0.42736772 -0.3488895 0.5896327
-0.6057068 -0.1823775 -0.5411258 -0.23539267 -0.7583999 -0.20149565 -0.025496444 0.113603786
-1.235943 -1.2836325 0.31398216 -0.11382352 -0.34957916 -0.24395657 0.2522066 -0.03444772
-0.098614715 -0.38545173 -0.013121607 0.034075595 0.63383913 -0.22229296 -0.34209853 0.057193145
-0.13306348 -0.30070427 0.68679875 -0.2703888 -0.06303135 0.2964339 -0.12590542 -0.50420475
-0.4243001 -0.13207948 -0.09467044 0.10008997 -0.0028811977 -0.24040814 -0.18166217 -0.044637118
0.5968556 0.11198413 -0.05350759 0.0371387 -0.18794817 0.03780309 0.15576266 -0.015281076
0.12622069 -0.037570238 0.116424575 0.4102522 0.2886924 -0.13336183 -0.18113257 0.016714346
-0.044447217 -0.14469521 -0.3671894 -0.023710296 -0.16750357 0.015467543 0.19339596 -0.04464705
-0.32432002 -0.060722582 0.003059601 -0.16594845 -0.21192534 -0.41571137 -0.3183593 -0.15874153
0.0877128 -0.034839213 -0.15753226 -0.20124283 0.110788316 0.10416507 -0.27489594 -0.3104667
-0.25738657 0.06372684 0.24851379 -0.11372545 0.020526161 0.22650422 -0.66431236 -0.002248841
0.0422777 0.1577015 0.7182141 0.88267356 -0.24381371 0.83922005 0.5549319 0.4119174
-0.7097381 -0.04469069 -1.2807193 -1.4790276 -0.24183583 0.39867842 -0.037263338 -0.18711169
0.3939193 0.08706526 -0.17813039 -0.24800545 0.088337526 -0.014689883 0.079036005 -0.33644766
-0.19559316 -0.108463086 -0.2432381 0.34606495 0.56278235 -0.094060294 -0.08056467 -0.16480388
0.17065488 0.12595998 -0.14082576 0.16757116 -0.095555246 0.20576987 -0.15110926 0.032085918
-0.1316542 -0.26765037 0.06658992 0.42896804 -0.18325862 -0.12035287 0.29212648 -0.049779188
0.08134833 -0.1069519 0.03659111 -0.17393719 -0.10331277 -0.08154141 0.04304123 -0.27166563
-0.3417291 -0.034610394 0.18719184 0.09589809 0.1594579 0.076830186 0.3009526 -0.101278685
-0.1891831 0.2972542 0.12199748 0.16844846 -0.15803207 -0.259627 0.37391657 0.15233763
-0.7768479 -0.19739196 -0.30475375 -0.29052386 -0.13146517 0.024091978 0.20027271 -0.12557183
-0.24991891 -0.25630337 0.13594194 -0.20991759 -0.0053232918 -0.1442697 -0.18461026 -0.4194049

pre_processing_lin_layers.0.bias f4 [32]
00000000: c2d1 1bbe fba4 bc3c f518 d03d bc8e b73d
00000010: bb67 c3bd e4c2 bd3d 6935 4dbe 390c 3bbe
00000020: f8c8 643d 76e2 63bd 487c 8abd 485c 243b
00000030: 4008 12bd 37a9 0c3e 1355 883d f95a 69bd
00000040: 1865 d73d 86ca f33d eb72 3cbd 494a 8abd
00000050: d497 9e3c ec1c fdbd 9849 723b 5404 53bd
00000060: 4a2d bb3c fe65 dd3d 77fd 103d 9642 32be
00000070: 74a8 5f3d ef31 893d 34ce 02be aff5 0ebd
-0.15216735 0.023027888 0.1016101 0.08962771 -0.095412694 0.09265688 -0.20039906 -0.18266381
0.05585572 -0.05563589 -0.06761986 0.0025079418 -0.0356524 0.13736425 0.066568516 -0.056971524
0.10517329 0.11903863 -0.04600803 -0.0675245 0.019359507 -0.12359032 0.0036970135 -0.0515178
0.022848744 0.10810469 0.035397973 -0.17408213 0.05460401 0.06698977 -0.12773973 -0.03490227

pre_processing_lin_layers.1.weight f4 [32, 32]
00000000: 42f1 bb3e 9029 38be 0967 923d b45b a23d
00000010: 4aa3 03be ef98 2bbf c419 4f3e 0253 a43e
00000020: 07c3 b8be 0512 99bd 0188 e8be 4147 c2bd
00000030: 1cfe c3bd de76 953e b30d 073e 1fd7 4abe
00000040: 43fe 05bf 385f 1bbe ec1d 523e 8808 6d3d
00000050: 6473 303e 8e73 25be 2ce6 67be aaaa 8d3d
00000060: a07b b0bd dbd6 10be 688e 67bc 3972 4fbe
00000070: 47f8 a7bd 4abe efbe 22c1 f5bd f4d9 5bbe
00000080: fafb 243d a9e1 4dbe 7b31 52bd ab4c cbbd
00000090: 3e30 fcbd 947d 32be 7dc5 46be b441 c03e
000000a0: 2c4f 87bd da43 863d 2dd5 c1be 727f 71bf
000000b0: 463c 52be 13a8 b53e 8881 af3e db3a 7abe
000000c0: 78be 6e3d 91d8 23be 67e0 863e 2bd2 1d3c
000000d0: f01e 7d3e 7b47 f83c 514f 29be 9a85 8e3e
000000e0: 1552 cc3d 7ed2 2cbe 74af 33be 872f 89be
000000f0: 9d83 12bd 43e4 a33d b93d c53d f391 5abe
00000100: 8cc4 a8be c9d7 a73e 4a13 01be 77e7 8ebe
00000110: d71b 723e c8d8 803e c516 8dbe 6034 1d3e
00000120: 2cf4 c43d d8ff 153e 9c3a 913d b9e0 2b3e
00000130: bec5 0b3e 6c21 35bd df04 813e 55a5 f93d
00000140: e343 de3d a9fc 54bc 09e0 e23b 7b48 d23d
00000150: ce4e 16be 12eb c83d 3cba 7d3c 38dc f83d
00000160: bb04 a33d 9660 9b3e e3f4 c63d f019 ecbd
00000170: 5dae a83d 461d 2f3f f545 0f3e d8fe 6f3e
00000180: 3971 943e 2e23 b6bc bb71 6c3e 9a8b 743e
00000190: f17c 6dbd 0f40 2c3f 98a2 963e f226 aabd
000001a0: be23 abbc fcca 9dbd fc46 a73d da1d 0c3f
000001b0: 32e1 0cbd e437 25bd 22f8 6cbd dd04 923d
000001c0: eb1e 483e a40d 773c 1f98 63be 7993 8ebe
000001d0: b20d 34be 1583 c73d 3896 d73c b549 94bd
000001e0: 73ca 26be f68e 9abd 9b1c b2bd 07fc dabd
000001f0: fbff 6f3d 7c26 a23f 3dbb 9fbe e43e e53d
00000200: c989 873e fec1 073e dd25 26be 5090 d5be
00000210: f81e 58bd 25dd 36bd 97d8 ec3d ddb8 5a3e
00000220: 882f 5c3e 6b48 86be 7d92 6fbd fff2 3cbe
00000230: c468 483e 9744 4f3e decb 3e3d 878b a33d
00000240: aa2b f5be 1d65 9f3d a73e 873e 7a7c aebe
00000250: 364b fe3d 3fea 07be 8338 69bd bab0 1c3d
00000260: e13e 0c3d 20ef 453e b13a 25be 2297 1b3e
00000270: a1cd b63d 36f5 9fbd 0e91 153e 556d 903d
00000280: 5838 713e 83c1 6abd f3e4 803e a72b 043e
00000290: 7692 293e 3dd3 ed3e 752e 643e 7a73 aa3c
000002a0: 009e e43d 9082 cabd 2e5f 67bd ad52 063e
000002b0: 98c1 30bd 564f 353f 1cbb 993c 0fe0 683d
000002c0: 0a84 473e 2553 83bd 0a5d 0bbd 3ed9 92bd
000002d0: 706f d8bd 98c2 613c 6bd2 b33e ad0e 703e
000002e0: 2712 36be ac44 c1bd 8dfe 783e bb43 cfbd
000002f0: f6b6 0dbe 1013 603f fb75 54be efcd 123f
00000300: 1670 d6bd 899a 3fbd 09fe 77be 88c4 f3be
00000310: ed65 e8bd bc5f 33bd 758e 833e 003f 833e
00000320: b563 3dbd 3428 19be 1e71 28bd 6da6 49be
00000330: bf97 303d a6c6 bcbd 4124 47bc f6d1 7abe
00000340: 154e 1c3c 3d6a 87bd 80d3 643e 07d9 013f
00000350: e699 d03d 4853 9dbd fd34 d4bc d9fa 303e
00000360: ed6f 3cbd 13f4 f7bd 35f3 acbd 2426 85be
00000370: cd01 9dbc 3f49 8ebe dfdb 7f3e db5e 0cbd
00000380: 9de5 0a3e 6dfd 23be ea92 d03d 8ff8 d9bd
00000390: 3910 74bd c595 bebe 9bb2 d93e a749 6e3d
000003a0: 8335 a4be 858b a43d e456 41be 2ada 01be
000003b0: ee37 aabd 058a c03d 2ddf 20be 45bc eb3d
000003c0: 6009 db3d aed9 87be f399 383d 4b66 0b3d
000003d0: 7467 1c3e b6e3 bfbb 4e5a bbbe a9e5 aabd
000003e0: 6060 003e 0093 20be 395c af3e c6c8 cbbe
000003f0: 01e2 b5bd 638e 98be 69c5 373b 690e 5abe
0.36707503 -0.17984605 0.07148559 0.07927647 -0.12855259 -0.67030233 0.20224673 0.3209458
-0.36086294 -0.0747414 -0.45416263 -0.09486247 -0.09569952 0.2919225 0.1318882 -0.19808625
-0.523411 -0.15173042 0.20519227 0.057869464 0.17231518 -0.16157362 -0.22646397 0.06917317
-0.086173296 -0.14144461 -0.014133073 -0.20258416 -0.08201652 -0.46824867 -0.11999728 -0.21469861
0.040279366 -0.20105614 -0.05131672 -0.09926733 -0.12313889 -0.17430717 -0.19411273 0.37550128
-0.06606898 0.065559104 -0.37857953 -0.9433509 -0.20530805 0.35479793 0.34278512 -0.24436514
0.058287114 -0.16000582 0.2634308 0.0096326275 0.24718833 0.030307522 -0.16534163 0.27836305
0.099765934 -0.16877171 -0.17547399 -0.26794073 -0.035770047 0.08002522 0.09630913 -0.21344738
-0.32962453 0.32781819 -0.12605014 -0.2791097 0.23643433 0.2516539 -0.27556434 0.1535201
0.096168846 0.14648378 0.07091257 0.16784944 0.13649651 -0.044221327 0.2519903 0.12189738
0.10852792 -0.012999692 0.0069236797 0.10267731 -0.14678499 0.09810461 0.015486296 0.121513784
0.07959887 0.30347127 0.09714677 -0.11528385 0.08236382 0.6840404 0.1399153 0.23437059
0.28992632 -0.022233572 0.2309026 0.23881379 -0.05798048 0.67285246 0.29420924 -0.083082095
-0.020891067 -0.07704732 0.08167836 0.5473305 -0.03439445 -0.040336505 -0.057853825 0.07129834
0.19543044 0.015078936 -0.22225998 -0.27846888 -0.1758335 0.09741799 0.026316747 -0.07240621
-0.16288166 -0.07546799 -0.08696862 -0.10692602 0.05859373 1.2667994 -0.3119754 0.11193636
0.2647231 0.13257596 -0.16225381 -0.41711664 -0.05276391 -0.044644494 0.11564749 0.21359582
0.21502507 -0.26227126 -0.05848931 -0.1845207 0.19571215 0.20241009 0.04658114 0.07985597
-0.47884876 0.07782958 0.26414987 -0.34079343 0.12416689 -0.13272952 -0.05693866 0.038254477
0.034239653 0.193295 -0.1613567 0.15194371 0.08925939 -0.07810442 0.14606115 0.070521034
0.2355665 -0.057313453 0.25174674 0.12907277 0.16559777 0.46450225 0.22283347 0.020807017
0.111629486 -0.09888184 -0.056487255 0.13117476 -0.043153375 0.7082418 0.018765979 0.056854304
0.19483963 -0.06412343 -0.034024276 -0.07170342 -0.1056813 0.013779305 0.35121474 0.23443098
-0.17780362 -0.09436926 0.24315853 -0.101203404 -0.13839325 0.8752909 -0.20748131 0.5734548
-0.104705974 -0.046778236 -0.24218 -0.4761088 -0.11347566 -0.04379247 0.25694624 0.25634003
-0.046237666 -0.14956743 -0.041123502 -0.19692393 0.043113466 -0.09217577 -0.01215464 -0.24494156
0.009540101 -0.0661206 0.22346306 0.5072178 0.10185604 -0.076819 -0.025904173 0.17283191
-0.04600518 -0.121071 -0.084448256 -0.2600566 -0.019165898 -0.27790257 0.24986218 -0.03427015
0.13564153 -0.16014643 0.10184272 -0.10643112 -0.059585784 -0.3722364 0.42519078 0.05817571
-0.32072076 0.08034424 -0.18880802 -0.12680879 -0.08311449 0.09401325 -0.15710135 0.11510519
0.106951475 -0.26533264 0.045068692 0.0340331 0.15273839 -0.0058560027 -0.36592335 -0.083445854
0.12536764 -0.15681076 0.34250048 -0.39801615 -0.088809974 -0.29796132 0.002804125 -0.2129456

pre_processing_lin_layers.1.bias f4 [32]
00000000: 6a0b 53bb d966 cabd df1b a4bd 8dd7 a3bd
00000010: 59fd d7bd ba9f 54bb 734a 9a3c 7e6b 033d
00000020: cad0 6e3c b54d b13d 0c08 103d 1790 993c
00000030: eb6d 073e 7142 6bbd 5457 68bc b3fa ab3b
00000040: 8288 e3bc 8138 0d3c c066 803d 2478 ec3c
00000050: 57b1 973d 552b c4bd aeef f73d 4aed a73d
00000060: fc2a bb3d 63c3 57bd b26f 08be 0ef5 14bd
00000070: a189 d73c 19d6 5f3d 2d30 c53c 9362 08be
-0.0032202848 -0.09882898 -0.080131285 -0.080000974 -0.10546369 -0.0032443837 0.018834328 0.032084934
0.014576146 0.086573996 0.035163924 0.018745465 0.13225524 -0.05743641 -0.014180977 0.0052483915
-0.027775053 0.008619429 0.06269598 0.028865881 0.07406872 -0.095785774 0.12106262 0.08199556
0.09139058 -0.05267657 -0.13323858 -0.036366515 0.026310744 0.05464754 0.024070824 -0.13318853

pre_processing_batch_norm.0.weight f4 [32]
00000000: 6c6a 4a3f d7bc 6c3e 3a54 e13e b8fe c33f
00000010: a0e4 5e3e 1571 0040 e05f 123f 779b 033f
00000020: 77d8 893f d28c f23e c1f5 433f 8a3a de3f
00000030: f632 093c 897d 5d3f 8eee 093f 94ea c43e
00000040: f1b4 363f 22bf fb3e 7a9b 033f b3df b13e
00000050: d267 1f3e 748e ec3e ee37 0f3f c549 6f3d
00000060: b39b a33e 6cd3 f03e c442 913e ad7f 8e3f
00000070: 12c1 b93e 2ace 0d40 8599 023f c3cd 693f
0.79068637 0.23118912 0.44009572 1.5312109 0.21766901 2.006902 0.57177544 0.51409096
1.0769185 0.47373062 0.76546866 1.7361615 0.008373966 0.86519676 0.5387963 0.3846022
0.71369845 0.4916926 0.51409113 0.3474098 0.15566948 0.46202433 0.55944717 0.05841996
0.31954727 0.47036302 0.2837125 1.1132714 0.36280113 2.2157083 0.510155 0.9132959

pre_processing_batch_norm.0.bias f4 [32]
00000000: db40 1dbe e395 8abe 44da 60be 1aa5 b3bd
00000010: 5c2c f2bc 2557 5bbd 5596 9d3e 6abb 073f
00000020: 1c5a 19bf 91a7 18be fbda f73d 059e 1fbd
00000030: c8e8 e63c ce19 3f3c d43b 273f 3f89 8fbd
00000040: 1706 523f f730 ebbe fcef 763f cf4b 7c3f
00000050: e0a3 6c3f 0b1d c2be 186e a7be b6b1 563f
00000060: 7f46 9dbd dcec 8abd 1a40 7b3e dd66 9abd
00000070: 3a79 2ebc 94b8 babe c99b 503e 3858 0fbf
-0.15356772 -0.2706748 -0.21958262 -0.08771725 -0.029562168 -0.053549904 0.30778757 0.53020346
-0.5990312 -0.14907672 0.12102314 -0.03896906 0.02818717 0.011663867 0.65325665 -0.070085995
0.8204054 -0.45935795 0.9645994 0.98553175 0.92437553 -0.37912783 -0.32701182 0.83864915
-0.07679462 -0.067834586 0.24536172 -0.07539151 -0.01064902 -0.36468947 0.20371927 -0.55993986

pre_processing_batch_norm.0.running_mean f4 [32]
00000000: f393 1dbe d1ba e53c 0c84 e43d a4a6 b83d
00000010: a3e2 c2bd 2935 cc3d 3c3a 32be 7a86 30be
00000020: 0fad 913d 278f 51bd b7f4 9abd 0ccf 433b
00000030: fef4 14bd 75fc 143e 70e5 863d 56c9 68bd
00000040: c98a e33d c9d3 fb3d 199b 39bd b22e 91bd
00000050: 816b d33c 3698 eebd 4531 c73b 99e6 29bd
00000060: 8b82 893c 7536 c73d f71a 0c3d dad1 33be
00000070: a8f8 3b3d af5c 803d 61ac e6bd af47 a6bc
-0.1538847 0.028043183 0.111579984 0.09016159 -0.09515884 0.09971077 -0.17405027 -0.17238799
0.071130864 -0.05116191 -0.07566207 0.0029878048 -0.036366455 0.1454943 0.065867305 -0.056832634
0.111104555 0.12296254 -0.04531393 -0.070889845 0.025808098 -0.11650126 0.0060788714 -0.04147968
0.01678588 0.09727184 0.034205403 -0.17560521 0.045891434 0.06267678 -0.112633474 -0.020297853

pre_processing_batch_norm.0.running_var f4 [32]
00000000: b936 773f 02e0 3c40 ef31 a93f 3676 0a40
00000010: 9324 ff3f 3be8 5841 0c22 cf3f 3db3 d13f
00000020: c6d3 743f 7208 1b40 0a69 f23f 5243 3c40
00000030: 407f 793f 45ed 103f 5cf2 a43f 97b5 5a40
00000040: 4319 0a40 b7a1 3340 3ecc 2440 2b09 9d40
00000050: 2263 3a40 39d5 4140 bba2 9e3f be57 653f
00000060: 75e7 f63f 9107 6a40 c3f4 743f a2ba 4c3f
00000070: 49cc 0740 0787 5a40 5108 6e3f 6a9c 9b3f
0.96567875 2.9511724 1.3218364 2.163465 1.9933037 13.556697 1.6182265 1.6382824
0.9563564 2.4223905 1.8938305 2.941609 0.97459793 0.56612045 1.2886462 3.4173334
2.1577919 2.8067453 2.574966 4.907369 2.9123006 3.028639 1.2393411 0.8958701
1.9289385 3.6567118 0.95685977 0.7997228 2.1218436 3.4144914 0.9298144 1.2157109

pre_processing_batch_norm.1.weight f4 [32]
00000000: 7dd6 213f d1e3 653f 2087 133f 68a6 953f
00000010: ca14 203f e17c 873f a80e 4b3f e336 0a3f
00000020: af3c 2d3f b884 3b3f e17c 083f c4f7 913f
00000030: 14f2 5b3f 1bde 243f 87b1 503f b9b2 bd3e
00000040: ee87 913f 62c4 933f 7c0e e53e 4b87 513f
00000050: fd77 6f3f 0e21 113f d498 af3f 0a83 7c3f
00000060: 5313 f33e 9ab6 153f a0cb 0e3f 8855 8d3f
00000070: 1b2e f43e 46b8 5e3f fed1 673f 7edd 9f3e
0.6321791 0.89800745 0.5762806 1.1691408 0.6253172 1.0584985 0.7931924 0.5399
0.6767072 0.7324939 0.5331555 1.1403737 0.85916257 0.64401406 0.81520885 0.37050417
1.1369607 1.1544306 0.44737613 0.81847066 0.9354246 0.5669106 1.3718514 0.9863745
0.4747568 0.5848175 0.5577946 1.1041727 0.47691426 0.8699993 0.905548 0.31223673

pre_processing_batch_norm.1.bias f4 [32]
00000000: 97fd b43d a5fb f63d d1a1 1f3e b1a8 32be
00000010: b912 4bbe c427 7f3d 3593 ba3e de84 9d3d
00000020: 44ce ca3e 4d06 813e 7110 11be 5750 d03e
00000030: 97a2 963e 3c91 893c 8574 17be 25b2 7b3e
00000040: 7cf9 c13e 58fa e1be f117 26be 4fc0 3f3e
00000050: 9a40 c2bd 5275 ddbd 6f80 533e 1d09 13bf
00000060: 491e d83c b6c5 fcbd 0408 6ebd be76 013e
00000070: 70d4 86bd 4949 a1be 35f4 89bd 67f4 543e
0.08837431 0.12059716 0.15589072 -0.17447163 -0.19831361 0.062293783 0.36440435 0.07691358
0.39610493 0.2520012 -0.14166428 0.40686294 0.2942092 0.016792886 -0.14790542 0.24579675
0.37885654 -0.4413631 -0.1622007 0.18725704 -0.09484978 -0.10813393 0.20654462 -0.5743578
0.026381629 -0.12342398 -0.058113113 0.12642953 -0.06583488 -0.31501225 -0.06736032 0.20796357

pre_processing_batch_norm.1.running_mean f4 [32]
00000000: abb7 593e 2dfa 4e3f 232f b23e cec6 d2bc
00000010: e610 e6be d619 063f fe5b 8a3f 5665 c43e
00000020: ef69 383f 7cd5 bc3f 18ec 41bf 8998 063f
00000030: ecd1 ad3d de30 f33e f936 10bf abd6 b33e
00000040: e7d3 ad3f 23f4 b6bf d96c bf3e 8b80 e63e
00000050: c1d4 963f 8978 d53e 7ba0 3a3f 36e9 5bbe
00000060: 6a15 4a3f 6154 4cbe 8744 0d3f 96d3 893f
00000070: 2b1b efbb adaf 8cbf bf44 343e d315 17be
0.2126147 0.8085049 0.34801587 -0.025729563 -0.44934767 0.5238317 1.0809324 0.38358563
0.7203664 1.475265 -0.75750875 0.525765 0.08487305 0.4749822 -0.5633388 0.35124716
1.3580292 -1.4293255 0.37387732 0.45019946 1.1783677 0.41693524 0.72901124 -0.21475682
0.78938925 -0.19954063 0.5518269 1.0767696 -0.00729694 -1.0991112 0.1760435 -0.14754419

pre_processing_batch_norm.1.running_var f4 [32]
00000000: 783c 0340 233f 0940 caf8 1640 3e9b b940
00000010: 69dc 9c3f 43fd 3540 92ed 7f3f 1e43 913f
00000020: 016b dd3f 9700 1740 bc6a c13f c97a 6f40
00000030: 197c b13f e898 8c3f d014 5640 d66a 753f
00000040: 2342 2540 b52f 2540 46f7 733f bdd6 0540
00000050: 8819 0440 dccd ae3f a0c6 3b40 7821 3c40
00000060: 7750 723f 3e24 2d40 8d74 9e3f a7e2 f63f
00000070: 6667 623f cbb1 2d40 b66a bb3f 0e14 513f
2.0505657 2.1444786 2.3589349 5.8002005 1.2254764 2.8435829 0.9997188 1.1348608
1.729828 2.359411 1.5110698 3.7418692 1.3865997 1.0984163 3.3450203 0.95866144
2.5821617 2.5810368 0.95299184 2.0912316 2.0640583 1.3656573 2.933998 2.9395428
0.9465403 2.705337 1.2379318 1.9287919 0.88439023 2.7139766 1.464194 0.81671226

post_processing_lin_layers.0.weight f4 [32, 32]
00000000: 6319 dc3d 7be1 de3a 7654 40be 0089 50be
00000010: fcfe 46bd c512 18be ab9e b33e fbc7 a53e
00000020: 9c69 dd3e e453 43be 71d7 093d 33af 63be
00000030: e785 1bbf 8495 593e 1239 cbbe e3bf 8d3e
00000040: 89fe 413e 0c6f 4ebe 6611 32be 8c69 893e
00000050: ecb3 843e 93e6 94be 4231 2a3d a1fa d43e
00000060: 78f9 243b 3a4b d6bd 3cc9 36be ab36 b9bd
00000070: b230 593e 0711 693e b0ad a4be 0724 303e
00000080: ea30 3b3e 55bc 22be 6abc 87be b69a 14be
00000090: 02b4 6ebe e5f1 3bbe cb7c 0fbe 7139 8abd
000000a0: ed43 163e c370 dbbb 6053 76bd 9317 03be
000000b0: 8fae 8c3e 6565 93bd 954c 95be efe7 22bd
000000c0: ee8c 87bd 648f 01bd f827 82be 63e9 81bd
000000d0: dfb7 20be 4a63 a83e 78db bdbe 9f81 0fbe
000000e0: b493 01be a372 1dbe 190c 1bbe 7f1d 3abe
000000f0: 9497 563e e6ed 1b3e 1bfb 6cbe 9a6a 523e
00000100: 43a7 b5bd c75f e53d acf4 23be a640 7d3c
00000110: 9ce0 87be 100f bebe 65ac 18be 93ba c5bd
00000120: ecd6 40be 6e55 87be 0693 5b3e 3021 183e
00000130: 2b13 5e3e 1435 18be 9ee3 debe 4d8f 843e
00000140: 4297 0fbe 2444 1abe 61ce f4bd 720b 17be
00000150: 639c a1bd 3188 febd 4fb9 8ebd 0e8c 9bbe
00000160: b6a9 74be eb30 1d3e f6bf 82be 156d 20be
00000170: 97e2 123e ad53 c0bd 753c 04be d4b4 d93d
00000180: 80ee 343c f0b5 71bd cd75 85be 03f4 a53d
00000190: 66eb 28be 5f03 83be 6e5a dabd 7f23 6c3e
000001a0: 7020 043e 0d07 c9bd 2200 043e 7cba c83e
000001b0: e511 ee3d 0fd2 f6bd bbc6 8dbe 2584 dd3d
000001c0: 3f67 2f3e 95e1 00be bf8b 50be 2b55 bb3d
000001d0: d99b e0be 1870 d4bd 6ddf e5bd a4c6 11be
000001e0: 5d5e 1cbe 2929 24bd ab26 7bbc 6d97 43be
000001f0: 2731 913e ce59 7b3a f174 17be 8a51 e3bc
00000200: ad1e 4d3d cf69 45bd 508f 8ebd d4ec 42bd
00000210: ca75 41be 7444 9dbe 0571 94be cc2b 89be
00000220: 7f70 1cbe 3e54 64be 6fdf e4bd 5cc8 513d
00000230: af64 febc a95e 9cbe f8d9 9fbe 2b16 893e
00000240: 1d89 0ebe 2a9c aebc 8f92 9dbe 5f4e 33be
00000250: b3a4 e4be 3efc 3cbe 2962 90be 93f5 0ebe
00000260: 57a5 a5bd 12aa 39be 6151 0dbe 12e1 9cbd
00000270: 0e56 f7bd 5f1f 1e3e 1ba9 debc fe54 4fbe
00000280: 0a4b 27be ca65 55be 19cd 30be e27a 43be
00000290: 9ca0 94be 8d75 93bd 6588 90be ad9b 00be
000002a0: 3462 27be 822e 9fbd 92a5 19be 8139 3abe
000002b0: 0982 593d d8ba 3dbe 167e 1dbe d24e 923d
000002c0: 9f20 17be 487b 3dbe 3f2c 87be b1a2 55be
000002d0: 043e 6ebe 080d e836 4722 6fbe a5f9 25be
000002e0: 344a 67be ffcc 06be 0242 84be 3eca 19be
000002f0: ade4 91bd a2d0 693e f690 88be 5a66 1c3e
00000300: afca 9a3e 4d42 76bd 5f62 63be 6f3d 8fbe
00000310: 99a6 1dbe 35cb 3abe 456e 4cbe 837c 3f3e
00000320: c1e1 653e 0f60 87be 6560 213e d68d dcbd
00000330: 3267 653e caf6 abbd a4f6 d0bb 51d4 17bc
00000340: 174a 793e 9003 7bbe 2d37 d5bd 75e9 bd3d
00000350: b0d3 98bd 372f 733e 8657 95be 36ff 9a3d
00000360: 5aa5 21be 6994 2cbe a599 09be 5ef8 483d
00000370: a696 8c3d 4fb7 d0be 06fa e93d 5201 323e
00000380: 06e1 093e b7b5 8fbe 5e72 41be 36ad 503d
00000390: 8d8f 58bd 0d4c 7bbe 47a2 84be 0806 403e
000003a0: 37de 60be d6c8 9ebe e9b7 4cbe 2fdb bd3c
000003b0: 2299 8b3d 795e 56be 14bd 54be 1033 de3d
000003c0: f2b7 823d b98f acbe fda8 68be 7388 c5bd
000003d0: a346 bfbe 8424 d4bd e695 5fbe fe73 24be
000003e0: bbef 2cbe d9d5 98bd 02ee 0dbe f52c 15be
000003f0: 1ebd cabd 7641 4b3e 33fd d7bd eab7 393e
0.1074703 0.0017004454 -0.1878222 -0.20364761 -0.048583016 -0.1485091 0.35081992 0.32379135
0.43244636 -0.1907497 0.033652727 -0.22234802 -0.60751194 0.21248442 -0.3969198 0.2768546
0.18944754 -0.20159549 -0.1738945 0.26838338 0.2591852 -0.29082164 0.041550882 0.41597465
0.002517311 -0.10463567 -0.17850202 -0.0904363 0.21209982 0.22760402 -0.32163763 0.17201243
0.18280378 -0.15892155 -0.26510936 -0.14512143 -0.23310855 -0.18353994 -0.14012448 -0.06749237
0.14674349 -0.006696792 -0.060138106 -0.12801962 0.27476928 -0.07197074 -0.2915999 -0.03977197
-0.06618677 -0.03163089 -0.2542112 -0.06343343 -0.15695141 0.32888252 -0.37081504 -0.1401429
-0.12654 -0.15375762 -0.15141334 -0.18175314 0.2095626 0.1522747 -0.23142664 0.20548478
-0.08869793 0.11199909 -0.16011304 0.015457308 -0.2653855 -0.37120867 -0.14909513 -0.09654727
-0.18831986 -0.26432365 0.21442804 0.1485641 0.21687 -0.14863998 -0.43533033 0.2589058
-0.14022544 -0.15065056 -0.11953426 -0.1475046 -0.078911565 -0.1242832 -0.069689386 -0.3038029
-0.23892865 0.15350692 -0.2553708 -0.15666611 0.1434425 -0.0939096 -0.12913688 0.10630193
0.011043191 -0.0590114 -0.26066437 0.08103182 -0.16496047 -0.2558851 -0.10661779 0.23060416
0.12902999 -0.09815798 0.12890676 0.39204776 0.11624507 -0.12051784 -0.27690682 0.1081622
0.17129229 -0.12586053 -0.20365809 0.09147104 -0.43868902 -0.10372943 -0.11224256 -0.14235932
-0.15270372 -0.040078316 -0.015329043 -0.19100733 0.28357813 0.0009588272 -0.14790703 -0.027748842
0.050078083 -0.04819661 -0.069609284 -0.04758914 -0.18892589 -0.30716288 -0.28992477 -0.26791227
-0.15277289 -0.22297761 -0.11175429 0.05121647 -0.031053869 -0.3054097 -0.31220984 0.26774725
-0.13919492 -0.0213147 -0.30775878 -0.17510365 -0.44656906 -0.18455598 -0.2819989 -0.13960867
-0.08088177 -0.18131283 -0.13800575 -0.07660116 -0.120769605 0.15441655 -0.027180245 -0.20247266
-0.16337219 -0.2083961 -0.17265739 -0.19089845 -0.29028785 -0.072001554 -0.2822906 -0.12559386
-0.16346055 -0.077725425 -0.15004566 -0.18185998 0.053102527 -0.18528306 -0.15380129 0.0714394
-0.14758538 -0.1850406 -0.26400945 -0.20862843 -0.23265845 6.915656e-06 -0.2335292 -0.16208513
-0.225869 -0.13164137 -0.2583161 -0.15018556 -0.071236946 0.22833493 -0.26673096 0.15273419
0.3023276 -0.060121823 -0.22205494 -0.27976558 -0.15395583 -0.1824158 -0.1996394 0.18699841
0.224494 -0.26440474 0.15759428 -0.107692406 0.22402647 -0.08396681 -0.006377058 -0.009266929
0.2434467 -0.24513078 -0.104109146 0.09273044 -0.07462251 0.2374848 -0.29168338 0.07568209
-0.15785733 -0.16853489 -0.13437517 0.049064986 0.068646714 -0.40764853 0.11424641 0.17383316
0.13464746 -0.28068325 -0.18891284 0.050946437 -0.052871276 -0.2454073 -0.25905058 0.187523
-0.21959768 -0.310126 -0.19992031 0.023175804 0.06816317 -0.20934476 -0.20775253 0.10849583
0.06382741 -0.33703402 -0.22720714 -0.09645166 -0.3735858 -0.10358527 -0.21834525 -0.16059873
-0.16888325 -0.07462663 -0.13860324 -0.14567931 -0.098993525 0.1984919 -0.10546341 0.18136564

post_processing_lin_layers.0.bias f4 [32]
00000000: 11e1 5e3d 8bde 413b b290 913c 2980 863d
00000010: 2c71 133e 5fba 3c3c 6132 bb3c eead 083d
00000020: 66b4 0cbd b498 99bd a8fc d2ba 254d 65bd
00000030: b6c5 5e3d 2b55 9cbd e58e d23c e880 70bd
00000040: 09d8 91bd a026 9a3d 6467 2fbd 2028 0abe
00000050: e9b5 3ebc a19b 9dbd 4a32 9a3d 0c1b b4bd
00000060: ca58 bbbc 24ac c8bd af11 803d be31 843c
00000070: a107 003d 2a2f d7bd 747d fa3d a6f8 1bbe
0.05441386 0.002958211 0.017769191 0.06567413 0.1439864 0.011519044 0.022851171 0.033368997
-0.03435173 -0.07499829 -0.0016097026 -0.055981774 0.05438777 -0.07633432 0.025702903 -0.058716685
-0.071212836 0.075268984 -0.04282321 -0.13491869 -0.01164005 -0.076956995 0.07529123 -0.08794221
-0.022869486 -0.09798458 0.06253373 0.016137 0.031257275 -0.10507043 0.122309595 -0.1523157

post_processing_batch_norm.0.weight f4 [32]
00000000: 0328 8e3e 27a3 4e3e 131e 2d3e 9226 b83e
00000010: c025 893e 9e77 5e3e 46e9 9a3e 7d96 6b3e
00000020: 21a6 943e db16 7e3e c1dc 8b3e 31c5 643e
00000030: 4861 4a3e cc98 873e 43fe 9c3e a7e2 4a3e
00000040: a9ff 893e 5982 7a3e b213 e33e 921d 933e
00000050: 679c a53e 9fab a53e e454 793e 493a 6e3e
00000060: ff6e b9bd 515a 473e f574 4b3e c3b5 8b3e
00000070: 7701 2f3e 4170 773e 7369 3e3e 31fc a73e
0.27764902 0.20179425 0.16906004 0.35966927 0.26786613 0.21725318 0.30256099 0.23006625
0.29032996 0.24813406 0.2731686 0.22340848 0.19763672 0.26483762 0.30662736 0.19813024
0.26952866 0.24463786 0.44350964 0.28733498 0.32345888 0.323575 0.2434879 0.23264422
-0.09054374 0.19468047 0.19868834 0.2728711 0.17090403 0.24163915 0.18594913 0.32809594

post_processing_batch_norm.0.bias f4 [32]
00000000: 5af6 2cbf 98a9 a1be 8028 6cbe e11f 08bf
00000010: f88e d6be cd9e 8ebe c70f f5be 296d abbe
00000020: 22d0 fabe 2f11 32bf f5c9 f1be 7652 a0be
00000030: b02b 80be f730 d0be e547 e9be edf2 a3be
00000040: 48f4 d6be 3c7c 3bbf cc88 29bf dcd6 4bbf
00000050: a73a 0bbf 5c0b 10bf a994 c6be 2125 bbbe
00000060: 7004 95be 04e2 94be 97f3 a6be 44ca 0abf
00000070: 98b5 8cbe 877c b5be aa32 8bbe e6a4 1dbf
-0.675634 -0.31574702 -0.23062325 -0.53173643 -0.41905951 -0.2785553 -0.478636 -0.3348172
-0.48986918 -0.6955747 -0.47224393 -0.31312913 -0.2503333 -0.40662357 -0.45562664 -0.32021275
-0.41983247 -0.7323644 -0.6622436 -0.79624724 -0.5438637 -0.56267333 -0.38785294 -0.36551765
-0.29104948 -0.29078686 -0.3260772 -0.5421488 -0.27482295 -0.3544657 -0.2718709 -0.6157974

post_processing_batch_norm.0.running_mean f4 [32]
00000000: 06d1 10c0 7f7f b4c1 0bcb b7c1 a787 8bc1
00000010: f460 aec1 c04a a1c1 1013 acc1 4119 b2c1
00000020: 880c b2c1 743e 4f41 9660 d3c1 b059 9ec1
00000030: ce38 85c1 d050 b2c1 0c68 a3c1 3555 bcc1
00000040: 0fa0 73c1 b626 8c41 07fc 3dc2 c78f e5bf
00000050: 010c 93c1 5b76 91c1 cb65 acc1 7c91 16c2
00000060: 021a d7c1 88f8 c8c1 4957 d7c1 dab7 7bc1
00000070: bd02 d4c1 6d90 adc1 a517 ccc1 63dd 84c1
-2.2627578 -22.562254 -22.974142 -17.441236 -21.79734 -20.161499 -21.509308 -22.262331
-22.256119 12.952747 -26.422161 -19.793793 -16.652737 -22.28946 -20.425804 -23.541605
-15.226577 17.518902 -47.49612 -1.7934502 -18.380861 -18.18279 -21.549704 -37.642075
-26.8877 -25.121353 -26.91762 -15.732386 -26.501337 -21.69552 -25.511545 -16.608099

post_processing_batch_norm.0.running_var f4 [32]
00000000: 15c9 ef43 740b a743 d8c0 d343 1756 8043
00000010: 6bf7 b743 7bfc 9543 1e39 d643 e62d b643
00000020: ea30 ca43 e5a1 1144 7ca7 4944 7778 8843
00000030: 4691 7d43 ff77 ac43 03a2 ab43 33d4 f543
00000040: 2f27 7943 7fa6 1144 8445 e444 0830 4d44
00000050: 5c51 cf43 08a3 3044 6197 d943 5ae6 7544
00000060: 3e73 5544 8f3a 0144 ced1 1a44 de84 3a43
00000070: 1427 1e44 4dc1 b443 c02e 0244 4dcc cf43
479.57095 334.08948 423.5066 256.67258 367.93295 299.9725 428.44623 364.35858
404.38214 582.5296 806.61694 272.94113 253.56747 344.93747 343.26572 491.6578
249.15306 582.6015 1826.1724 820.7505 414.63562 706.54736 435.18265 983.59924
853.80066 516.915 619.2782 186.51901 632.6106 361.51016 520.73047 415.5961

final_lin_layers.0.weight f4 [32, 32]
00000000: 6958 d1bc d343 55bd 07de d4bc 4939 babc
00000010: d99d 9bbb 8453 c43a c1ad c5bd 10b0 9abc
00000020: 0e62 dbbd d6ef 69bd 941b 413c 5327 eebc
00000030: 9558 12bc 37ff 1fbe 023e 71bb 2a30 6c3d
00000040: 8238 3bbd 268f bdbd 7325 03be 33a5 38be
00000050: 989a a8bd dba8 23be 86ae a1bc 7bee 44bc
00000060: 1933 bc3c da6a 1ebd 7a0f 653d 12ed eb3b
00000070: c437 c8bc d0c7 70bd 8f82 44bc 62b4 5b3c
00000080: 548e 9c3d 728e 203c 0a24 a7bc f596 a13d
00000090: eeae cabb 4e67 9bbd a75a 8f3d 60c2 0a3c
000000a0: 458d 9a3d 32fe 043d 0821 573c 73e7 8b3c
000000b0: 84bc 19bd d562 20bb 6a7b 423d f37d ddbb
000000c0: 0440 ebbd 98a5 b1bd 1392 4b3e 497e 7c3d
000000d0: 7889 4ebc 4262 0d3d 83a0 e5bc 7293 103e
000000e0: 14a7 e53d 48a5 9ebb 1c78 9d3d 5610 4dbd
000000f0: 0714 923d 9045 9fbd a61f 2c3d 20e0 d23d
00000100: cc5e 9d3d bf69 08bd 721a 86bb 755d 4b3c
00000110: 24af 6a3d 7fc3 52bd a8e8 0abd 9b5d 953d
00000120: 639c 803d 696f b93c d2e3 0c3e 3416 91bd
00000130: 648b c0bc 83da 10bd 52a7 643c 5b68 893a
00000140: 14f6 a93d 59e6 363c 0f81 d3bd 2b88 7a3c
00000150: 0d95 c339 38ea d53d 26c7 3d3d 811a eebc
00000160: 567a 673d 2af3 0c3d 02a2 a13c f3d1 f43c
00000170: b2a4 45bc e157 23bd 12d8 4dbc f84f 4b3d
00000180: 2e96 c2bd cbb1 973d faaa 8a3c 740d edbc
00000190: d15c d8bc 6fb8 dc3b 4433 8cbd 46a6 4b3c
000001a0: 9caf 73bc 6fbc 37be 8a29 20bd 7ebd 243c
000001b0: 0fc8 d53c 5606 f5bc 3f1b bd3b 01dc 073d
000001c0: d8ea 9bbc b1be d7bd 9c15 d7bc 5034 0ebd
000001d0: b3f5 0ebd 8cd1 4a3d 0c16 6abd 3e4f 0d3d
000001e0: f9fc a83d ea8f 64bc 8aa7 0f3d 394d 9a3d
000001f0: 3c26 a93c 264b 14bc c6e2 0d3c b7d2 0bbe
00000200: 76a0 183e 8588 72bc 7038 d2bd a944 313e
00000210: 3fea 5cbc 76ca 543b 808b b5bd c944 c2bc
00000220: 824f 423d c67d 4a3e 7656 223b 42c1 e93d
00000230: dc19 ccbd a924 bf3d f401 c93b 1494 ca3d
00000240: ae30 7cbc e142 203b 3019 293d 0ff6 1abd
00000250: 2c38 523d e3fd 09bc bc6c 32bd 2289 313d
00000260: d719 9bbc e40d 0abe ce3b 0d3d 0ad3 2dbd
00000270: 95b2 873d 64dc 583d d5b4 8dbd ec58 6b3d
00000280: 421a 67bc 6432 a5bd 3787 aebd fe45 0fbc
00000290: acc0 b8bd b4ba 29bc 175c 8dbc 4cf3 95bd
000002a0: 2398 88be 191e a8bd ff79 eebd d64b 363c
000002b0: 178d 8abd c98e 5dbd 33ab 64bd 68ca 1ebd
000002c0: c7c5 c6bd 6b57 13bd f876 2abe 6828 a4bc
000002d0: 8037 24be a8ca 34bd dcd3 6b3c a1b2 0d3d
000002e0: 9434 91bd 316f 833d e965 4ebd bae9 69be
000002f0: e6c8 d4bc cac9 19bd ce7e 32bd 79ee 93bc
00000300: ffa1 3bbe 67ec 4cbd 2c8f 05bd 8c1f f8bd
00000310: 9b38 68bd bb48 873c 2b50 3b3d 7cc6 79bd
00000320: b52c 95bd 5834 c7bd 6201 adbd 442a f53c
00000330: 0263 273b feb7 303d fafb f23b 8f7d 8fbd
00000340: b640 153d 1bfd 123c b375 21bd 2bfd 70bd
00000350: 3ac1 a6bd 4bc2 913b 5267 ab3c 8142 41bd
00000360: 00c8 dfbd 48c6 8abd 11ba 9ebd 8e7e 98bc
00000370: b195 113d e558 66bd b58a acbc 5705 bebd
00000380: f2b1 b33c 1bd5 4b3c 539b 7e3d 407b 86bd
00000390: e7c1 97bd 0c31 243d 6743 c1bd 7462 9f3d
000003a0: c8c9 4cbd fa51 3ebc 6720 5cbc d0b4 ef3b
000003b0: fd3a 1c3d 10db 3fbb a8f6 4cbd 4aca 233c
000003c0: 715d a2bc 49ca 24bd 787c 2bbe 893a 8fbc
000003d0: 349b bdbb 688c 98bd 64c8 1d3d 2326 cfbc
000003e0: cd19 893d f52e ee3c f5e4 1f3d 5594 bebd
000003f0: 93d7 0b3d 3df5 58bd 222e af3c 5256 60bd
-0.025554853 -0.052066635 -0.025984777 -0.022732394 -0.0047490415 0.0014978503 -0.096522816 -0.018882781
-0.10712062 -0.05711349 0.01178636 -0.029071486 -0.008932252 -0.156247 -0.0036810641 0.05766312
-0.045708187 -0.09255819 -0.12807254 -0.18031769 -0.082326114 -0.15982382 -0.01973654 -0.012019749
0.022973584 -0.03867612 0.055922963 0.007199892 -0.024440654 -0.058784306 -0.011994018 0.013409706
0.076443344 0.009799587 -0.020402927 0.07890121 -0.006185404 -0.07588063 0.069997124 0.008469194
0.07546476 0.032468982 0.013130434 0.017078137 -0.037533298 -0.002447297 0.047480978 -0.006759399
-0.114868194 -0.086741626 0.19879942 0.061643872 -0.012606017 0.034517534 -0.02803064 0.14118746
0.11213508 -0.0048414804 0.07688925 -0.050064407 0.07132726 -0.0777694 0.04202237 0.10296655
0.07684097 -0.033303972 -0.004092508 0.012412419 0.057295933 -0.05145597 -0.033913285 0.072932445
0.062798284 0.022636132 0.13758782 -0.07084313 -0.023503967 -0.03536464 0.013955908 0.0010483371
0.08298889 0.011163318 -0.1032735 0.015291254 0.0003730435 0.10445064 0.0463325 -0.029065372
0.056513153 0.034411587 0.019730572 0.029885268 -0.012063192 -0.03987873 -0.012563722 0.04963681
-0.09501301 0.07406958 0.016927231 -0.028937079 -0.026411446 0.0067358534 -0.06845716 0.012429779
-0.0148734115 -0.17942975 -0.039102115 0.010054944 0.026096372 -0.029910248 0.0057710703 0.033168796
-0.01903288 -0.105344184 -0.026255421 -0.034717858 -0.034902286 0.049516246 -0.05714993 0.0344994
0.08251376 -0.013950327 0.035071887 0.0753426 0.020648114 -0.00905112 0.008660024 -0.136546
0.14904961 -0.014803057 -0.10264671 0.17311348 -0.013483583 0.003246931 -0.08864498 -0.02371444
0.047439106 0.19774541 0.0024770773 0.11413814 -0.0996587 0.09333164 0.006134266 0.09891525
-0.0153924655 0.0024453925 0.041283786 -0.037832316 0.0513231 -0.008422348 -0.04356073 0.04334367
-0.01893322 -0.13481861 0.034480862 -0.04243759 0.06625859 0.052944556 -0.069192566 0.05745785
-0.014105381 -0.08066252 -0.08521884 -0.008744715 -0.09021124 -0.010359455 -0.017255826 -0.07321796
-0.2667857 -0.08208866 -0.11644363 0.011126479 -0.06765192 -0.05409125 -0.05582733 -0.03876725
-0.09705692 -0.03597204 -0.16646945 -0.020038798 -0.16036797 -0.04413858 0.014393773 0.034594182
-0.070901066 0.064176925 -0.050390158 -0.22843066 -0.025974702 -0.037545957 -0.04357796 -0.018058049
-0.18323515 -0.05003014 -0.032607242 -0.12115392 -0.05669461 0.016514173 0.04573075 -0.060980305
-0.07283918 -0.09726781 -0.084475294 0.02992738 0.002554119 0.04314422 0.007415292 -0.0700637
0.036438666 0.008971478 -0.039418887 -0.05883519 -0.08142324 0.0044482104 0.02092329 -0.047182564
-0.10926819 -0.067761004 -0.07750333 -0.018615033 0.035543147 -0.05623712 -0.021062234 -0.09278362
0.021935437 0.012440945 0.062159847 -0.06566477 -0.07410031 0.040085837 -0.09436684 0.0778245
-0.04999712 -0.011616224 -0.01343546 0.0073152557 0.038142193 -0.0029274859 -0.050039917 0.00999696
-0.019819947 -0.040231977 -0.167467 -0.017483966 -0.005786324 -0.07448655 0.038521186 -0.02528674
0.06694374 0.029075125 0.03903671 -0.09305636 0.034141134 -0.052968252 0.021384303 -0.05476982

final_lin_layers.0.bias f4 [32]
00000000: d066 9ebb b176 3abc 543d 46ba 315b b23c
00000010: e044 3fbb 2e43 a5ba 7a21 2b3d f057 a0bb
00000020: 3e35 6d3a 4e2c 823c a60a 5638 af8f 4abb
00000030: 93a5 c7bb 8dcd cc3c ce61 b33b 7e66 b13c
00000040: e254 0e3a 82d3 593b e847 8bbb 0ddf a2bc
00000050: 3525 0c3d a8af 12bb a8cb fd3b fd4c 0c3c
00000060: a2cb bb3c 7970 de3c 8267 0c3d 6282 c9ba
00000070: 8d8c 89bc 34e9 f43c f8c1 083d c3ca 053d
-0.0048340335 -0.011380837 -0.0007562239 0.021772 -0.002918534 -0.0012608522 0.041779973 -0.0048932955
0.0009048766 0.015890267 5.1031493e-05 -0.0030908396 -0.006092736 0.025000358 0.0054743057 0.021655317
0.00054295186 0.003323764 -0.0042505153 -0.01988175 0.03421517 -0.0022382531 0.007745225 0.008563277
0.022924248 0.02715324 0.0342784 -0.001537394 -0.016790653 0.029896356 0.033388108 0.03266407

final_lin_layers.1.weight f4 [32, 32]
00000000: a1ad acbd 161c 8f3c 063c 8fbd 816b 42bd
00000010: afd5 24b9 fa3e cebc 4024 27be 6f20 73bd
00000020: 6c5b 00be da56 603c 6fdc f0bc 495c babd
00000030: 3579 6bbc f53a 893b ff8e 95bc a585 13bc
00000040: f464 70bd 6846 38ba 174c 72bd 95f4 a3bd
00000050: 9011 b4bd 626e e5bc f3d9 59bd 58c9 adbc
00000060: 3c05 aebc a81a 9dbd 3de1 07be cc52 49bd
00000070: 62fd 91bc 95ad e338 2152 06be 5476 073d
00000080: 444d 373d 3078 9f39 137c 503a 6c1a 4abc
00000090: fd05 4dbd 64ba 813d 9527 8c3d b028 74bc
000000a0: a5b5 7bbc 98f6 243d 4d10 bd3d d51b 373d
000000b0: 7d45 103c faa0 253c d3bd 6e3d 394f 453c
000000c0: 559b 613d bf27 9a3d d175 893c 08d5 96bd
000000d0: 5923 8b3d a190 943d b3af ef3c 3780 57b9
000000e0: 2d19 d9bd 2b21 3a3d 8f95 a0bc dd3b e9bc
000000f0: 9730 243d 45a0 c33d 83e8 b9bd 9c3b 6a3d
00000100: ae9d 83bd f206 51bc 824a 983d 534a adbd
00000110: 89f4 373d e823 bf3c 432e 0dbd 524a 943d
00000120: 5624 21bd 2e27 94bc fbf7 e2bb 3c80 683d
00000130: 0f93 b43d 6094 21bc 52a6 723b 93b7 793d
00000140: d559 d7bb d107 46bc 9607 c7bd ed02 2dbe
00000150: 16ed 3b3d f67d 11bd d31a 143d 85f8 793d
00000160: c85e 53be 4c5f c63c 77aa 213b b56e 863c
00000170: 9d4f 0b3d 7ae6 463c 8e6a afbd 459b 103d
00000180: 9a6e 98bc dd29 093d 057c 7f3c 6060 0fbd
00000190: 04d5 a6bc 23fe 24bc adbc 1bbd 9d5e 043e
000001a0: 883f 80bd 57f5 51b9 e674 11bd 633e 2e3c
000001b0: cec8 0dbd 7c28 bdbc 3f28 ba3b 6f78 493b
000001c0: 9a7e 2a3d eb95 91bd 1b09 14bd 73c9 3a3d
000001d0: f378 1b3b 3492 d5bd 751d b83b 24b9 b8bd
000001e0: de30 9abd e9f1 be3d aa37 8d3d 762b 9d3d
000001f0: d368 8fbd d7ac 48bd f1e9 43be c89b d0bd
00000200: 7b79 6fbb 4047 73bc a1f9 5a3c fd09 80bd
00000210: eb4f 2b3d 86b9 d3bc 7796 90bd ff83 20bd
00000220: 4724 a5bd 971e 2dbc c2ff 8fbd 9357 1339
00000230: 0ef2 483b 3a0b b9b7 12be 10bd c588 b2bd
00000240: 3872 2dbd a0d3 cb3c d48a dbbc 4221 533c
00000250: e7d1 ddbd 5d34 27bd e630 d4bc 5387 12bd
00000260: 2dc7 80bd 76be 7e3d 66ca cbbd 6729 433b
00000270: 2974 7e3b ebb1 c1bb f138 82bd 0634 5b3d
00000280: 082f 16bd 1479 a93d cc53 8b3b bdb1 97bd
00000290: 2370 8dbd ec64 9ebd 7c27 24be 4f2c 04be
000002a0: eb47 b0bd cc39 a5bc 8001 bfbd a3fe d83d
000002b0: 3192 7039 1751 aebb 3436 e93b 2ee8 a73b
000002c0: c6da 24bd b5a2 88bc 58a8 c8bc 3614 6fbc
000002d0: 7d97 ca3d fe7b 613d 3b2e c7bc 75f6 45bd
000002e0: 3eb4 38be a102 1dbd 62c4 62bd be1d 7c3b
000002f0: bc6d 6abd 3614 2c3d c482 1fbe d5e8 90bd
00000300: 5d85 e23d 7caa a23d b80e 853d a13e c33d
00000310: e8a4 8dbd 18f1 433d 95f8 d3bc 767b dcbd
00000320: b025 87be c49f 773d 17c1 eebc f998 353d
00000330: 5bb3 093d 24e8 88bd 0726 01bd bb03 ebbd
00000340: e1a1 263d 9251 913c 7fd5 a9bd 6084 ddbd
00000350: 76dc a7bc ec43 37bc c816 af3c ac4a e73b
00000360: 7065 f9bd d519 a1bd 2a9a 34bd 6622 34bb
00000370: a85d 473c 2ea9 b73c bd37 6bbd 67df bebd
00000380: ec33 b33c 377f 8b3d caed 6e3d c368 823d
00000390: 3506 0fbc 887a 9e3c 7c07 a6bc 6648 473c
000003a0: 5cf2 163d 5681 65bc 6505 553d 1747 30bd
000003b0: ee34 103d 57a1 8c3c ae23 843d b302 f33c
000003c0: bc7c 97bc a8a9 873d 46da 4b3d 3452 f9bd
000003d0: 62b5 aebc fe52 ac3c f2c3 e23d e46a 7e3d
000003e0: 0972 01be 207d 9abd 2984 b83c 3a11 6cbd
000003f0: 07a8 c7bd 41f2 8a3d bdf5 4c3d 5c24 bebc
-0.084315546 0.017469447 -0.069938704 -0.047465805 -0.00015719862 -0.025176514 -0.16322422 -0.059357103
-0.12534875 0.013692582 -0.029401986 -0.09099633 -0.01437216 0.0041879364 -0.018256662 -0.009004031
-0.058690026 -0.00070295343 -0.059154596 -0.08005635 -0.08792412 -0.028006736 -0.05318637 -0.021214172
-0.02124273 -0.076711 -0.13269515 -0.049151227 -0.017821018 0.00010856536 -0.13117267 0.03307183
0.04475142 0.0003041639 0.0007953059 -0.012335401 -0.05005454 0.06334379 0.06843487 -0.014902279
-0.015363132 0.040274233 0.09231625 0.044704277 0.00880563 0.010109181 0.0582865 0.012042814
0.055079777 0.07527112 0.016779812 -0.07364851 0.067938514 0.07254148 0.029258585 -0.00020551762
-0.10600505 0.045441788 -0.019602565 -0.028470928 0.0400854 0.09552053 -0.09077551 0.057185754
-0.064265594 -0.012758004 0.07436086 -0.08461442 0.04491094 0.023332551 -0.034467947 0.07240738
-0.039341293 -0.018085089 -0.006926534 0.05676292 0.08817112 -0.0098620355 0.0037025404 0.060966086
-0.006571988 -0.0120868245 -0.09718244 -0.16895647 0.0458804 -0.035520516 0.036158394 0.061028022
-0.20641625 0.024215363 0.0024668255 0.016410211 0.034011472 0.012139911 -0.085652456 0.035304327
-0.018607426 0.03348719 0.015593533 -0.03500402 -0.020365246 -0.010070357 -0.038021732 0.12926717
-0.062621176 -0.0002002319 -0.035511874 0.010634991 -0.03461533 -0.023090594 0.0056810672 0.003074195
0.041624643 -0.07108673 -0.036141496 0.045602273 0.0023723214 -0.10428277 0.005618746 -0.09019688
-0.07528852 0.093234845 0.06895383 0.07674305 -0.070024155 -0.048992958 -0.1913221 -0.10185963
-0.0036540914 -0.01484853 0.01336518 -0.06251905 0.041824263 -0.0258453 -0.07059949 -0.03918838
-0.0806356 -0.010566375 -0.07031204 0.00014051636 0.0030661854 -2.2058946e-05 -0.035337515 -0.08717493
-0.042345256 0.024881184 -0.026799597 0.012886347 -0.10831051 -0.040821422 -0.025902223 -0.035773586
-0.0628799 0.062193356 -0.09950714 0.0029779316 0.003882656 -0.005911102 -0.06358517 0.05351641
-0.036665946 0.08275047 0.0042519327 -0.07406948 -0.06906154 -0.07734093 -0.16030687 -0.12907527
-0.08607467 -0.020169161 -0.09326458 0.10595443 0.00022942644 -0.0053197253 0.007117057 0.0051241135
-0.0402477 -0.016679147 -0.024494335 -0.014592221 0.09892175 0.05504989 -0.024314037 -0.048330743
-0.18037507 -0.038332585 -0.055363066 0.0038469876 -0.057233557 0.042011462 -0.15577227 -0.07075659
0.11060593 0.079426736 0.06496948 0.0953343 -0.06916219 0.047837347 -0.02587537 -0.10765736
-0.2639594 0.0604551 -0.029144807 0.04433534 0.033618312 -0.06684902 -0.031530406 -0.11475321
0.040681724 0.017739091 -0.08292674 -0.10816264 -0.020490866 -0.011185627 0.021373168 0.007058462
-0.12177551 -0.07866255 -0.044092335 -0.0027486323 0.0121683255 0.022419538 -0.057426203 -0.09319954
0.021875344 0.06811374 0.058332242 0.06367638 -0.008729507 0.019345537 -0.02026724 0.012163257
0.036852226 -0.014007887 0.052007098 -0.043036547 0.035206728 0.017166777 0.06452118 0.029664373
-0.018492095 0.06624156 0.04976871 -0.12173882 -0.021326724 0.021035668 0.1107253 0.062113658
-0.12641157 -0.07543397 0.022523956 -0.057633616 -0.097488455 0.067844875 0.05003904 -0.023210697

final_lin_layers.1.bias f4 [32]
00000000: 2037 4e3b 8b9f 6abc bcc6 a9bb 1952 5dbb
00000010: b7ea fd3a 7a92 103b 113d 4a3c 593e 023c
00000020: 66d6 80bc 34dc 313b 349d 523b 6cc3 d2bc
00000030: bfee 60bc c713 71bc 4f3d 7e3b 1cf9 91bc
00000040: a892 7abc b4e2 0cbc 518f bebb 5a2d 8cbc
00000050: adfc 30bc 2524 293c 12e4 1fbb 58b5 88bc
00000060: 27a7 9dbb 2057 04bd b744 ecba 4ae5 873c
00000070: c387 d1bb 5cb4 6f3b 9a2d 8abc 5d16 29ba
0.0031465963 -0.014320265 -0.0051811617 -0.0033770858 0.0019372319 0.0022059963 0.012343661 0.007949435
-0.015727233 0.0027139308 0.0032137157 -0.02572795 -0.0137287965 -0.014714188 0.0038793867 -0.01781898
-0.015293755 -0.008598972 -0.0058154245 -0.017111469 -0.01080243 0.010323559 -0.0024397415 -0.016688034
-0.004811186 -0.03230965 -0.001802585 0.016588826 -0.006394358 0.0036576008 -0.016867448 -0.0006450171

final_lin_layers.2.weight f4 [1, 32]
00000000: 152e 0a3c 6a7c 74bc 9db7 bbbb 5d32 4e3b
00000010: 0eef 633c 8f4a 153c afac 243a 3215 61bc
00000020: 5d37 97bc 336a db3b 9601 b63b a5e9 04bc
00000030: 40c2 a23b a79b 15bc a3d6 ba3c 4314 6dbc
00000040: a089 94bc 21af 5abc 3cf0 72bc 521b adbb
00000050: 5a8e 88bc bc78 223b 4a6c 62bc dcd8 20bc
00000060: cb5a 7cbc 7b2a 9b3c 9f62 d63c 564c af3c
00000070: b0ad 87bb 82d3 3cbc 9e95 48bc 29de cfba
0.008433838 -0.014922241 -0.0057286755 0.0031463124 0.013911976 0.009112014 0.00062818354 -0.0137379635
-0.018459016 0.0066960095 0.0055543883 -0.008112346 0.004967004 -0.009131349 0.022807425 -0.014470163
-0.018132031 -0.013347418 -0.014827784 -0.005282798 -0.016669441 0.0024791202 -0.013819763 -0.009817328
-0.015402506 0.018941155 0.026170073 0.021398704 -0.004140578 -0.011525037 -0.012242703 -0.0015859056

convs.0.bias f4 [32]
00000000: f515 853e 4685 22be d41a 353e 0611 18bd
00000010: ce69 c4bd 7255 5ebe 953b 843e 1fa3 543e
00000020: f9cc 713e 88e8 023f 1c64 963e 8e1f 7f3f
00000030: 0eff 7f3e 56dc 333e e2b0 ac3d 2397 7cbe
00000040: fb99 a83e 89e8 d5bd 747f d3bd a1b8 6d3e
00000050: c9e0 c6bd 553d c03d d517 353f 473c 8e3a
00000060: 8fa3 553e c023 0abe 0079 083e b6d4 24be
00000070: 1251 0a3e 9b8f 9b3d c3be 5c3e 7630 00be
0.25993314 -0.15871152 0.17686015 -0.03712561 -0.09590493 -0.21712282 0.25826707 0.20765351
0.23613347 0.51136065 0.29373252 0.99657524 0.2499964 0.1756452 0.08432175 -0.24667029
0.32929978 -0.10444743 -0.10327044 0.23214962 -0.09710843 0.09386698 0.7073949 0.0010851704
0.20863174 -0.134902 0.13327408 -0.16096768 0.13507488 0.0759575 0.21557145 -0.12518486
