checkpoints/checkpoints_homogeneous_biomarker_vessel_graph/DCP_model_1_BVD_n4psptec.pt (torch, 48910 bytes, 21 tensors)

pre_processing_lin_layers.0.weight f4 [32, 15]
00000000: e270 103e 90f0 7abd cd5f 71be 2aaf 393e
00000010: f3c0 1ebd b888 02bc c980 40be 350f 88be
00000020: 472f 11be 103b 46bc fff8 9abd fac8 47be
00000030: c75d 95bc 7827 1b3d 50e6 01be fe40 3dbd
00000040: 787d 0abd c6af ea3d 315a 62bc 7780 353d
00000050: 8645 c43d b6cb 3a3e 9d5b 183e d122 1b3e
00000060: a7ef 643b 71e5 403e e335 673d c3a1 b6bd
00000070: 195f c1bc 55c9 033e 4816 adbe 4b51 003d
00000080: 4ca9 32bf f194 e7bd d36d 553e ec53 0bbe
00000090: c778 98be c7d9 c73d 538e 113d 0585 87bd
000000a0: 029f d53d a2b5 d63c 8205 95bd d3e4 0a3e
000000b0: 2752 b53e 900c 24bd 89c8 9dbe 7673 3ebf
000000c0: 6681 a5be 39bc 993d 8470 f83c 085a a6be
000000d0: 6bfd 993c a9ff 453e 2a20 7bbd f85f 02bd
000000e0: fe53 533b 9dad 84bc 9ab7 623e d3ed c73e
000000f0: b74b dbbc 229e 823d 9ffc 503e a862 1e3e
00000100: 217b 2b3e 1699 f1bd 3c60 263d ecfc 6a3d
00000110: 45ce 2bbe 1028 f5bd 8c97 dc3d 4ce2 79bd
00000120: 6809 693e 81e3 0f3d 335b be3c 1675 6d3d
00000130: 938e 943c 445c 0bbf fca0 91bd 909a 05be
00000140: f6e1 2d3e 7b21 75bd 220e acbc 67c2 fa3d
00000150: 6ecd 92bd 2d87 5d3e aabd a13e 2183 11be
00000160: b49e 703e 436f ab3d 6957 853e 3b78 a93e
00000170: f3fc 92be c50e 283e 6634 98bd ca5b 44be
00000180: f2fc 94bd b4a6 d13c c207 95bd eda0 f3bb
00000190: 4ffd a43d a463 24be 15cb 513d 9237 e03d
000001a0: 4bae 0dbe fd81 b13d c89b 2d3e 15ee 2b3d
000001b0: 08cc 203e ee85 353d 447f 10be b21b efbd
000001c0: 6400 62be 9693 16be a165 7cbd 3ed6 0fbe
000001d0: cedb 5a3d 9702 0f3e 75ae 15be bbf3 5cbc
000001e0: 0fed 32bd 0515 06bc e952 07bf f5b8 65bd
000001f0: 0198 b23c 8024 f63b 53b8 1f3e f9da 843d
00000200: 11c5 0e3e ce42 cbbd c42b 5c3e 2661 923e
00000210: b801 f53d 8c17 573e 4570 893e 7653 a2be
00000220: 4a52 ecbd 3afc f1be f4cf 80be 38d4 4e3d
00000230: 88ac a23c df58 e9be da0c 393e cf25 1a3e
00000240: 6f91 15be ec10 68be 6f3e 9a3b 0f8d 84be
00000250: 20b1 033e 49f5 ed3d 00aa aebe 7d58 6cbe
00000260: c4ee 27be de51 c8bd 15de 063e 69cb 2cbe
00000270: c903 a3be 9950 553d d4d0 10bd 1153 82be
00000280: 4fd8 d13d 6283 02bd 04b5 00bc a3a7 9dbc
00000290: 6629 e23e 8d73 853d 5221 fcbd c9e6 083e
000002a0: a23e dc3b 0036 26be 9c4c 13be d624 c23e
000002b0: 6ca8 49bc f4bf 43be b96d 69bd b66d 74be
000002c0: 68a8 2cbe 61a5 3e3e 74fa 2fbd edbe 83be
000002d0: c469 fabd 23ed b93d 3fc6 b5be f33e cd3d
000002e0: d27e 183e 2968 8dbd c957 b33d 5bdb fabd
000002f0: 0f22 92be d068 743d 421c 59be 2e26 223e
00000300: 42a2 2f3e 1f43 b23e c5aa 863e 582c 07be
00000310: 63b8 97be 42d8 4cbf 587e 42be c69f 743e
00000320: d951 613e 6d15 cbbd dab1 4c3c c08b 903e
00000330: 545d 21be 3ade 243e 771c d43d 56ee 73bd
00000340: e5a5 b23d f95f 933b 0cc9 09be 046e 83be
00000350: c171 53bf 6ba5 2abe 64cf 0d3c fb14 543d
00000360: 8f8a f6bd 48b2 d5bd 550e 603e bf61 f03c
00000370: 9d25 7e3d 2744 933e 83b4 073c 62a2 f13d
00000380: b11b 7d3e f1c9 edbd 4e1b f33d 4e2b 563e
00000390: 02bb 65bd 0614 14be f97a 033d 44dd 943e
000003a0: b91d 9dbd aefc cebd 8653 1dbe cfeb d1bd
000003b0: beea 8bbe 8c96 88bd 4b9e d93c 7d60 98be
000003c0: 795a 8cbe 9e34 0abd 45fd a1be 5171 75be
000003d0: b7bc 573e 963e 97bd fabf 9e3e 6425 a33d
000003e0: 22ad ca3d c821 01bf 28c5 423d 3afa 363e
000003f0: 1f8b ff3d 3c36 f2bc c945 b03d 366f 1fbe
0.14105561 -0.061264575 -0.23571701 0.18133226 -0.03875823 -0.007967167 -0.18799128 -0.26574102
-0.14178191 -0.012099043 -0.075670235 -0.1951026 -0.018233193 0.037879437 -0.12685513 -0.04620456
-0.033811063 0.114593074 -0.013815449 0.044311967 0.09583573 0.18241772 0.14878698 0.1515
0.0034932883 0.18837525 0.056447875 -0.08917572 -0.023604916 0.12869771 -0.33806062 0.031327527
-0.69789577 -0.11307705 0.20842676 -0.13606232 -0.29779646 0.097583346 0.03553612 -0.06617168
0.10430719 0.026209656 -0.07276441 0.13563852 0.3541424 -0.040051043 -0.3081706 -0.7439493
-0.32325286 0.07506604 0.03032709 -0.32490563 0.018797597 0.19335808 -0.06130997 -0.031829804
0.0032246108 -0.016196067 0.22140351 0.39048633 -0.026769502 0.06377818 0.20408867 0.15467322
0.16746189 -0.11796777 0.04061912 0.05737011 -0.16777904 -0.11970532 0.10771093 -0.06100683
0.22757494 0.035129074 0.023236847 0.05797299 0.018134391 -0.5443766 -0.071107835 -0.13047242
0.16980729 -0.059846383 -0.021002833 0.122441106 -0.07168089 0.21633597 0.31590015 -0.14210178
0.2349804 0.08370831 0.2604325 0.3309954 -0.2870861 0.16411884 -0.07431869 -0.1917564
-0.07274808 0.025592186 -0.0727687 -0.0074349553 0.08056127 -0.16053635 0.051219065 0.10948099
-0.13836019 0.086673714 0.16953957 0.0419751 0.15702832 0.04431718 -0.14111048 -0.11675204
-0.22070462 -0.14704737 -0.06162036 -0.1404657 0.05343228 0.13965832 -0.14617331 -0.013485844
-0.043683108 -0.008183722 -0.52860886 -0.056084592 0.021800997 0.0075116754 0.15597658 0.06487078
0.13942362 -0.09924851 0.2150107 0.28589743 0.119632185 0.21005076 0.26843467 -0.317043
-0.11539133 -0.47262746 -0.25158656 0.050495356 0.01985766 -0.45575616 0.18071309 0.15053485
-0.1460626 -0.22662705 0.0047071497 -0.2588887 0.12860537 0.1161905 -0.34114075 -0.2308063
-0.16399676 -0.0978124 0.13170655 -0.1687447 -0.31838825 0.052078817 -0.035355404 -0.25454
0.10246336 -0.031863578 -0.0078556575 -0.019244974 0.4417221 0.0651618 -0.12311043 0.13369288
0.0067213336 -0.16231537 -0.14384693 0.3791873 -0.012308221 -0.19116193 -0.056989405 -0.23869976
-0.16861117 0.18617775 -0.04296346 -0.25731602 -0.122272044 0.09078433 -0.35502812 0.10021772
0.14892128 -0.069046326 0.08756978 -0.1224887 -0.2854161 0.05967027 -0.21202186 0.15834877
0.1715174 0.34816834 0.26302162 -0.1320051 -0.29632863 -0.80017483 -0.18993509 0.23889074
0.22003879 -0.09916196 0.012493575 0.2823162 -0.15758258 0.16100398 0.10356992 -0.059553467
0.08723048 0.004497525 -0.134556 -0.25669873 -0.8259545 -0.16664664 0.008655403 0.05177782
-0.12038147 -0.10434395 0.21880467 0.029343484 0.06204759 0.28762934 0.008282783 0.1179855
0.24717595 -0.11610783 0.11870442 0.20914957 -0.056086548 -0.14460763 0.032099698 0.29075062
-0.07671685 -0.101067886 -0.15363893 -0.10250055 -0.27327532 -0.066693395 0.026564738 -0.29761115
-0.27412775 -0.033741586 -0.31638542 -0.23969008 0.21068083 -0.07384984 0.31005841 0.07966116
0.09896304 -0.5044217 0.047551304 0.17868891 0.12477707 -0.029566877 0.086070605 -0.15569767

pre_processing_lin_layers.0.bias f4 [32]
00000000: 9f12 47be 8993 98bc 6119 023d 30e5 e93c
00000010: 9749 12be 0fb3 b23c 03dd 33be 1e5c 4ebe
00000020: 66e5 d23d 894c 7d3c 8f86 543c 72bb 03be
00000030: d814 63bd 0f53 013e b86a 8f3d 4add 21be
00000040: af0c 2d3e a1a9 903d a0bd 853c 3e95 71bc
00000050: 60d3 bcb9 f345 c0bd afc4 7dbd f982 abbd
00000060: 7796 d03d 3888 e4bd fa5d bf3d 8092 9bbd
00000070: 0e07 393d 2fc3 873c 3823 4cbe 3ab7 fabd
-0.19440697 -0.018625038 0.031762484 0.028551668 -0.14285885 0.021813897 -0.17564778 -0.20152327
0.102976605 0.015460142 0.012971534 -0.12864473 -0.0554398 0.1262934 0.07002777 -0.15807071
0.1689937 0.07063604 0.016325772 -0.014745055 -0.0003601564 -0.09388342 -0.06195515 -0.083745904
0.10184949 -0.11158794 0.093440965 -0.07596302 0.045172743 0.016572563 -0.1993531 -0.12241979

pre_processing_lin_layers.1.weight f4 [32, 32]
00000000: 4bb2 153e 73ea bdbd 37f9 bd3c 602c 30bd
00000010: d502 493d 9459 1e3d 74f3 223e 3755 393e
00000020: 0dfe 46be 2c93 f03c ac96 0abe b606 c43d
00000030: d482 9c3d 32c5 133c 9ce6 963c 8187 f6bc
00000040: 2fab 4fbd 2bf3 273d c578 8cbd 0835 00be
00000050: 6e85 0d3c ec0e 37bd dbb8 04be 12a2 8e3d
00000060: 8988 53be 3ba0 f43c f624 60be 0dad cc3d
00000070: 7b25 94be 1f88 49be 48a8 863d 5f4f f7bc
00000080: 1813 893d a199 a5bd ca55 0dbd e2e3 bd3d
00000090: e0c6 cabd 6073 fa3d 6caf 51bd 5d35 bfbd
000000a0: 7888 e33d c501 2fbe a6bf 80be 334e e33c
000000b0: a8ae e6bd 30b1 263d 5ecd 453e e770 8bbd
000000c0: 217c c7bd d47b e33d 3e8a b9bc 8cb7 1bbe
000000d0: ee70 193d 648e b7bc 5958 5f3e a37a 0d3e
000000e0: 30c6 08be c167 3d3e d0e7 33be c9ed 19bd
000000f0: 8884 c7bd 0b3a cc3b e79c 0c3e 55dd 11be
00000100: a1b3 78bd b5f6 913d 35fe 903d 0edd 2d3b
00000110: 4bf4 8d3b 6114 013e 4eab f6bd ea46 9bbd
00000120: 2cea d0b9 0be8 d4bd 4ea4 293e 7b55 d4bd
00000130: ccb4 823c 214f 08bd 5c36 f63d d9e1 a93c
00000140: ad3f 86bd db0c 293c d2f4 073e dc00 483e
00000150: 34e8 47bd b4dd 35bd 9150 d9bd 339b 87bd
00000160: b755 d1bd b137 6f3e 4066 143e 296f 99bc
00000170: 078c 5fbd fa76 5c3d 26c4 e73c 3ddd 673e
00000180: 7a01 18be 6756 9a3e 90b4 4dbd 7379 1b3c
00000190: 969a 0dbe 73a8 f9bd e37d ddbc 6811 a6bd
000001a0: 8a50 6ebc e99c 653d c6a4 92bd cadd 98bc
000001b0: 666d 40bb 17a0 a03d 87d6 9d3d 8f8e c9bd
000001c0: 56ca 1f3e e95c 41bd 9d73 cdbd bee4 8bbd
000001d0: e83b 7f3d 97f0 a6bc fb77 a43e d2a5 a1bd
000001e0: 23fd 093d 1bbb 0dbd b7e3 b9bc 00ce debd
000001f0: 075d c6bd 0f1d 0a3e a142 34be 815d 60bc
00000200: cdab c43d 7389 efbc 3424 0a3d f11f 1f3e
00000210: 3329 dfbd 2ffc 1abb a55a 81be ffe4 58bd
00000220: e619 553e 3323 8abd 7b98 f43d d814 363d
00000230: 593b a23d 5204 3d3e 73b3 a93d 75f6 c1bc
00000240: f93d 12bd d1a5 363e a756 ed3d 6a20 6f3d
00000250: 4971 8dbd a3fb 1cbd 45bb 50be 0a07 123d
00000260: 7792 433d d59c 773e ce67 8e3d 9eb1 493b
00000270: 5c0b 41bd dc6b 24bd 6bc5 cebd 83ac 55bd
00000280: 0f7b 0d3d 675b 343d 15d4 da3d 9563 543d
00000290: 7873 b0bd 4dd2 023d b697 df3b 56ad 8abc
000002a0: 332e 1b3d 0d27 0dbe 1715 c53d 16c4 ac3d
000002b0: 31de 433d 208c edbc c5c3 c6bd a7a6 18bc
000002c0: c934 d63c 2947 eebd 1141 0bbe 1bd4 9b3d
000002d0: e8e0 a83d 27e1 743b 876d a93d 63db 28bd
000002e0: d585 debd a9a3 b0bd 7593 8abb d45d 0ebe
000002f0: 2a6b 66be 02f9 d33d 1434 0abe 5211 6bbc
00000300: b12f 443c e590 c4bb c102 213e a9d6 d43d
00000310: 2634 a0ba f88d ba3d 044b 2b3e 0221 8f3d
00000320: e4f8 00bd 024b 2c3d c634 c4bd 9f1f 593d
00000330: fdb5 ef3d 9601 a7bd 952e d63d df87 d0bd
00000340: 2dd7 08be 3d4e 233d 3fce 883e b702 813e
00000350: 7533 843d e94a d93b 3485 53bd 3157 ba3d
00000360: 203f 1fbd 77a9 943c 0c7b c3bd 7d43 b63c
00000370: b3d4 ed3d 4ec0 e6bd d4ce 043e a60f e83d
00000380: 7a1c dabd 3064 a03c 06b5 3bbe 608f 56bd
00000390: c0be 5ebd e204 fabd 9d6a 41be 0655 9b3c
000003a0: d929 cbbd 3283 12be 23e1 1c3e 65e8 08bd
000003b0: 72c1 67bd 631a 09be bcb3 e43d 0915 a33d
000003c0: f886 84bc 3694 74bd 315f 463d a1af 09bd
000003d0: 74fd 1a3c df1d 053c 0c40 02be ad1b d13d
000003e0: f73b 7f3d 9cb6 bd3d 7274 2c3e e021 5bbe
000003f0: 178e 0c3d 1002 ae3d 5cb3 483d 47c9 313e
0.14618795 -0.09273233 0.023190124 -0.04301107 0.049074966 0.038659647 0.15913182 0.18098913
-0.1943285 0.029367052 -0.1353404 0.095715925 0.07642141 0.009019183 0.01842051 -0.03009391
-0.050700363 0.041003387 -0.068589725 -0.1252023 0.008637769 -0.044691965 -0.12961142 0.06964506
-0.20657553 0.02986156 -0.218891 0.09993944 -0.28934845 -0.19680832 0.06575066 -0.030189214
0.06693095 -0.08085943 -0.034505643 0.09271981 -0.09901214 0.12229037 -0.051192686 -0.0933635
0.11110014 -0.17090519 -0.25146216 0.02774725 -0.11263782 0.040696323 0.19316623 -0.06808644
-0.097404726 0.11107603 -0.022648927 -0.15206736 0.037461214 -0.022406764 0.21811046 0.13816313
-0.13356853 0.1849661 -0.17568898 -0.037580285 -0.09742075 0.006232505 0.13731728 -0.14244588
-0.060718182 0.07127134 0.07079736 0.0026529464 0.0043321005 0.1260543 -0.120443925 -0.07581885
-0.00039847323 -0.10395821 0.16566584 -0.103678666 0.015955351 -0.03327859 0.12022087 0.020737575
-0.06555114 0.010318006 0.13276985 0.19531578 -0.04880543 -0.044400886 -0.1061107 -0.06621399
-0.10221427 0.23361088 0.1449213 -0.018729763 -0.0545769 0.053824402 0.028291773 0.2264299
-0.14844313 0.30144045 -0.050221026 0.009489405 -0.13828501 -0.12190332 -0.027037567 -0.08108789
-0.014545569 0.056057844 -0.07160334 -0.018660445 -0.0029362082 0.07843035 0.077069335 -0.09841644
0.15604529 -0.047207747 -0.10031817 -0.068307385 0.06231299 -0.020378394 0.32122788 -0.07892956
0.033688676 -0.034602266 -0.02269159 -0.10879135 -0.09685712 0.13487647 -0.17603542 -0.013694168
0.09603081 -0.029240346 0.033725932 0.15539528 -0.1089653 -0.0023648848 -0.2526447 -0.052952763
0.2081066 -0.06744995 0.11943146 0.044453472 0.07921476 0.1845868 0.0828618 -0.02367709
-0.035703633 0.17836691 0.11588793 0.05838052 -0.06906373 -0.038325917 -0.20383938 0.035651244
0.0477471 0.2418092 0.06953393 0.0030776034 -0.047129974 -0.040141925 -0.10096248 -0.052166473
0.034541186 0.04403248 0.10684983 0.05185278 -0.08615774 0.03193884 0.0068235053 -0.016928356
0.037885856 -0.13784428 0.09623163 0.08435838 0.04781932 -0.02899748 -0.09705309 -0.009317077
0.026148217 -0.116346665 -0.1359904 0.07608815 0.082460225 0.0037365647 0.08272844 -0.04122485
-0.1086537 -0.08624966 -0.004229004 -0.1390298 -0.22501817 0.10350229 -0.13496429 -0.014347391
0.011974261 -0.005998718 0.15723707 0.10392506 -0.0012222573 0.0910911 0.16727835 0.069887176
-0.03148736 0.04206372 -0.09580378 0.05300867 0.117046334 -0.08154599 0.104581036 -0.10182165
-0.13363333 0.039869536 0.26719853 0.25197384 0.06455127 0.0066312444 -0.051640704 0.09098662
-0.03887856 0.018147213 -0.09544954 0.022248978 0.11612835 -0.11267148 0.12969524 0.1133111
-0.10649963 0.019579023 -0.18330774 -0.052382827 -0.054381132 -0.122079626 -0.18888326 0.01896144
-0.09920091 -0.1430786 0.15320258 -0.033424754 -0.05658097 -0.13388972 0.11167094 0.079629965
-0.01617764 -0.059711657 0.048430625 -0.03361476 0.009459842 0.008124798 -0.12719744 0.10210357
0.062313046 0.092633456 0.16841295 -0.21399641 0.034315195 0.08496487 0.048999175 0.17361937

pre_processing_lin_layers.1.bias f4 [32]
00000000: fd68 293d 9ca8 b0bd d252 ce3c 92d6 8fbd
00000010: d453 50bc e38a fcbb 9b10 8d3d bf0c 123c
00000020: 3c0d 75bd 95ca 323d d0ff 4c3d 2f5f 593d
00000030: ce17 993c a510 a8bd f7f3 ecbc 0b1d d6bc
00000040: 592e bbbc d37f 35bd 81f9 6a3d 56f2 aabd
00000050: d181 8c3c a1e3 f93b 2226 4c3d e3d8 153d
00000060: 78d2 123c 76f3 193d 1403 3fbd 95ea 99bd
00000070: a54d 7f3d ead9 aa3c 926a c03c a0cd 80bd
0.04135989 -0.0862591 0.025185976 -0.07023348 -0.012715299 -0.0077069863 0.06887933 0.008914172
-0.059827074 0.04365023 0.05004865 0.05306929 0.018688109 -0.082063 -0.028924925 -0.026136896
-0.022849249 -0.044311356 0.05736685 -0.08347003 0.017151745 0.0076260124 0.049841054 0.036583792
0.0089613125 0.037585698 -0.046633795 -0.07515446 0.062329907 0.020855863 0.023488317 -0.0628922

post_processing_lin_layers.0.weight f4 [32, 32]
00000000: 6833 093d f7b1 11bd d09b fa3d 5bca bd3d
00000010: aa1a 4f3d 3328 4dbd 802b 3bbe 6e23 ce3d
00000020: 7f1a ab3b 02ff 2a3d 5574 b73d 335a 8abd
00000030: 243b b53d 49f1 ee3c 184b af3c bef0 533c
00000040: a989 04be 8b31 fa3d 3328 763d 666e a83c
00000050: e891 e33c f920 ccbd dab3 96bd 948e 22bd
00000060: 73bb a6bb 9868 203c 67c0 923d 7c99 243d
00000070: 2839 033e 91af cfbd 0cca 293d 0452 073d
00000080: 261d febd 89b6 95bd 725b 50bc 3909 2d3e
00000090: 336e 383d db5d 41bd df7c 943c 1b64 8dbd
000000a0: 8283 923d d61d 053e 3fa7 8ebd e551 c7bd
000000b0: 9df8 1cbd d9ee c0bd 5696 7b3d c028 e23d
000000c0: 2d24 8fbd 8d2a e53b f368 6f3c 3099 bcba
000000d0: 3798 f1bd 11f8 7abd ffb3 4fbc b69b a43d
000000e0: 35e9 973c b95a 74bd eda6 873c df65 c63d
000000f0: eca0 b73d 6a4f c63d ce7d 05be cba6 f53d
00000100: 8a76 28bd f754 2cbd efb8 06bd 117e 0ebe
00000110: f98d be3c 3819 7a3d 139b 373d 1c6a d2bd
00000120: fe16 fcbc 85e4 90bd 6ace b6bd d6c9 a73b
00000130: d131 cbbc be23 ec3c 0818 34be d496 0ebe
00000140: 08fc bebd cec6 d43d e990 383c e2ea 0f3e
00000150: 7cff 243e 5455 3d3c 1ae1 e2bc 04dd e3bb
00000160: f33a 3b3e 2c26 173e 7671 6e3c 82e1 ef3c
00000170: 26fa cdbc 5c57 fe3c 14b7 e53d 95ff ae3d
00000180: 557e 31bd da6a 013d a33a 8ebd cbae bcbd
00000190: 5330 51bd 9442 f63d 913e 523d a2e1 333d
000001a0: 9b68 823d 4699 16bd df91 113e 6219 773d
000001b0: 12f2 8cbd 9d86 f5bb e45d 58bd 534f 773d
000001c0: 21b4 12bd 769b 10bd fdee 1b3c b1e4 a0bd
000001d0: 8cda 87b9 6d7b 343e 17b4 7ebc d07d 903d
000001e0: 4b6e b6bd 9b57 0c3e d8ca b2bc da87 f2bd
000001f0: b7db 14bd 28e6 a53c deec 2c3e 9b51 64bc
00000200: ef26 f73d 3364 c23d 03dd c33d 6405 ef3d
00000210: 79fe ae3d be00 c9bd 2992 3fbe c7f0 c03d
00000220: 38ac 3d3d 84e1 10bc f138 9b3d 3737 9838
00000230: ffb2 0a3e aead 7c3d e4d8 81bd 6a1a b8bd
00000240: 241a 303d bf78 313d e23e 253c 045d 03bd
00000250: 4caa 29bd 1eb7 423d 113d 6cbd df5f a7bd
00000260: d000 a4bd 977b 8f3d ea56 983c 62d0 363a
00000270: 3329 693d a336 533d 9167 cf39 3b47 a73c
00000280: bbac 223e 0041 943d e296 1f3d 9a82 30bd
00000290: 8f0e 913d c9be 5e3d a3b9 0e3d 2503 ad3d
000002a0: f7f5 a3bd 9453 bcbd 197f 493e a1b1 0a3e
000002b0: 2e62 303e f553 213e 8622 593e 6cac ff3d
000002c0: 14db f33d 7458 e3bc 3ac8 253e 4ddc de3d
000002d0: ee1d 36bd 7b53 67bb 96e9 ef3d 8d45 30bd
000002e0: 2b7b 833d 3b0f 28bd abd0 dbbc f7a0 073e
000002f0: 8508 6e3d 91e0 acbb c0a7 d53d 4d45 88bd
00000300: aced 243e 0fd5 ed3d a86a 8b3d dbe1 bfbd
00000310: f146 e33c 7470 5cbe 9ba9 04bd 3898 1cbd
00000320: 1307 82bc 5c9e 0c3e 094f b13d 06d6 003e
00000330: b03d 2bbd 4fea 273e 47fd afbd 0ab9 c83c
00000340: 74f8 4bbd 5161 37be 2d06 8337 81be 5a3d
00000350: 7b8a c53d c29a d33d 09e9 7d3d bac1 5dbd
00000360: 4fdb 9e3b 7a90 8b3d a926 1f3e 4148 843d
00000370: edd1 9f3c e73a dd39 75f2 75bd e2ef b6bc
00000380: 2c87 a4bb fe64 f23a 5dc9 24be b378 25bd
00000390: 957b 85bc da6a ba3c f48d 093d 39c1 1dbd
000003a0: fe7e 59be 3a6e b7bb acb5 bebc 739f 973d
000003b0: adc9 523d 0bb4 3a3d bce2 0cbe 44b9 923d
000003c0: 7b11 a73d e470 933d 0d4f 1fbd 30b8 cc3d
000003d0: 61e5 8b3d 2dfb f83d e500 6dbc d0cf 023d
000003e0: e1ce 2cbd 11b1 013e aac7 29be 1792 96bb
000003f0: 0fde 443d 6566 b13c 021e 94bc bd0b d53d
0.03349629 -0.03557011 0.1223675 0.09267112 0.05056254 -0.050087165 -0.18278313 0.100653514
0.0052216644 0.0417471 0.089577354 -0.067554854 0.08849171 0.029167788 0.021398112 0.012935815
-0.12943138 0.12216481 0.06009693 0.020560455 0.027779534 -0.099672265 -0.07358523 -0.039686754
-0.0050882637 0.009790562 0.07165604 0.040185437 0.12814772 -0.101409085 0.041452453 0.0330372
-0.124079034 -0.073102064 -0.012717115 0.1689805 0.04502697 -0.04720865 0.01812595 -0.06903859
0.071539894 0.12999663 -0.069654934 -0.09732417 -0.038323034 -0.094205566 0.06142267 0.11042929
-0.06989322 0.006993598 0.014612424 -0.0014388915 -0.11796611 -0.06127173 -0.012677192 0.08037512
0.018543819 -0.059656832 0.016559089 0.09687399 0.0896624 0.09683116 -0.13036272 0.11994704
-0.041128673 -0.042073216 -0.03289121 -0.13915278 0.023261057 0.061059207 0.044825625 -0.10274145
-0.030772682 -0.07074837 -0.08926089 0.0051204963 -0.024804028 0.028825637 -0.17587292 -0.13924724
-0.09325415 0.103894815 0.011265018 0.14054444 0.16113085 0.011555988 -0.027695227 -0.0069538374
0.18284206 0.14760655 0.014553418 0.029282335 -0.025143694 0.031047516 0.1121656 0.08544842
-0.04333337 0.031596042 -0.06944778 -0.092130266 -0.051071476 0.120244175 0.0513292 0.043916352
0.06367608 -0.036767267 0.14215802 0.06032694 -0.06882109 -0.007492854 -0.052823916 0.060378384
-0.035816316 -0.03530451 0.009517428 -0.078561194 -0.00025912037 0.17625208 -0.015545866 0.07055247
-0.089077555 0.13705294 -0.021825239 -0.11842318 -0.03634235 0.020251349 0.16887233 -0.013935472
0.12067973 0.09491768 0.09563639 0.1167095 0.085446306 -0.09814595 -0.187081 0.09420925
0.04630682 -0.00884283 0.0757922 7.2582094e-05 0.13544844 0.06168907 -0.06340197 -0.08989413
0.04299368 0.043328043 0.010085793 -0.03207113 -0.041422173 0.047537915 -0.057675425 -0.08172583
-0.080079675 0.07005995 0.018596131 0.00069738005 0.056924056 0.051565778 0.0003955928 0.020419708
0.15886204 0.0723896 0.038962252 -0.0430933 0.07082855 0.054381166 0.034845006 0.084478654
-0.080058984 -0.09195629 0.1967739 0.13544323 0.17224953 0.15754683 0.21204576 0.12484059
0.1190702 -0.027752139 0.16189662 0.10881863 -0.044462137 -0.003529756 0.11714475 -0.04303508
0.06419977 -0.04103015 -0.0268329 0.13244997 0.058113594 -0.005275794 0.104323864 -0.06653843
0.1610629 0.11612903 0.068074524 -0.093692504 0.027743788 -0.21527272 -0.03238831 -0.038231105
-0.015872514 0.13732284 0.08657653 0.12581643 -0.041806877 0.16397975 -0.08593231 0.024502296
-0.04979749 -0.17908217 1.5619293e-05 0.053404335 0.09645554 0.10332252 0.061989818 -0.05413983
0.004847921 0.06814666 0.15542091 0.06459094 0.01950928 0.0004219629 -0.06004568 -0.022331182
-0.0050209966 0.0018493233 -0.16092439 -0.04039831 -0.01629428 0.022756029 0.033582643 -0.03851435
-0.2123985 -0.005597857 -0.023279987 0.074034594 0.051461864 0.04558186 -0.13758367 0.07164243
0.08157631 0.071992666 -0.038893748 0.099960685 0.0683086 0.12157283 -0.014465545 0.031936467
-0.042189483 0.12665202 -0.16580072 -0.004595052 0.048063334 0.02165527 -0.018080715 0.104026295

post_processing_lin_layers.0.bias f4 [32]
00000000: 6c22 8cbc 1b81 913c 39c2 ea3c 1814 8ebc
00000010: f315 f739 554a 543c eb81 0f3b 4e4f 613a
00000020: b0f7 f53c 030f 87bc de94 20b9 c0a2 803d
00000030: 2418 c53c 0fac ee3b db11 b23c 6652 b3bc
00000040: 41d6 a83d c0be 66bc 8154 a5bd 4d2a 24bc
00000050: c64b 71bb 1748 693d 5013 133c c72f a2bd
00000060: 83dc 82bc c915 263b e2db d9bb 8f5d 94bb
00000070: 5a67 91bd b13a 8bbb 4ec4 f1bc 4b6d b0bc
-0.017106257 0.017761758 0.028657066 -0.017343566 0.00047127865 0.012957175 0.0021897506 0.0008594886
0.030025333 -0.01648665 -0.00015314246 0.06281042 0.024059363 0.0072836946 0.02173703 -0.021889877
0.08243991 -0.014083564 -0.080727585 -0.010019851 -0.0036818846 0.056953516 0.008976772 -0.07919269
-0.015974289 0.0025342575 -0.0066485265 -0.0045277546 -0.07099791 -0.00424894 -0.02951255 -0.02153649

final_lin_layers.0.weight f4 [32, 32]
00000000: 94fb d0bc 6b07 843d 1807 233e 1033 463d
00000010: 0075 b73d 3ab6 1dbe b45e b93d d069 c6bd
00000020: 88bb 533d 6c0a 8f3d 1a3d 43be 74ec 20bd
00000030: a95b 60bc 5e53 8ebd 8cfa adbc 2577 dcbd
00000040: d047 4dbe 051c 07bb b173 46bd b425 f73b
00000050: 5477 b43c b1cc 883d 0b97 873d bee3 d13c
00000060: fd09 2e3d 7f40 30bc 89f6 573c b5ca 08bd
00000070: ad4d 5abe 7d26 2fbc 6327 61bd 32a1 a2bd
00000080: 4920 1ebe 005e 883c b9ef db3d 96b5 54bd
00000090: 2c0c db3d 32b0 02be 11af d23d cbb8 063d
000000a0: 2051 a8bd b8e6 d1bc f4d8 243d 84fa 38be
000000b0: 6333 033d 6d7b 5ebd 06f9 90bd a8f7 d13a
000000c0: aa98 40bb 71f7 3abd 0523 bd3c d210 7d3b
000000d0: f182 9fbd 1232 b83c faa4 0d3d 515b 4c3d
000000e0: 0445 d43c 2646 573c ad27 c8bc 55fd 333d
000000f0: 3fd1 36bc c55a 163d fc9a f4bc b6c0 cdbd
00000100: 1eff 813e 2ea4 ad37 19b5 22be 7b53 813d
00000110: bdae 85bd 80b1 aa3d 3883 f6bc a1a9 bfbc
00000120: d27f d63d d1ba ee3d dbaf fc3c 6e02 bfbd
00000130: 78de e4bd 1b44 e13d ebf8 73bd 16e2 323d
00000140: 4c2e 193d 2dba 1c3c 1722 143e cca8 9dbd
00000150: 9b5b aebd b1a4 243c 3969 fdbc 2749 d6bd
00000160: 2c3f 043e 7170 833c dcf4 37bd 9cab cebd
00000170: 351d 443d a657 cc3b 8917 c3bd 6170 423e
00000180: d117 1ebd f09c fe3d 0d2f 093d 321c 3c3d
00000190: f45a d83d c51b b0bd 85ea e43d c0c1 9dbc
000001a0: b584 45bd cfb6 b6ba a5de 6d3d 501f eabd
000001b0: 37b1 c3bc a411 153e 39b1 b2bd dcc6 4d3e
000001c0: ba38 b4bd fe0f fbbd 35df bc3d 38a0 b83c
000001d0: cfe8 2b3d 3d09 b4bd 7dd8 90bd 22ab 4cbd
000001e0: b2b5 eebd 8ede 0fbd 6510 853d c350 04bd
000001f0: 4998 3dbd ecc6 0ebd 5153 ee3c 4b9d acbd
00000200: e663 dabd 5bd2 06bd 7f0b 7cbd 061e 91bd
00000210: 4f13 943d fd65 a9bb 1e30 983d 7efe f9bb
00000220: 9ce4 8fbd c502 e0bb 68af cbbd 4446 cc3d
00000230: 2054 6f3c dd84 bdbc c37d 3e3d 3c4e e2bd
00000240: 5cd7 3b3d 231b 6cbd 4d1b 26be e4dd ac3d
00000250: 3a59 083d 1b26 6bbd fb86 723d 70a2 27bd
00000260: e824 13bd c9dd acbb 03ae dcbc 2007 013d
00000270: d06c dcbc 7696 1c3c 0c8e edbc 9eb9 31bd
00000280: 2bb9 b33d b0bd e33d ad68 ce3c 6337 473e
00000290: c307 d3bd a5a2 b3bd d6ff bb3d 6efb 74bd
000002a0: 0c9d b33d 753b 18bd bacd 743d 3ca0 74bd
000002b0: c658 0abe 9320 b53d ab55 3d3e be0c 65bd
000002c0: 7aa1 3dbe 7786 203d 7328 203e 4c2d d9bc
000002d0: 024b ad3d 2543 633d 028d 1dbd 7d7e 013d
000002e0: e23b b23d 548e 6fbd 17e0 a5bd bb13 53bd
000002f0: 2657 debd d4e0 da3d f1c2 253e fad6 0a3e
00000300: 2a41 5bbd 44b5 8d3c f0fe a1bd 1382 833c
00000310: fd37 45bd 249e 783d eb1f b63d 25eb 91bc
00000320: e907 fa3c b756 4c3c f67e 63bd 8d44 4c3d
00000330: a09b 3e3d e8c8 d0bd 403e 62bc bf33 18be
00000340: 384c 8f3d 081c be3d eaab ca3c 5bc2 163c
00000350: 2124 c33c ffc1 f5bc db96 71bd 6db7 073e
00000360: b3d9 8a3d a4f3 a23c f241 36bc e747 a7bd
00000370: c55a 50bd e934 d43c af40 03bd 9084 323c
00000380: 8ff1 3dbd 5735 df3c 1706 c2bc ac8b 1d3b
00000390: ab15 03bb cb6b 25be 29af 18bd d4b2 f0bc
000003a0: c735 4abb 886a 303d 11e1 8a3d 5774 e8bd
000003b0: 3e60 f93c a4f1 aebc 1ce6 9abc 2fd0 f63c
000003c0: 9918 c9bc 6de0 d4bd 7efe 0e3e 96d5 e9bd
000003d0: 134d f63c e268 27bd 1c92 99bc 59fd d43d
000003e0: 6742 57bd 7273 d0bc f530 c9bd d366 d53c
000003f0: 1b7f 1abe 01a8 92bd f70a f83d 4b3b 903c
-0.025510587 0.06446727 0.15920675 0.04838854 0.08957863 -0.15401545 0.09051266 -0.09688151
0.051692516 0.0698441 -0.19066277 -0.039288 -0.0136937285 -0.06949495 -0.021237634 -0.107649125
-0.20046926 -0.0020616066 -0.048450176 0.0075423364 0.022029556 0.06679667 0.06620606 0.025621291
0.042489994 -0.010757565 0.013181337 -0.03339644 -0.21318693 -0.010690329 -0.054969203 -0.07940902
-0.15442003 0.016646385 0.10739083 -0.051930986 0.10695681 -0.12762526 0.102872975 0.032891076
-0.08218598 -0.02562271 0.040245965 -0.18064314 0.032031428 -0.054316927 -0.070787475 0.0016019242
-0.002938787 -0.045646135 0.023087988 0.0038614762 -0.07788647 0.022484813 0.034581162 0.049891774
0.025911815 0.013139283 -0.024432981 0.043942768 -0.011158287 0.03670766 -0.029859059 -0.10046522
0.2538995 2.069966e-05 -0.15889396 0.06314751 -0.06527469 0.08334637 -0.030091867 -0.023396315
0.104735985 0.11656726 0.030845573 -0.09326635 -0.11175245 0.10999318 -0.05956356 0.043672644
0.037397668 0.009565872 0.14466129 -0.07698211 -0.08513566 0.010049031 -0.030933963 -0.104631715
0.12914723 0.016044827 -0.04491125 -0.10091326 0.047879416 0.0062360344 -0.09525973 0.18988182
-0.03859693 0.12432277 0.033492137 0.045925327 0.10564223 -0.085990466 0.111775436 -0.019257426
-0.048222262 -0.0013939979 0.05807366 -0.11431754 -0.023888214 0.1455751 -0.08725209 0.2009539
-0.08799882 -0.1225891 0.09222261 0.022537336 0.04197007 -0.087908246 -0.07072542 -0.049967892
-0.116557494 -0.035124354 0.06497268 -0.032303583 -0.04628781 -0.034857675 0.029092463 -0.08428439
-0.10663585 -0.032915454 -0.0615344 -0.07085805 0.07230245 -0.0051696287 0.074310526 -0.007629215
-0.07026026 -0.0068362677 -0.099455655 0.099743396 0.014607459 -0.023134643 0.046506654 -0.11050078
0.04585968 -0.057643067 -0.16221352 0.0844076 0.033288218 -0.057409387 0.05921076 -0.040926397
-0.03592387 -0.0052754623 -0.026938444 0.031500936 -0.026907355 0.009557357 -0.028998397 -0.04338991
0.08775552 0.111201644 0.025196398 0.19454722 -0.10304215 -0.08771256 0.09179656 -0.059810095
0.08770189 -0.037166078 0.05976651 -0.059723124 -0.13510427 0.08844104 0.18489711 -0.055920355
-0.1851863 0.039190736 0.1564043 -0.026510857 0.08461572 0.055483956 -0.038464554 0.03161477
0.08702828 -0.058485344 -0.08099382 -0.05153249 -0.10856466 0.10687414 0.16187645 0.1355857
-0.053528942 0.017298348 -0.079099536 0.016053235 -0.048149098 0.06069769 0.088928066 -0.017812321
0.03052135 0.012471846 -0.055541 0.049870063 0.046535134 -0.1019457 -0.013808787 -0.1486349
0.069969594 0.0928269 0.024740178 0.009201611 0.023820939 -0.029999731 -0.058981758 0.13253565
0.06779804 0.019891568 -0.011124121 -0.08168011 -0.050867815 0.025904136 -0.03204411 0.010895863
-0.046372946 0.027247114 -0.023684544 0.002403955 -0.0020001929 -0.16154401 -0.03727642 -0.029382147
-0.0030854808 0.043070346 0.06781209 -0.11350315 0.0304414 -0.021355458 -0.018908553 0.030128567
-0.024547862 -0.10394368 0.13964269 -0.114176914 0.030066049 -0.04087151 -0.018746428 0.10399885
-0.05255356 -0.025445674 -0.09823791 0.026050007 -0.1508755 -0.071609505 0.121114664 0.017606398

final_lin_layers.0.bias f4 [32]
00000000: ec73 86bc d10e e0ba b0f6 a53c ee97 273c
00000010: d83b babc b57b bc3c b123 863b e837 4a3c
00000020: 0aca ba39 8778 fc3c fe25 f23c 746b 0c3d
00000030: 8109 393d 9b01 4fbc 4f56 6fbc e2d4 23bd
00000040: 1fa1 013c 6a3c 02bc 1599 4bba 6348 223c
00000050: ac6a a03a e518 c8bc 2a0a c8bc 9126 ba3c
00000060: c784 013d 4ac7 7e3c aba4 19bc 0255 94bb
00000070: b1e1 1fbd 821d 24bb a247 eeba 3226 37ba
-0.016412698 -0.0017094259 0.020259231 0.010229094 -0.022733614 0.023008207 0.00409361 0.012342431
0.00035627215 0.03081919 0.029559132 0.034282163 0.04517508 -0.01263466 -0.01460798 -0.039997943
0.007911949 -0.007948974 -0.00077666464 0.009904954 0.0012238822 -0.024425933 -0.02441891 0.022723468
0.031620767 0.015550444 -0.009377639 -0.0045267353 -0.039033595 -0.0025042002 -0.0018179307 -0.00069865875

final_lin_layers.1.weight f4 [32, 32]
00000000: 29f9 133d 6e06 1abd 6169 ce3d 967e d63d
00000010: 3c7c 9bbd 79ee 6d3d f0bf 0bbe 91c9 a23d
00000020: a0aa adbb 6711 a63d dcfa 0e3e 0f21 0cbe
00000030: 86ab 123b f082 ea3c 4b0a debd c7d2 ec3c
00000040: 7a2a bcbd 70e5 aebd f9a1 00be 17a9 0b3e
00000050: c2c6 69bd 24bc b8bd bb82 423d 753b 43bd
00000060: a895 1a3e 09e3 80bd f39b 80bd 6bf8 09bd
00000070: e4d8 21bd 36d1 8f3d 1557 03bc a833 e23c
00000080: e712 e93d c935 48bc 28f3 51bc 3d8f 1f3d
00000090: eadc f6bc 3950 843d 1643 013d 1e95 a73d
000000a0: ffa7 23bb c5d1 e13c 93fc fc3d 487e 5438
000000b0: b533 ae3d 3390 9f3d c804 8e3c 602e b5bd
000000c0: 0f25 2abd c03d 88bd b159 6c3c 10d5 ce3d
000000d0: d5c1 17be 986a 143e c4eb c43b 168e 9dbd
000000e0: f3c8 1d3e 826c 71bd 081c 273d 9113 7ebc
000000f0: a97d 913d b160 f83c 4e6c cbbb 9d6e 6abd
00000100: 9155 123d 9bd7 6a3d 64b0 5abd 02ff 9d3d
00000110: f9ce fcbc 6f96 38bd e29a 37bd 3f50 a13d
00000120: 4375 8e3d 7b7d 69ba 260c 7c3d 8587 02be
00000130: dd90 b8bb 2f79 ab3c 994c 053c 1a3b aabd
00000140: e8dc b4bd f122 0ebb 0863 9cbd 5bad 123b
00000150: cce8 8b3c 4a6c f43d 9537 5cbc e91e 843d
00000160: e616 f5bc 6073 1abe 1115 a23d d316 fd3c
00000170: 070b ccbd 7151 453c 5067 113e d4b0 18bc
00000180: f3b5 9f3c 5dad 573c 0562 8dbd 7a1f 833d
00000190: f9b1 aebd 89f9 ce3b 4a83 48bd 9bd3 9c3d
000001a0: c756 3e3d e9eb d23d f06d 8f3d 9d82 44be
000001b0: ac17 9a3d 7067 35bd eb8e b9bd 1301 0cbe
000001c0: d6e4 95bd a08e e2bc 1a8e cbbc 5833 67bd
000001d0: f38c c7bc 50c5 79bd 077d c4bd 84dd 3dbe
000001e0: 840b 043b fa8b 683c 20c9 683d 0660 813d
000001f0: 63e4 553d e876 c13c 0891 263d 6a4f 5d3e
00000200: 9790 d33c c2f3 d23c 9cdd 273d 1332 223d
00000210: c89e afbd 28bd 633d 33d6 a7bd dbce b93d
00000220: 5d94 803c f005 bf3d 72ee ecbb 5ff7 0fbd
00000230: 3f04 6f3d c866 9d3d 879c cbba 5016 763d
00000240: af2d dbbc 97e4 d0bc c45d 97bd 345f 753d
00000250: e8df 81bd 848e 1c3c ee55 ab3c c878 093d
00000260: 767b ab3c 64a7 993d c1bd 9c3d f07d 243d
00000270: d316 b23d 7ef1 c13d 53ba f23c 43bc 293d
00000280: 61c6 ad3d 26f0 033c 914b 1fbe 3688 69bd
00000290: 8306 a1bd 4012 b4bd 1cc4 10bd d94f c1bd
000002a0: 137e 663d 9022 1abe 47c6 dfbd 381e 4dbd
000002b0: 0420 02be 95fe 363d e0be c4bd 2e4a 8abd
000002c0: 2550 b13c 02aa 193d cdfc 6d3d f2bf e9bd
000002d0: b82a 2fbd 7abb 15bd c795 dc3c c934 783d
000002e0: 9b9d 14be 8089 203d 902f 633c 022f f3bd
000002f0: d868 473d c086 a13c 5e8c d3bc 3f49 8dbd
00000300: e232 d93d 49b4 903b c7a7 c0bc c3fc 8cbd
00000310: e6dd 433b 60c6 e8bc bcc6 febc ab28 293d
00000320: 01fd bc3c cfe9 a9bd a388 0b3e cc84 66bc
00000330: 0287 a83d 7138 1bbb 4393 ffbd a159 56bd
00000340: 5bb7 89bc 8036 5fbd 04ca b6bd 2ce0 d2bc
00000350: e31e 78bd 33ae e83d c444 97bd cf0f 8fbd
00000360: 2bd7 e6bc f5a8 33bd a580 253d 63e1 e63d
00000370: 9f3a a5bc be12 a53d a851 a23d 669b 433e
00000380: 3881 bc3d df06 11bd 0773 07bd cbc3 343e
00000390: bb4b fbbd a7ac a3bb 90c5 97bd 9268 b3bc
000003a0: b145 9b3d 9624 fc3d da33 4a3d 047a 87bd
000003b0: c9d8 4ebd f4a5 85bb 3f14 ecbb 63d1 513d
000003c0: 4abd 1cbe 08ad 40bc 8741 3bbe ae13 dcbc
000003d0: a58b 95bc 2875 b93c 6849 1bbd 2ef6 d1bd
000003e0: 50a6 4ebd 5f99 b93c de87 66bc 4f01 e2bd
000003f0: 4633 f3bd 1cf1 d83d 250b 3f3d 93b3 f43d
0.03612629 -0.037603788 0.10078693 0.10473363 -0.07592055 0.058088753 -0.13647437 0.07948602
-0.005299881 0.08108788 0.13962883 -0.13684486 0.0022380068 0.028626889 -0.10841807 0.0289091
-0.09187789 -0.085398555 -0.12561788 0.13638721 -0.057074316 -0.0902026 0.047487956 -0.047664125
0.15096152 -0.062933035 -0.06279745 -0.033684175 -0.039513484 0.07022326 -0.008016367 0.027612522
0.113805585 -0.012219855 -0.012814321 0.038954962 -0.030134637 0.06460614 0.03155812 0.08182739
-0.002497196 0.027565846 0.12352862 5.0662347e-05 0.08505956 0.07791176 0.017336264 -0.08846736
-0.041539248 -0.06652403 0.014425681 0.10099232 -0.14820035 0.14493787 0.0060095508 -0.07693116
0.15408687 -0.05894137 0.040798217 -0.015507595 0.07104046 0.030319544 -0.0062079793 -0.057234395
0.035726134 0.057334524 -0.053390875 0.077146545 -0.030860411 -0.04506534 -0.044825442 0.07876634
0.0695596 -0.00089069427 0.061535023 -0.12747009 -0.0056325034 0.020931808 0.008135938 -0.08312054
-0.08831197 -0.0021688307 -0.07636076 0.002238116 0.01707878 0.11934717 -0.013440986 0.06451208
-0.029918145 -0.15083075 0.07914174 0.030894672 -0.09963041 0.012043343 0.14199567 -0.009319503
0.01949594 0.013163892 -0.06903461 0.06402488 -0.08530039 0.006316368 -0.048953332 0.07657548
0.046469476 0.102989025 0.07003391 -0.1919045 0.07524046 -0.0442881 -0.090604626 -0.13672285
-0.073190376 -0.0276559 -0.024848033 -0.05644545 -0.024359202 -0.060979187 -0.095941596 -0.18541533
0.0020148465 0.014193529 0.056832433 0.06317143 0.05221976 0.02361627 0.040665656 0.21612325
0.025825782 0.025750998 0.040982828 0.039598536 -0.08575207 0.055600315 -0.08195152 0.09072658
0.015695745 0.09327304 -0.0072305733 -0.03514802 0.05835366 0.076856196 -0.001553432 0.060079873
-0.026755182 -0.025499625 -0.07390931 0.059905246 -0.06341535 0.009555463 0.020914998 0.03356245
0.020932894 0.0750263 0.0765338 0.040159166 0.086957596 0.09469889 0.029629862 0.041439306
0.084851034 0.008052861 -0.1555617 -0.057014666 -0.0786257 -0.087925434 -0.035343274 -0.09439058
0.056272577 -0.15052247 -0.1092649 -0.050077647 -0.12707525 0.044676382 -0.09606719 -0.0675243
0.021644661 0.037515648 0.058102418 -0.11413564 -0.04276535 -0.036555745 0.026926888 0.060597215
-0.14513247 0.03919363 0.01386632 -0.118742004 0.04868397 0.019717574 -0.025823768 -0.06898736
0.10605408 0.004416023 -0.023517502 -0.06884148 0.00298869 -0.028414905 -0.031100623 0.04129855
0.02306986 -0.082965486 0.13626342 -0.014069747 0.08228876 -0.0023684765 -0.1247926 -0.05233157
-0.016811064 -0.054495335 -0.0892525 -0.02574166 -0.06057633 0.11361351 -0.07386163 -0.06985437
-0.028178772 -0.0438623 0.040405888 0.11273458 -0.020169554 0.080602154 0.07925731 0.19102249
0.09204334 -0.035406943 -0.033068683 0.17652814 -0.12270304 -0.004994947 -0.07410729 -0.021900449
0.07581652 0.12311666 0.049365856 -0.066150695 -0.05049971 -0.004078621 -0.007204562 0.051225077
-0.15306583 -0.011760004 -0.18286715 -0.026864853 -0.018255064 0.022638872 -0.037911803 -0.10252033
-0.050451577 0.02265614 -0.014070479 -0.11035406 -0.11875014 0.10592863 0.046641488 0.119483136

final_lin_layers.1.bias f4 [32]
00000000: fe7d 653c 043f 953c 6055 0cbb 73a7 a73b
00000010: 0924 753c bde1 84bc 2655 163c 294b 273c
00000020: 7921 4bb7 cac3 8ebb 28d7 463c e145 8d3c
00000030: 8767 5e3c 38fe 973c 4517 393c 2179 55bc
00000040: fbeb 273c e91c 783c 9562 623c 4337 b33b
00000050: 82d0 4bbc 8c6d a238 f52e 3dbc 8e85 4a3c
00000060: e953 a63a 805b 1d3c 3cd6 9bbb 8f52 4ebc
00000070: e705 ff3b a88c 963c 36d7 263c fb12 4a3c
0.01400709 0.018218525 -0.0021413192 0.005116397 0.014962205 -0.016220922 0.009175574 0.010210791
-1.2107536e-05 -0.004356836 0.012136258 0.017245235 0.0135744875 0.018553838 0.011297052 -0.013029368
0.010249133 0.0151436115 0.013817449 0.005469234 -0.012439849 7.745167e-05 -0.01154684 0.0123609435
0.0012689802 0.009604335 -0.0047557633 -0.012592926 0.007782686 0.018377617 0.010183146 0.012333627

final_lin_layers.2.weight f4 [1, 32]
00000000: 26e3 483c f689 2b3c 1424 823c 67c6 1d3c
00000010: 701a 3e3c fa25 4fbc 9532 673c 3691 2d3c
00000020: 6a29 213c f5e1 943c 2c52 373c 4b7c 1f3c
00000030: 76ac 733c bac4 3e3c 4719 873c 2f78 60bc
00000040: b1c1 233c 68ed 283c 7583 6f3c 6c6e 6e3c
00000050: 65fd 27bc 6969 323c 280a 09bc 887c 543c
00000060: 27fa 753c 2180 823c c38f 3ebc c3d0 27bc
00000070: dded 473c 56fb 7f3c e678 7e3c ee71 8a3c
0.012261188 0.010469904 0.015886344 0.009629822 0.011602983 -0.012643332 0.014111181 0.010593703
0.009836534 0.018174151 0.011189025 0.009734224 0.014872661 0.011643583 0.016491545 -0.013700529
0.00999491 0.010310508 0.014618744 0.014552694 -0.010253285 0.01088939 -0.008364238 0.012969144
0.015013254 0.015930237 -0.011630955 -0.010242644 0.012202707 0.015623888 0.015531754 0.016900029

convs.0.bias f4 [32]
00000000: a077 86bd 2605 babd d038 8e3d 26b9 0b3d
00000010: d4bc 60bd 3504 1aba 3d6a 89bc 8227 0ebd
00000020: 1f5b cdbc 0ebc 4abc eaee 11bd fe08 08bd
00000030: 1ccc bfbd a3f4 5abd 9937 a4bd 93da 85bd
00000040: 9ea7 9abd a1b8 82bd 0333 fc3b 2660 f1bd
00000050: 21b7 b2bd 6c82 59bd dd2c 1dbd 0cf9 b3bd
00000060: 19e7 06bd ab56 f23c 8d4b 7abc 4fee 1ebd
00000070: 2528 94bd 76c0 81bd 788f 44bd c7e3 023c
-0.065657854 -0.09083013 0.0694443 0.03411212 -0.05486758 -0.00058752607 -0.016774291 -0.034705646
-0.025067864 -0.012373937 -0.035628237 -0.0332117 -0.09365103 -0.05345596 -0.08018417 -0.0653583
-0.07551502 -0.063828714 0.0076965108 -0.11785917 -0.08726335 -0.053102896 -0.038372863 -0.08787736
-0.032935236 0.029582342 -0.015276802 -0.038801488 -0.072342195 -0.06335537 -0.047988385 0.007988877

convs.0.lin.weight f4 [32, 32]
00000000: 3c72 81bc 22aa d13d 15fe 6ebd ad35 1ebb
00000010: 9b5e 4d3e 2aa5 eb3d 33a0 1d3c 7ea5 2e3e
00000020: 83ca 233e d575 96be 3c0e 5fbd 8355 ccbc
00000030: c112 003e 46c7 f7bd 7713 513e 7920 223e
00000040: 1010 dd3d d7c9 a2bd 2193 1f3e 44fe 0b3e
00000050: a093 54bd 09d5 893c f86c 983d eaf7 9d3c
00000060: 5ffc 0fbe 2032 2b3d 4426 67be f6e8 b7be
00000070: 5b11 3b3e abc2 363e 316e 013e 947e a03e
00000080: 3595 c23d 539b 4dbe e414 263e e32e 663e
00000090: ca24 cc3b 143b 503e 7298 d1bd 4a4d d33d
000000a0: 3fe6 97be b358 313e 0ceb 0cbe 4407 60be
000000b0: a756 a7be 5822 883e 91a1 06be dfa8 9bbe
000000c0: eb78 a4be 5f36 4ebe 4225 14bb e43a cabd
000000d0: 0887 dfbd 3074 903d 65cd ebbd 30f2 a13d
000000e0: ce2e 5dbe 91be a8bb fdf2 013e 3dbd 85be
000000f0: 6d41 163e 6984 633c 5a76 9cbd 4c4d 803e
00000100: ffc5 523e 7d3a 2d3e d6c3 98bd df4b 6ebe
00000110: 98b1 013e 8125 9dbd 1b6e 4d3e a1a9 73be
00000120: 696e 003e 31d0 9f3e 888b 593d f48a baba
00000130: 1511 403e c49a 6ebc 3fa5 443e 9ec0 2d3e
00000140: aece 493e 56d9 873d a53e 5a3b 2145 483e
00000150: 61fb 8c3e bb3e b6bd 55f1 bc3d 26ee a0bd
00000160: d4c2 5b3a 4ca9 f9bc 40db e8bd f1d3 ea3d
00000170: ee82 5cbe c826 ff3d ba6b bc3b 7c64 91bd
00000180: 29e7 f53c b838 9ebd 4a1c c23c f461 0bbe
00000190: 0487 37bd ff08 96bc bc2d 143c 9508 b7bd
000001a0: 1b48 e5bd 6f5c c8bd 2a33 5a3e 3fce 5cbe
000001b0: 4e37 9e3d 9555 ff3d d7fe 8d3e 3a76 8c3d
000001c0: bf0b 2dbb 4402 ed3d 47b9 aebc 10ac 92bd
000001d0: c0a3 e3bd e46d 563e 218f 57be 3927 483e
000001e0: 5291 cdbd 45a6 ddbd b2c6 7a39 58bb 433d
000001f0: 7b36 c0ba 6252 60be abef 1dbe e497 333e
00000200: c3d0 3fbd 9f64 96bc 877a bc3d 471a a1be
00000210: 192e 9fbd e5d7 9b3e bce7 8c3d 383b 03be
00000220: 69fb 413c 9eb7 aabd 0811 063e 1758 8d3d
00000230: de0c 35bd 4dd7 393e 0a0b 1c3d 9f4c bf3d
00000240: 964a c43d 7134 01be dd41 c6bd e872 013e
00000250: c992 7ebd e1e0 b2bd 33c7 d3bd 03b0 203e
00000260: 85fd 12be 6952 0c3e b33f 9e3d f00a 00bd
00000270: 943f 08be 7526 cf3d 1326 fd3c 4551 fd39
00000280: 6936 0ebd 64d5 e93d 15e8 2fbd 11da 3c3e
00000290: 4bbe 67bd b5dd eebd ba8c 113e abe3 babd
000002a0: fa1e c83d 83b9 cd3d de7d 41be 7913 94bd
000002b0: 0159 653e dfad 2bbd f21c 353e 6a8e 4bbe
000002c0: cc71 65bd 9459 ddbc 4ed6 f9bd 7db9 123e
000002d0: 29df e23d 1db5 7f3e 1781 a6bd 8b6c 94bc
000002e0: 3978 98be ebff ea3d 643b 9ebe 912a b13d
000002f0: 2d64 463e f55e 92bd 9853 4dbc 7529 463d
00000300: 4308 463e 4fb6 553d 7f12 97bc 5b84 8cbd
00000310: a7cf 63be 0f63 dfbd 7975 68be 824a 19be
00000320: 6704 6a3e a278 093e 4f27 41be 683d 073e
00000330: d47e 80bc 5a28 483b 777f 3e3d 0eb2 393d
00000340: fd94 023e aebe 393e 8b10 2b3e 2099 413e
00000350: ed9c 61bd eddf d73d 5637 76be 7fe2 5dbd
00000360: 606b 1f3e 8abe 843d ea7c 853e c547 323e
00000370: ad4f 993e c2c2 983d 5289 643d 0476 39be
00000380: fdc0 7f3e a52a e23d 8f19 1b3e 4503 61be
00000390: 6633 983c 8576 7dbe 8ba0 a2bd 6a5f 6bbe
000003a0: 131d a43d d663 063e d233 c23d d5a9 8cbd
000003b0: 3fc7 68be 8c7e 193e 8495 963e 7509 22bd
000003c0: 9e54 e33d 71ce 63be c802 88bd 0300 2dbe
000003d0: b4d6 663e ba13 063e 2742 ab3d f146 0c3d
000003e0: df9d 6bbe 3f6a d4bd 5f86 403d 7460 013e
000003f0: 8c44 7abb 859a 14be ca07 9d3e 6176 26be
-0.015801542 0.102375284 -0.05834778 -0.002414088 0.2005562 0.11506112 0.009620714 0.17055318
0.15995221 -0.29386774 -0.054456934 -0.024943119 0.12507154 -0.12098555 0.20417581 0.158327
0.10794079 -0.07948654 0.15583469 0.13671213 -0.0518986 0.016825216 0.07442659 0.019283254
-0.14061116 0.04179585 -0.22573191 -0.35919923 0.1826834 0.17847697 0.12639691 0.3134657
0.09501115 -0.20078783 0.16218907 0.22478823 0.0062299715 0.20335037 -0.10234155 0.10317476
-0.2966785 0.17318992 -0.13761538 -0.21877772 -0.32683298 0.26588702 -0.1314757 -0.30402276
-0.32123503 -0.20137928 -0.0022605215 -0.09874514 -0.10914427 0.07053411 -0.11513785 0.07907522
-0.21599886 -0.0051496704 0.12690349 -0.2612094 0.14673395 0.0138865495 -0.07639761 0.25058973
0.20583342 0.16916843 -0.07459228 -0.2327113 0.12665403 -0.07673169 0.20061533 -0.23795177
0.12542118 0.31213525 0.053111583 -0.0014232085 0.18756516 -0.014563266 0.19203661 0.16968009
0.19707748 0.066332504 0.00333015 0.1955762 0.27535537 -0.08898684 0.09225718 -0.07857923
0.00083832187 -0.030476235 -0.113699436 0.11466206 -0.2153432 0.12458569 0.0057501467 -0.07099244
0.030017452 -0.07725662 0.02369513 -0.13611585 -0.044806495 -0.018314837 0.009044107 -0.08937184
-0.11195394 -0.09783255 0.2130858 -0.21563052 0.07725392 0.12467495 0.2773349 0.068584874
-0.0026404706 0.11572698 -0.021328581 -0.071617246 -0.11115217 0.20940357 -0.21050693 0.19546212
-0.10037483 -0.10822729 0.00023915878 0.047786087 -0.0014664674 -0.21906427 -0.15423457 0.1753841
-0.04682995 -0.018358527 0.09203058 -0.3146536 -0.07772464 0.30438152 0.06880137 -0.12815559
0.011839726 -0.083358034 0.13092434 0.069015674 -0.044201724 0.18148537 0.038096465 0.09340786
0.09584539 -0.12617661 -0.09680531 0.1264149 -0.062151704 -0.087342985 -0.103407286 0.15692143
-0.14354523 0.13703312 0.077269934 -0.03126043 -0.13305503 0.10114757 0.030901944 0.0004831647
-0.03471986 0.11417654 -0.04294594 0.1844256 -0.056577962 -0.11663381 0.14213839 -0.091254555
0.09771533 0.10045149 -0.18895671 -0.072302766 0.22397234 -0.041913863 0.17686823 -0.19878545
-0.05601673 -0.027020253 -0.121990785 0.1432857 0.11077721 0.24971433 -0.08130091 -0.018118164
-0.29779223 0.11474594 -0.30904686 0.08650697 0.19374152 -0.07147018 -0.012532137 0.04837938
0.19339089 0.052175816 -0.018441437 -0.06861182 -0.22247182 -0.10907566 -0.22701062 -0.14969829
0.22853242 0.13424924 -0.18862651 0.13207018 -0.015685476 0.003054163 0.04650828 0.04533582
0.12752147 0.18139145 0.1670553 0.18906069 -0.055081297 0.10540757 -0.24044546 -0.05417108
0.15568304 0.06481655 0.26071864 0.1741019 0.299436 0.07459022 0.05579502 -0.18111426
0.24975963 0.1104329 0.15146469 -0.21973903 0.018579196 -0.24752243 -0.079407774 -0.22985616
0.08013358 0.13124022 0.0948254 -0.068683304 -0.22732256 0.1498968 0.29410946 -0.0395598
0.11100124 -0.2224672 -0.066411555 -0.16894536 0.2254284 0.13093463 0.08362227 0.034247342
-0.23009442 -0.10371827 0.047003146 0.1263445 -0.003818783 -0.1451207 0.30670005 -0.16256095

convs.1.bias f4 [32]
00000000: 3ea5 f9bc fd71 88bd 281f dabc 974e 87bd
00000010: 3eea 8cbd 2b5b 68bd 6549 b5bd b4e6 4ebd
00000020: 6ca7 233c 8c8a a13b 6199 34bd d574 1dbb
00000030: 6b6d 91bd d5e6 aebd 1578 28bc c4a3 913c
00000040: d40e 0cbe 2d7f dbbd 5fa5 173c 4932 9bbd
00000050: 9751 37bd 44a6 83bd 6c1a 14bd f786 9dbd
00000060: d6ab 53bd ee02 d7bc c523 6dbd 662e d7bc
00000070: 8bad 763b ecb5 98bc 9575 b6bc e78c 65bd
-0.030474301 -0.066623665 -0.026626185 -0.06606787 -0.06880616 -0.05672757 -0.088518895 -0.050512984
0.009988647 0.004929846 -0.044091586 -0.0024025936 -0.07100948 -0.085401215 -0.010282536 0.017778285
-0.13677531 -0.10717616 0.009255736 -0.075779505 -0.044755545 -0.06428197 -0.03615801 -0.07691758
-0.051677547 -0.026246514 -0.05789544 -0.026267242 0.003764006 -0.018641435 -0.022272864 -0.056042578

convs.1.lin.weight f4 [32, 32]
00000000: 9369 2fbe cbdd 90bd 5753 443e d7f5 8abe
00000010: 52fa a33d 3a65 963d 67b4 10bc dbd2 c8bd
00000020: 2e2a a8be 172e a5be 093c 0d3d 6ee8 d8bd
00000030: 771a 93be e2f6 2a3d 919b f5bd e9b0 9a3e
00000040: a10a acbd 9696 a43e ab8b 70be e285 8f3e
00000050: 21f8 64be 12c8 ea3d 4991 b93c 5e1c 713d
00000060: d2ce debd 144e 07be dd4b eebd 1c95 2f3d
00000070: c1d8 c0bd 23d7 153e c9ea a73d bfc3 c0bd
00000080: 0ea9 c9bd ddbc a6be 60f5 883e b5c1 9abd
00000090: 2b0b d33b 81a9 39bd 3e4b 16bd bc68 19be
000000a0: b1b6 003e 1f0b 8cbe 1822 12be 474b 593e
000000b0: 37fc 95be 5eb4 43be 4af1 d33d 7d1b 5cbd
000000c0: 0d2c 58be b377 023e b4bc 42bd 0fda 56bc
000000d0: 2982 9d3d a1b3 303d 5e92 93be 7d13 cbbd
000000e0: 7b25 7ebe d091 9d3d bcfb 013e b0fb 3fbe
000000f0: fe13 c03d 37a3 963e 53ad 6a3d 3c05 d9ba
00000100: 3205 ec3d fa29 563e 22ff 4f3e 2e6e b0bd
00000110: 960a 27be 10fc 0a3e cd28 f9bd 8c29 4f3e
00000120: 9891 c23c a93d c63c 4511 0c3e 88d8 c4bd
00000130: 1f88 613e 3abf 2ebe fb2d 2dbe 2c34 92be
00000140: f90e f23d 806c 2fbe 75f8 c13c c194 55bd
00000150: 3fe7 92be 755b 86bd ff16 853e 3aec 483d
00000160: a5f9 113e 1597 ef3c 3b01 e53d 2e02 7c3e
00000170: 3814 10be 7419 31be a9b3 25be ac9e 403d
00000180: f290 95be cb54 b43d 021a d5bd a335 893d
00000190: bf84 5d3d e817 6c3e e9b8 56be 4d7c 1cbd
000001a0: 2679 253e f70c f5bb 9822 b43d ed60 0cbe
000001b0: 9d2f 23be 8d4d 943e dbeb 3c3e fba7 9c3d
000001c0: 3db1 9a3e 1065 1a3e 27b8 80be faa1 523d
000001d0: 8c94 073e 30aa 02bd 3308 d2bc 3157 023e
000001e0: 3532 f23d cefd 713e a65b 563e d8a5 863d
000001f0: 3dce 05be b9b4 013e bc2f 603c fd3f d83c
00000200: 8bc9 acbc 5f5c 283e fe8d 7a3e 36fc febd
00000210: 41fb 05bd d02c 1e3e c0e4 aebd 847f 1b3e
00000220: f751 2c3c b7c2 15be 6632 e13d b56b 28be
00000230: 887b 143e 2602 8fbc 3644 1a3e c6a5 883e
00000240: 2b91 5d3e 91c3 6abd d8e1 813e 4a22 dbbd
00000250: 7269 763e 0192 613d c2aa 743d 03c0 9e3e
00000260: 1de9 243d 897e babd 9302 c3bc c03e ef3d
00000270: c8b0 f7bb 3ede 89be 2387 95bd 3b0a 8b3e
00000280: 5230 aebe 6992 f43d b11c d43d 391c 3f3e
00000290: 3281 9fbe 40a2 c93d f31e 2cbe dda7 1f3e
000002a0: d21e cd3d 909d 693d b227 1e3d 19a9 c4bc
000002b0: 39f1 eb3d 5fd4 213e 4b43 433d cbd0 353e
000002c0: 4743 e33d 48fd 0abe c9aa 8dbe 9584 cb3d
000002d0: 9655 91bc 41ff b7bc 8e4c 09be 1a23 223d
000002e0: 2ab0 fd3d a758 833e a5e3 44be a764 c83d
000002f0: a0e4 f2bd d17f 4fbe 2bdc 8f3d 0b7c 523e
00000300: 881c 87be 75b0 d23d 68db 2bbe f3b7 15bc
00000310: 30f7 053e 43ef 1dbd 340b dfbc 35e0 95be
00000320: 3f1b 1fbe 4622 3f3e 01ff c1bd dfc3 2fbd
00000330: 1665 9dbc 9ac5 1a3e d180 983d b2d6 05be
00000340: f53b 863e 160d 09bd 75b3 b53d 823f 913e
00000350: 67f6 b03d 2e94 1a3e a2c1 7ebc d081 a7bc
00000360: b202 a0be 6b0e 643e 040d f13d 9d07 51be
00000370: 7905 453e 9d0b 99be 5e95 bebc be5a 7a3e
00000380: 22ef b33d 6cf4 b63e 6632 a03d 827e 31bc
00000390: e854 7b3e ca65 2cbe ec65 503e bf32 55be
000003a0: fd32 0cbd efcb e0bd 5ec9 13bd f63c ab3e
000003b0: 1cba e8bd 0d27 dd3d 9c46 af3d 4e7f 52be
000003c0: 47e6 3ebe 82a8 4f3d 536a ebbc be2e 2d3d
000003d0: 2966 573e 7684 f9bd b724 bebd 960a 083e
000003e0: 1fa7 523d c2f9 b83d 12da e03d e125 4d3d
000003f0: 4c39 e63d 2580 82be 9bf5 31be aa50 adbc
-0.17130117 -0.07073554 0.19172417 -0.27140686 0.08006729 0.07343526 -0.008832074 -0.098058425
-0.3284468 -0.32261726 0.034481082 -0.105912074 -0.2873113 0.041739352 -0.119925626 0.30213097
-0.08400465 0.32146138 -0.23490779 0.28031832 -0.22360279 0.11463942 0.022652285 0.058864944
-0.108792916 -0.13213378 -0.116355635 0.04286681 -0.094163425 0.1463285 0.081990786 -0.094123356
-0.09846698 -0.32565966 0.26749706 -0.07556478 0.0064405403 -0.045327667 -0.03669285 -0.14981359
0.12569691 -0.27352235 -0.14270818 0.21220122 -0.29293987 -0.19111773 0.103487566 -0.053737152
-0.21110554 0.12740974 -0.047543243 -0.013113513 0.07690842 0.043140057 -0.28822607 -0.099158265
-0.24818985 0.07693827 0.12693685 -0.18748355 0.09378813 0.29421398 0.0572942 -0.0016557346
0.115244284 0.2091445 0.20312169 -0.08614765 -0.16312632 0.13572717 -0.12165985 0.20230693
0.023751065 0.024199324 0.13678463 -0.096116126 0.22024582 -0.17065135 -0.16912071 -0.2855543
0.11819262 -0.17131233 0.023678044 -0.052143816 -0.28692052 -0.06560413 0.25994107 0.04905341
0.14255388 0.029246846 0.11181875 0.24610206 -0.14070213 -0.17294866 -0.16181816 0.04702632
-0.29212147 0.088052355 -0.10405351 0.066996835 0.054081675 0.23055995 -0.20968975 -0.03820448
0.16159496 -0.007478352 0.08795661 -0.13708849 -0.15936132 0.28965417 0.18449347 0.07649227
0.30213347 0.15077615 -0.25140497 0.051424004 0.1324026 -0.031900585 -0.025638675 0.12728573
0.118259825 0.23631975 0.20933399 0.06574601 -0.13066955 0.12666596 0.013683256 0.0263977
-0.021092197 0.16441487 0.24468228 -0.12450449 -0.032710318 0.15446782 -0.08539724 0.15185362
0.010517589 -0.14625059 0.10995941 -0.16447337 0.14500248 -0.01745708 0.15065083 0.26688975
0.21637408 -0.057315413 0.25367618 -0.106998995 0.24063662 0.05507088 0.05973316 0.31005868
0.040261377 -0.09106166 -0.023804938 0.116818905 -0.0075589158 -0.2692737 -0.07301166 0.27156243
-0.3402124 0.11941988 0.10357035 0.1866311 -0.31153256 0.098454 -0.16808681 0.15591379
0.10015644 0.05703503 0.038612075 -0.024006413 0.11520619 0.1580367 0.047671597 0.1775543
0.110968165 -0.13573182 -0.2766936 0.099373974 -0.017741006 -0.022460582 -0.1340811 0.039584257
0.12387116 0.25653574 -0.19227464 0.09784823 -0.11860013 -0.20263602 0.070244156 0.20555131
-0.26388955 0.10287563 -0.16782916 -0.009138095 0.13082576 -0.038558256 -0.027227022 -0.2927262
-0.15537737 0.18665418 -0.09472466 -0.042911407 -0.01921324 0.15114442 0.07446445 -0.13070181
0.2621762 -0.033459745 0.08872119 0.28368765 0.086407475 0.15095589 -0.015549095 -0.020447642
-0.31252056 0.22271125 0.11770061 -0.2041306 0.19240369 -0.29891673 -0.023264583 0.24448678
0.08785845 0.35733354 0.07822113 -0.0108333845 0.24544108 -0.16835704 0.2035138 -0.2082014
-0.034228314 -0.10976397 -0.03608071 0.33444947 -0.113636225 0.10798464 0.085583895 -0.20556375
-0.18642531 0.05069781 -0.028737223 0.042280905 0.21035065 -0.12183468 -0.092843466 0.13285288
0.05142891 0.090320125 0.109790936 0.050084952 0.11241397 -0.25488392 -0.17378847 -0.021156628
