checkpoints/checkpoints_homogeneous_biomarker_vessel_graph/DCP_model_1_BVD_xoiuickc.pt (torch, 101488 bytes, 25 tensors)

pre_processing_lin_layers.0.weight f4 [64, 15]
000000 fc 56 d1 3d 15 9c 08 be 64 1a 72 be 05 b3 21 3e
       0.10221669 -0.1334079 -0.2364288 0.15790947
000010 c8 04 d1 3c 97 2d 6c be 45 94 88 be 19 74 65 be
       0.025514975 -0.23064266 -0.2667562 -0.22407569
000020 e5 3c 53 3c 66 ea 7a be 7d 8e 66 be 3c 3a fb bd
       0.012892936 -0.24503478 -0.22515292 -0.12266967
000030 8a 0e 53 be 03 ef c8 3d 24 96 1e 3e fc 57 04 be
       -0.20611015 0.09811213 0.15486962 -0.12924188
000040 6e 8d e7 bd b9 dd b0 3c e2 d5 b7 bd 7b 6b 6a bd
       -0.113062724 0.0215901 -0.08976342 -0.057231408
000050 86 5e 48 3e e9 3b d2 3d a5 15 aa 3d 68 39 40 3c
       0.19567308 0.10265333 0.083049096 0.011732437
000060 f9 25 f4 3d 42 d9 24 3e 90 1b d3 3d ab 3d 97 bd
       0.11921305 0.16098502 0.103079915 -0.07384809
000070 ad d8 3a 3c aa f7 9e bd 9f 71 34 be ca 6a 67 3e
       0.011404199 -0.07762082 -0.17621468 0.2259933
000080 08 3f de 3b da 7e 1a 3c 96 33 d7 3d a9 d3 0b 3d
       0.0067824163 0.009429658 0.10507886 0.0341374
000090 fc 4f 52 be ec 9d 23 bd b2 88 36 be 53 e6 02 3e
       -0.20538324 -0.039945528 -0.17825583 0.12783174
0000a0 d8 fc 3a 3e 1a df 34 be 19 e2 ca bc 7a 80 38 bd
       0.18260515 -0.17663231 -0.024766015 -0.0450444
0000b0 91 09 45 be 8f 55 0a 3e bb ba 4f be dc 46 4c be
       -0.1924193 0.135092 -0.20286076 -0.19948906
0000c0 10 3c 5c be ee e5 17 3e 15 17 fc bd 9d 44 e6 bc
       -0.21507287 0.14833805 -0.1230909 -0.02810889
0000d0 d5 b8 2f 3d 0f 33 31 3e 14 89 64 be 0c b3 99 be
       0.04290088 0.17304634 -0.22317916 -0.30019414
0000e0 98 e6 3d bd a4 a7 55 be ab d3 09 3d ef 92 91 3e
       -0.04636249 -0.20864731 0.033649128 0.28432414
0000f0 1d d2 0d be d6 46 f9 bc bb 8f 5c 3e a2 ae c1 3d
       -0.13849683 -0.030429285 0.21539204 0.09457137
000100 bc 70 fb 3d 74 3e 3e 3c 5d 1c 47 3d 75 45 17 3b
       0.12277362 0.01161157 0.048611034 0.002308217
000110 9d 78 95 bd a1 e2 12 bd e1 74 76 3e 6d 9e 91 bd
       -0.07298396 -0.03586066 0.24068023 -0.071102954
000120 1a 01 81 3e dd 9b 79 3d 32 0f 86 bc c6 dd dc 3d
       0.25196153 0.06093966 -0.016364668 0.107844874
000130 a1 b5 3e 3d d7 b5 25 be e0 67 86 bd 73 a4 5b be
       0.046559934 -0.16182648 -0.06562781 -0.21449451
000140 83 cc 7e bc 0a 63 cc bd 24 9b cf bd 4d 2b 9e 3d
       -0.015551689 -0.09979828 -0.101370126 0.07723103
000150 99 12 8e ba d2 d6 87 3e f5 c6 49 bd 2a 33 8b be
       -0.0010839283 0.26531082 -0.049262006 -0.27187473
000160 f8 3b 29 be 55 7c a1 be 8a fe a2 3d e5 d5 2b 3e
       -0.16526783 -0.3154017 0.07958706 0.16780813
000170 0d 13 3d be d0 78 a6 bd 9c 4f f4 bd 6e 6e cd bd
       -0.18464299 -0.08128512 -0.11929247 -0.100308284
000180 21 51 8c bd e6 22 1b 3c 40 3e 4a 3e 82 95 9e 3d
       -0.068514116 0.00946877 0.19750309 0.0774336
000190 ee 66 8d 3e 89 59 e0 bd e2 59 d8 3d 6d c7 43 3e
       0.27617592 -0.109545775 0.10564019 0.19119044
0001a0 c1 07 4e 3d 68 23 0b bd 46 4a 92 3d 6f 92 09 be
       0.050300363 -0.033969313 0.07143073 -0.13434766
0001b0 34 ad 65 3d bc f4 18 3c 24 b7 96 be 36 8c 97 be
       0.056073382 0.009335693 -0.294366 -0.2959916
0001c0 d0 9e 9f be f9 ef 61 3c 8f 60 0c be 8c ab 18 be
       -0.31175852 0.013790124 -0.13708709 -0.1490919
0001d0 a6 54 28 3e f1 86 8e 3d 10 ff dd bd fa 8e 13 3e
       0.16438541 0.06959332 -0.10839665 0.1441001
0001e0 7c 44 05 3e 0d fd 1a 3e 4a ae fc bd 28 80 f4 3d
       0.13014406 0.15135594 -0.123379305 0.11938506
0001f0 2e b8 35 3c 54 d2 18 3d 3a c9 86 3e 2b de 1f 3c
       0.011091275 0.03730996 0.263254 0.009757559
000200 24 11 42 bd cd 15 e7 bb 6a 1c 3c 3e 73 64 61 3e
       -0.047379628 -0.0070521594 0.18370214 0.22010975
000210 80 70 96 3e 36 d4 1a 3e e5 d0 7f 3e 73 74 2d be
       0.29382706 0.15120015 0.2498203 -0.16938953
000220 c7 46 06 3d 2d 49 ba 3d 25 a4 1e be 6f 0b a5 3c
       0.032782342 0.090959884 -0.15492304 0.020147054
000230 f4 0d a7 bd 65 89 25 be 96 50 0f 3e a0 c4 77 3e
       -0.08156958 -0.16165693 0.13995585 0.241961
000240 ee f0 70 be c9 ea 8b be 96 cc 38 bd 11 a6 36 be
       -0.23529407 -0.27327564 -0.045116983 -0.17836787
000250 47 1b 77 3c 53 18 e4 bd a4 17 a5 bd 8c cb c5 3b
       0.015082187 -0.11137452 -0.0806115 0.0060362276
000260 1f 30 3a 3e 6a e8 9c 3d dc 50 b9 3d cf 89 53 bd
       0.18182419 0.07661517 0.09048626 -0.051645096
000270 83 a5 78 be f6 0c 1c 3c da b8 78 be 32 a6 88 be
       -0.24281888 0.0095245745 -0.24289265 -0.26689297
000280 55 37 b6 3d c7 bd ae 3d d2 82 06 3e bb 12 12 3d
       0.088972725 0.08532291 0.13135841 0.035662394
000290 8d b8 20 3e 06 fb 15 bb 7e 85 6a be f0 07 41 3d
       0.156954 -0.0022885217 -0.22902486 0.04712671
0002a0 d9 e3 4d bc 63 98 46 be c1 33 c7 3d bb 87 6d 3e
       -0.01256653 -0.19394068 0.09726668 0.23196308
0002b0 f1 33 60 bd 2a 6a 02 be 3e 50 db 3d b1 9e 9f bd
       -0.054737035 -0.12735811 0.10708664 -0.0779394
0002c0 7c 59 68 be a9 4d 5d 3e 22 50 72 bd b0 b7 98 be
       -0.22690386 0.21611656 -0.05915845 -0.29827642
0002d0 7d a9 2c be a4 fd 70 3d e1 f9 46 3d ff 1b cb 3d
       -0.1686153 0.05883564 0.048578147 0.09917449
0002e0 5d 77 36 3e d7 ca 4a be dd 99 b7 bd 25 50 02 be
       0.17818971 -0.1980394 -0.08964894 -0.12725885
0002f0 d0 f4 39 be 7e c2 80 bb cc 7c 83 be 77 44 f5 bd
       -0.18159795 -0.0039294353 -0.2568115 -0.11975949
000300 31 d2 31 3e 6b 56 4c 3e 60 25 1a 3e f3 96 e2 3c
       0.17365338 0.19954841 0.1505332 0.027659869
000310 46 a1 3a be 22 04 ce bd 7f b1 e4 bd d2 bb 4e 3e
       -0.18225583 -0.10059382 -0.11166667 0.20188835
000320 fe 2b 66 3e 4a f5 ec 3d b5 07 6c bd a1 63 7e 3e
       0.22477719 0.11570223 -0.057624537 0.24842693
000330 57 a6 23 be 0e a0 1a 3e cb c5 fe bd 70 2f 29 be
       -0.15981422 0.15100119 -0.1244007 -0.16522002
000340 f0 dd ce bd e4 e6 8b be 7d 04 a5 3d aa 32 c0 bd
       -0.10100925 -0.27324593 0.08057497 -0.093846634
000350 01 fd fa bd a3 48 0e 3d 33 51 51 3e fd aa b6 3d
       -0.12255288 0.03473724 0.20441131 0.08919332
000360 7f 5e 3c 3e 9b 71 90 3d df 12 9e 3e a7 cf 39 be
       0.18395422 0.070529185 0.30873773 -0.1814562
000370 7c aa 40 be 8d 08 9c 3d 70 10 d4 bb 85 df 07 be
       -0.18815035 0.076188184 -0.006471686 -0.1326886
000380 3d 65 7f be ea 78 31 be be 0b dc 3d 12 15 58 3d
       -0.24940963 -0.17331281 0.10744427 0.05275447
000390 ef 9d 84 bd ee f2 0d be 97 79 a3 3d ad 2c ff 3d
       -0.06475436 -0.13862202 0.07982176 0.12459693
0003a0 bd 0a 84 bd a4 7c 85 bc 03 b3 2a be 14 ac 8f bd
       -0.06447361 -0.016294785 -0.1666985 -0.07015243
0003b0 78 1b 55 be 35 ce 87 be f2 d9 a1 3d 53 ec 03 be
       -0.2081126 -0.2652451 0.07902898 -0.1288312
0003c0 41 92 7f be 21 26 9c bb e0 59 30 be 69 36 40 be
       -0.24958135 -0.0047652875 -0.17221785 -0.18770756
0003d0 96 d2 d9 3c c7 7c a5 3e 37 f8 0f 3e 3d 6a 3a be
       0.026589673 0.3232176 0.1405953 -0.18204589
0003e0 ad 93 19 be cb 1a 1f be ba cb 7e 3e 73 b0 ab 3d
       -0.1499774 -0.15537564 0.24882403 0.083832644
0003f0 a8 be a5 3d 14 79 89 be e3 92 80 be 47 64 84 bc
       0.080930054 -0.26850188 -0.25112066 -0.016161097

pre_processing_lin_layers.0.bias f4 [64]
000000 27 74 19 be b9 b8 5c ba 4e 5b ed 3d 53 75 d6 3d
       -0.14985715 -0.000841986 0.115896806 0.104715966
000010 f2 a4 88 be c6 45 f6 3d b1 eb 30 be 68 23 f3 bd
       -0.26688343 0.12025027 -0.17277409 -0.118719876
000020 a4 e1 e8 3d ce 54 e9 bc 4d 74 b0 bd 59 51 92 bd
       0.113711625 -0.02848282 -0.086159326 -0.07144422
000030 26 7f 41 be 87 b1 5d 3e 6b 5a 02 3e d3 75 01 be
       -0.1889616 0.21649753 0.12729804 -0.12642603
000040 a0 eb 3e 3e 66 a8 35 3e a0 e9 cb bd e9 d0 0d bd
       0.18644571 0.1774002 -0.0995667 -0.03462306
000050 88 d5 90 3d 54 6d 88 be a6 31 72 bd 15 f9 5f bd
       0.07071978 -0.2664591 -0.05912938 -0.054680903
000060 13 ad 54 3e f0 6c b4 3d aa 82 89 3e 13 17 00 be
       0.20769148 0.08809841 0.268575 -0.12508802
000070 a7 0b 17 3c 64 93 23 bd a3 d4 9e be 70 c1 56 be
       0.009219087 -0.039935485 -0.31021604 -0.20972228
000080 ac 3b 5f 3e 8e a2 be bd 24 8c 99 bd 92 87 28 3e
       0.21800107 -0.093083486 -0.07497433 0.16457966
000090 e6 a4 56 bd 51 6a 5d be 48 19 32 3e f4 94 1b bd
       -0.052403353 -0.21622588 0.17392457 -0.03798385
0000a0 f8 d1 7e 3d 39 1d b7 3d 05 d7 70 bd 63 8e 8a 3e
       0.06221196 0.08941121 -0.05879881 0.27061757
0000b0 64 39 27 be 29 73 47 3d d0 06 9b 3d 38 05 02 be
       -0.16330487 0.04869381 0.07569659 -0.12697303
0000c0 5c df 24 bd e9 59 fe bd 84 f2 63 3e 5b d2 b0 bd
       -0.040252075 -0.12419493 0.22260481 -0.08633872
0000d0 f4 bb 6c 3d 4c cc a6 ba d1 97 01 3e 2b 20 ec 3c
       0.057796434 -0.001272568 0.1265557 0.028823933
0000e0 32 ca 03 be 01 bb 93 be 41 c2 dd bc 82 0c 76 3e
       -0.128701 -0.2885361 -0.027070167 0.24028209
0000f0 e9 a7 ff 3d 3c 23 35 3e bb f7 ec 3d 72 b5 e2 3c
       0.12483198 0.17689222 0.11570688 0.02767441

pre_processing_lin_layers.1.weight f4 [64, 64]
000000 5f a8 7a 3d c4 80 59 3d b9 7c 6a 3b 90 8c 71 3d
       0.061195727 0.053101316 0.0035779907 0.05897194
000010 a4 e3 71 3d 00 be b6 bb cd 99 4f 3c da 79 68 3d
       0.059054986 -0.005576849 0.012670946 0.05675683
000020 8e 95 1a be 66 0b 86 3d d0 37 07 3d c3 aa 86 39
       -0.15096113 0.06545143 0.03301221 0.000256857
000030 85 77 58 3d 9f 79 52 3c d3 94 38 3d 72 90 0c be
       0.052848358 0.01284638 0.045063805 -0.13726977
000040 34 0e 9d 3c 01 e1 14 3e f4 5b 73 3d 74 1a fd bc
       0.019171812 0.14538957 0.059413865 -0.030896403
000050 4b 4d 42 3c ea 3c c5 3b 56 c3 17 bc 4b 4c f5 3d
       0.011859248 0.0060192244 -0.00926288 0.11977442
000060 e9 e8 96 bd 1f fa 10 bb a2 34 fc bd e4 7b a8 bd
       -0.07368643 -0.002212174 -0.123147264 -0.08226755
000070 dd 5d e1 bd 95 04 8f bd 89 04 92 3d 9e 2a 67 bc
       -0.11004231 -0.06983296 0.07129771 -0.014109282
000080 4d 2f a8 3d f0 0d b0 bc 17 ea 0a bd c3 35 0c 3e
       0.08212147 -0.02149102 -0.03391465 0.13692383
000090 d0 ef e7 bd 3d 63 67 3d ac 3b da bd bb 6c 6b 3c
       -0.113250375 0.056491125 -0.10655913 0.014369185
0000a0 69 49 f8 3d ba 83 2b be 31 0c 9c bd 1e ca a8 bd
       0.12123377 -0.16749468 -0.07619513 -0.08241676
0000b0 5b 0d 25 be 6a b2 10 3d 0c 79 ab 3d 28 0e 23 be
       -0.16118376 0.0353264 0.08372697 -0.15923369
0000c0 17 0a 9f bd 05 a4 90 3c e6 c6 63 bd 9a 1f 19 be
       -0.07765596 0.017656336 -0.055609606 -0.14953461
0000d0 09 0d 0c 3d dc d0 26 bd a8 d2 82 bc 6f 89 ae 3d
       0.03419212 -0.040726528 -0.01596959 0.08522307
0000e0 1c f9 1a be 5a c0 5b bd ec 3b 1d be a8 95 2d bd
       -0.1513409 -0.053650238 -0.1535489 -0.04237905
0000f0 e4 5c b2 bb cd 9a 05 3e 25 f7 6c 3d 28 c3 24 be
       -0.0054432023 0.13047333 0.057852883 -0.16090071
000100 cd 06 86 bd 49 29 52 3d be e1 f5 3d 84 c5 16 be
       -0.06544266 0.051308904 0.120059475 -0.14723784
000110 c1 2a 71 3d 1e 36 0e 3e 2f cd 8c 3b 75 f8 c1 bc
       0.058878664 0.13887832 0.0042969207 -0.023678044
000120 cc 1c 01 bd 22 7f 1e be 5a ed 44 3d 0e 24 da bc
       -0.031521603 -0.15478185 0.04807792 -0.02662852
000130 a0 65 c2 3d 7e 37 7c bd bb b9 1c 3d 15 9c fb 3d
       0.0949204 -0.06157636 0.038263064 0.1228563
000140 8d ac 32 bd b4 41 16 be cc ca 1c bd 52 37 46 3d
       -0.04362159 -0.14673501 -0.03827934 0.0483926
000150 c7 41 05 3d 45 51 bc 3b 1f 2c 1d be 5d 96 d6 bd
       0.032533433 0.005746993 -0.15348862 -0.10477898
000160 c2 83 fc bd a0 7a 34 3e 54 24 05 3e a7 3b f4 3c
       -0.12329818 0.17624903 0.1300214 0.0298136
000170 73 d1 b1 bd bd a5 83 bc 65 9c 75 3d 87 7e 30 3e
       -0.086825274 -0.016070241 0.059963603 0.17235766
000180 c4 51 1a be 52 62 89 3d f7 66 46 3d e1 9a ec 3c
       -0.15070254 0.06708206 0.04843804 0.028882446
000190 8c 84 a1 3a e5 01 0e bd 8a ff 85 bc 5b 8f 9d bd
       0.0012322827 -0.034669776 -0.016357202 -0.076933585
0001a0 4e 2f 69 bd b4 5d b1 3d 37 e1 ce bc c4 4f 11 be
       -0.05692988 0.086604506 -0.025253875 -0.14190584
0001b0 2a 1b 20 3e 60 c4 16 b9 dd bc 13 3d 2d 13 82 bd
       0.15635362 -0.0001437827 0.036068786 -0.06351314
0001c0 80 04 bb 3d de 3c 29 3d 62 25 bc bd cf 5f 82 b9
       0.09131718 0.041317813 -0.09186818 -0.00024866915
0001d0 92 b3 42 bb 26 8a 87 bd 83 c9 02 3e 75 5d 06 be
       -0.0029709083 -0.066181466 0.12772183 -0.13121589
0001e0 f9 22 19 3d 2c f0 39 bd 14 36 01 be b7 25 61 bd
       0.03738687 -0.04539506 -0.12618285 -0.05496761
0001f0 73 91 a1 bc 8d 63 cf 3c 96 75 61 bd a7 4b fa 3d
       -0.019722676 0.025316024 -0.05504378 0.12221461
000200 34 ad 7e 3d 8b 67 67 3d 85 6e ff bd d0 74 1a 3d
       0.062176898 0.05649523 -0.12472252 0.037709057
000210 10 fd a5 bd 27 7a 50 bd 9b 5a ea bd 9b c4 2d bd
       -0.081049085 -0.050897744 -0.11443063 -0.042423826
000220 ab 81 86 3d d8 a1 ec bc 44 d6 ab bd 4a 0c 83 bc
       0.06567701 -0.028885767 -0.08390477 -0.01599707
000230 13 c6 42 3d 23 f8 eb 3d 1c 28 13 bd eb 75 f7 3d
       0.04755218 0.11521938 -0.035926923 0.12083038
000240 67 62 9e bd a5 44 16 3d d0 7f e5 3d 4a 15 9e bd
       -0.077336125 0.03668656 0.11206019 -0.07718904
000250 c5 72 85 bd 65 33 41 3e c0 a5 b0 bd 63 97 f2 bb
       -0.06516031 0.18867262 -0.08625364 -0.0074033006
000260 a1 5a 97 3c c8 66 b1 3d 74 1b 29 3d fa c2 03 3b
       0.018475832 0.08662182 0.041285947 0.0020105229
000270 ba cc ed bc 05 5d bc bd ea 81 9f bd 65 3c a6 bd
       -0.029028285 -0.091974296 -0.07788451 -0.08116988
000280 c9 41 24 3e 92 85 c0 3b 17 5c db 3d 0a d1 42 3d
       0.1604072 0.005875298 0.10710924 0.047562636
000290 2f 63 bf bc 6a 63 60 3d 47 eb b0 3d 48 34 be 3c
       -0.023362724 0.05478231 0.086386256 0.023218289
0002a0 a3 75 e6 3d 97 35 86 bd 5d 35 c7 3d bb 25 91 3d
       0.11252906 -0.0655319 0.09726975 0.07087275
0002b0 f8 65 f9 3d b5 34 5c bd f7 6e e9 bc cd 5d 94 3d
       0.12177652 -0.053761203 -0.028495295 0.072444536
0002c0 7b 6e f9 bb 85 43 f6 bd b9 85 2b bd df 36 9f ba
       -0.0076120473 -0.12024597 -0.041875575 -0.001214709
0002d0 f2 9f 1f bd a4 1e dd bc 58 16 8b 3d 52 12 c3 3d
       -0.038970895 -0.02699215 0.06791371 0.09524979
0002e0 fe d1 24 be 62 90 85 bd 34 27 2d bd 08 e8 59 bc
       -0.1609573 -0.065216795 -0.042273715 -0.0132999495
0002f0 fd 97 6a bd 05 60 58 3d 1d cf d7 bd dd 03 8d 3c
       -0.057273854 0.052825946 -0.105375506 0.017213756
000300 0d 61 99 3c dc 5c 4f 3d 5b 59 85 bb 4f 4a 41 3c
       0.018723035 0.050625667 -0.00406949 0.011797502
000310 0d ed d2 bb 6a fd 72 3b 3d 88 1f 3e 5f e3 92 3d
       -0.00643695 0.0037077316 0.15579315 0.07172274
000320 8c d4 aa bc ba bf 3f bd 70 75 13 bd aa c5 99 3d
       -0.020853303 -0.046813704 -0.03600067 0.075084046
000330 15 3e f1 3d 47 ad c6 bd 77 5f e2 3b 1a 75 30 bd
       0.11779419 -0.09701019 0.006908353 -0.043080427
000340 46 86 0c be 7d 40 e2 3d ce c6 0b 3e 9d ce 7f 3d
       -0.13723096 0.110474564 0.13650057 0.0624529
000350 b2 83 79 3b 51 78 60 3c ca 33 81 3d fc 7c c3 3d
       0.0038072881 0.013700561 0.06308706 0.09545323
000360 5a a0 97 bd 71 ae 78 bd 61 f1 46 bd 23 81 b4 bd
       -0.074036315 -0.060713235 -0.04857004 -0.088136934
000370 88 44 18 3e 6e f5 9a bc 6a 2b ee 3d 90 25 0b 3e
       0.14869893 -0.018915858 0.11629374 0.13588548
000380 ec 2c 96 bd 47 2a 0b bd 2b a3 11 be 17 7a f2 bd
       -0.07332787 -0.033975866 -0.142224 -0.11839693
000390 27 ae 09 ba 2b e2 e2 bc 61 a8 5e bd d1 c6 aa 3d
       -0.0005252086 -0.027695736 -0.054359797 0.083387025
0003a0 eb d9 c6 bd 1f 64 b3 3c bd 8b 5e 3c 15 0f 0e bd
       -0.09709533 0.021898327 0.013583121 -0.034682352
0003b0 1c b4 c1 3b fc 0c b9 bd 73 a9 53 3d 9e 63 ef 3d
       0.0059113633 -0.0903568 0.05167527 0.11688922
0003c0 12 63 07 bd da 86 ae bd 41 49 14 3d 5c 59 93 3d
       -0.033053465 -0.08521815 0.036202673 0.07194778
0003d0 68 81 91 3d 83 ee 8e bc 0e 60 79 bb 4f 18 36 3c
       0.071047604 -0.017447716 -0.0038051638 0.011114194
0003e0 07 da 4e 3d f9 57 db 3d cf c2 2a 3e 7a e0 8d bc
       0.050500896 0.10710139 0.16675876 -0.017318953
0003f0 1a 71 ee 3c 42 60 df 3d 56 ad 96 3d 53 a4 cd 3d
       0.029106665 0.109070316 0.0735728 0.10041108

pre_processing_lin_layers.1.bias f4 [64]
000000 1b ed bd 3d e8 d8 a0 bd d8 d1 54 bd 1c e1 0c be
       0.0927374 -0.078538716 -0.051957935 -0.13757747
000010 21 1e d3 bd de 61 95 bc f9 f8 07 3e 6a e3 8e b9
       -0.10308481 -0.018235143 0.1327857 -0.00027253787
000020 1d 2e f6 bc 21 cd 70 3b 02 e7 05 3e c8 f1 f7 3d
       -0.030051285 0.003674336 0.13076404 0.12106663
000030 4a 5d a8 3d 28 ba 88 bd 37 56 8c bc a3 85 e8 3c
       0.082209185 -0.066761315 -0.017130954 0.028384035
000040 e3 f9 8f 3d a6 2d 8b bd 27 5c cc 3d d7 33 89 bc
       0.07030084 -0.06795816 0.09978514 -0.016748352
000050 19 2f fb 3d 40 78 fc bd 2e 1c 84 3c 4c 0e 0e 3e
       0.122648425 -0.12327623 0.016126718 0.13872641
000060 62 99 57 3b 1e 98 7b 3d 02 31 05 be 35 40 3b bd
       0.003289782 0.061424367 -0.13006976 -0.04571553
000070 66 e7 6d 3d ba 7f 8a 3b a4 42 94 3d 9d c8 e7 bd
       0.058082007 0.004226652 0.07239273 -0.11317561
000080 11 bb 43 3d 90 53 84 3d 01 25 76 bc 51 ef 01 3d
       0.047785822 0.06461251 -0.015023471 0.03172237
000090 2b ca 23 be a9 e1 8a 3d cc 3a ae 3d be a2 c4 bc
       -0.1599509 0.067813225 0.08507308 -0.024003383
0000a0 df f8 1f be f1 3d 00 3e e1 de 61 bd d2 ad 05 3e
       -0.1562228 0.12523629 -0.055144195 0.13054588
0000b0 f6 98 aa 3c 8a bc 0c bd 3e 10 e4 3d dc 74 d6 bd
       0.02082489 -0.034359492 0.111359105 -0.10471508
0000c0 ff 84 12 bd c3 f3 ce bd 5b 4b 1d be 3d ac 93 bb
       -0.035771366 -0.101050876 -0.15360777 -0.0045066164
0000d0 b5 07 8d 3d ce cb fe 3c 69 0b 29 3e 95 c2 13 be
       0.068862356 0.031103041 0.16508259 -0.14429696
0000e0 9b 49 9e 3d 0e 8e 02 be d5 c2 95 bd 62 27 62 3d
       0.07728883 -0.12749502 -0.07312552 0.05521334
0000f0 21 8d 71 3d ab b2 3e bd 80 09 57 3d 43 48 88 bd
       0.05897248 -0.04655711 0.052499294 -0.06654408

pre_processing_batch_norm.0.weight f4 [64]
000000 96 8b 74 3f 1d 2e 77 3f 4c 73 89 3f f6 dd 82 3f
       0.9552549 0.9655474 1.0738311 1.0223987
000010 57 10 7d 3f 93 a1 69 3f ee 35 88 3f f1 91 73 3f
       0.9885306 0.9126217 1.0641458 0.95144564
000020 f3 c1 77 3f 82 7e 83 3f 48 b3 78 3f 7a 07 84 3f
       0.9678032 1.0272982 0.9714856 1.0314782
000030 cb 82 71 3f 62 85 72 3f 78 61 6b 3f fb 39 7f 3f
       0.943402 0.94734776 0.919456 0.99697846
000040 55 da 87 3f 9d 90 8f 3f 06 c0 87 3f 18 38 7a 3f
       1.0613505 1.1216007 1.0605476 0.9774184
000050 9f 50 89 3f cd 06 86 3f 4a 26 8c 3f 35 20 74 3f
       1.0727729 1.0470825 1.0949185 0.95361644
000060 b9 38 86 3f a9 24 76 3f 30 1a 8e 3f 4c 4c 6c 3f
       1.048606 0.9614969 1.1101742 0.9230392
000070 14 23 8f 3f be cb 84 3f 20 be 82 3f d2 95 7a 3f
       1.118258 1.0374677 1.0214272 0.9788486
000080 a1 b9 89 3f 36 db 77 3f e0 07 8a 3f 8d 22 86 3f
       1.0759774 0.96818864 1.0783653 1.0479294
000090 92 33 82 3f 8c 89 75 3f 30 17 6d 3f 49 53 87 3f
       1.0171988 0.95913005 0.92613506 1.0572292
0000a0 0a c1 83 3f 1a db 77 3f e1 b0 71 3f a9 da 93 3f
       1.0293286 0.968187 0.9441052 1.1551105
0000b0 22 b4 88 3f 56 9b 87 3f 29 d6 6b 3f b6 40 7e 3f
       1.0679972 1.059428 0.9212366 0.9931749
0000c0 35 8c 70 3f b4 67 6b 3f 24 de 82 3f 73 f2 72 3f
       0.9396394 0.91955113 1.0224042 0.949012
0000d0 c9 8f 6d 3f 56 79 7e 3f 4d ea 7c 3f a3 a7 81 3f
       0.92797524 0.99403894 0.98795015 1.0129284
0000e0 08 c1 82 3f 46 af 8d 3f 59 24 80 3f 8b d0 82 3f
       1.0215158 1.1069114 1.0011092 1.0219892
0000f0 af b1 89 3f 64 67 79 3f 34 1a 7d 3f 4e a6 7c 3f
       1.075735 0.97423387 0.9886811 0.9869126

pre_processing_batch_norm.0.bias f4 [64]
000000 99 db 32 bd 29 a0 13 bd 50 05 58 3d 1c 79 0f 3c
       -0.043666456 -0.036041413 0.05273944 0.008756902
000010 d7 15 26 bd f5 21 97 bd df db 95 3d c7 9a 74 bd
       -0.04054817 -0.07379524 0.07317328 -0.05971792
000020 84 82 cb 3c b3 d6 4f bc ec 19 2e bd c4 bb 8c bc
       0.024842508 -0.012685466 -0.04250519 -0.017179377
000030 42 7f 21 bd c7 25 61 bd fb 5c 64 bd bd 8b 05 3d
       -0.039428003 -0.054967668 -0.055752736 0.032603968
000040 85 48 d0 3c d3 8b 0c 3d a3 c4 fa 3c 36 a4 fd bc
       0.025425205 0.034313034 0.030611342 -0.030962091
000050 c6 45 77 3d eb 51 0f 3d 16 2c 68 bd 04 f3 08 bd
       0.060369276 0.034990232 -0.05668267 -0.033434883
000060 c2 fe 25 3b 1b dc 7e bd f0 90 59 3d 73 c2 74 bd
       0.002532885 -0.062221628 0.05311674 -0.059755754
000070 d8 23 88 3c 09 43 e1 bc eb f7 87 3d 6e 53 58 bc
       0.016618654 -0.027497785 0.066390835 -0.013203485
000080 53 dd 89 3d 18 96 9f bc 14 a7 51 3d 45 83 39 3c
       0.06731667 -0.01948075 0.05118473 0.011322801
000090 6c 84 51 3c bc 5a 21 bd 9d c7 2a bd eb cb 32 3d
       0.0127879195 -0.03939317 -0.041694272 0.043651503
0000a0 03 e6 b9 3d 63 d0 ae bc c8 ee 40 bd c3 b8 82 3d
       0.090770744 -0.0213396 -0.04710272 0.06382897
0000b0 5c bc 87 3d 3b 1f 6f 3c 24 f8 af bd 81 bc 01 bd
       0.066277236 0.014594848 -0.08592251 -0.031673912
0000c0 df 82 81 bd cd b0 8b bd 14 08 a8 3d 0d ab fa bc
       -0.0632379 -0.068208314 0.08204666 -0.030599141
0000d0 c0 dc f1 bd 24 31 c9 bc 50 5f 91 bc 80 fa 98 3c
       -0.11809683 -0.024559565 -0.017745644 0.018674135
0000e0 43 95 94 3b b2 1e c2 3d 07 12 31 bd 4a 70 39 3a
       0.004534395 0.09478511 -0.043230083 0.00070739223
0000f0 dd 5e f5 3c 33 a0 46 bd 5e ef 96 3d 96 d0 0a bc
       0.02995246 -0.04849262 0.073698744 -0.008472582

pre_processing_batch_norm.0.running_mean f4 [64]
000000 fe 5d 17 be 67 c3 b4 bb 09 e8 ed 3d b9 63 d8 3d
       -0.14781949 -0.005516458 0.11616523 0.105658956
000010 b1 dd 88 be f4 52 f5 3d 9d 34 31 be 92 df f3 bd
       -0.26731637 0.11978713 -0.17305227 -0.11907877
000020 ca ee eb 3d f5 dc e3 bc 3d b5 af bd 33 95 9a bd
       0.11520155 -0.027815321 -0.0857949 -0.07547989
000030 fa 8a 41 be 4e e9 5d 3e 0d 1f 06 3e a9 eb 01 be
       -0.18900672 0.2167103 0.13097782 -0.12687553
000040 f4 cc 38 3e e2 63 34 3e 97 30 cc bd b5 47 24 bd
       0.18046933 0.17616227 -0.09970205 -0.040107448
000050 69 a8 8b 3d 49 af 88 be 65 b3 6e bd cd 36 5e bd
       0.06819231 -0.26696232 -0.058276553 -0.05425148
000060 13 d8 54 3e d5 fa af 3d 05 1e 87 3e 44 6f ff bd
       0.20785551 0.08592764 0.2639009 -0.12472394
000070 a8 22 10 3c ce 9a 25 bd 6f 65 9f be e5 7d 56 be
       0.008797325 -0.040430836 -0.31132075 -0.20946462
000080 c1 73 5e 3e bd 64 bd bd 1a 19 9b bd fc 08 28 3e
       0.21723844 -0.0924773 -0.07573147 0.16409677
000090 c3 62 4b bd c1 d6 5c be b1 d0 38 3e 50 34 17 bd
       -0.049654733 -0.21566297 0.1804836 -0.036915123
0000a0 63 c8 79 3d 32 81 b5 3d ff 71 6a bd b8 84 8a 3e
       0.06098212 0.08862533 -0.05723762 0.2705438
0000b0 17 9e 27 be f1 88 42 3d 40 80 9d 3d 59 a0 01 be
       -0.163689 0.04749388 0.07690477 -0.12658824
0000c0 ec a3 39 bd e7 bd fc bd b5 93 63 3e 32 e0 af bd
       -0.045322344 -0.123409085 0.22224315 -0.08587684
0000d0 8e 45 71 3d 9f 18 98 3a 4b d3 00 3e ac 3d f0 3c
       0.058904223 0.0011604017 0.12580602 0.029326282
0000e0 47 88 04 be 98 59 94 be e2 84 e1 bc 6c 81 74 3e
       -0.1294261 -0.28974605 -0.027529184 0.23877496
0000f0 54 50 fe 3d a6 07 35 3e 18 99 ec 3d bc 02 ee 3c
       0.12417665 0.17678699 0.11552638 0.029054038

pre_processing_batch_norm.0.running_var f4 [64]
000000 74 d5 24 3f 03 63 a9 3e 3d 6f 50 3e e1 15 0d 3f
       0.64388204 0.33083352 0.20354934 0.5511151
000010 e4 10 46 3e 0d 8f 02 3f bb 81 81 3e 42 df 03 3f
       0.19342381 0.5099953 0.2529429 0.5151254
000020 15 00 6e 3f 8c 52 16 3f 2a aa 80 3e 3d 57 16 3f
       0.92968875 0.58719707 0.25129825 0.58726865
000030 4c 74 a6 3e e8 fc e6 3e 10 a7 fd 3e ab a9 25 3e
       0.32510602 0.45114827 0.4954152 0.16178004
000040 5f a2 33 3f f1 12 0b 3e 4d 8b 41 3e 0d 5c 60 3f
       0.70169634 0.13581444 0.18900795 0.8764046
000050 06 71 b7 3e 30 22 65 3e 98 0b 94 3e 18 2f 39 3e
       0.35828418 0.22376323 0.28915095 0.18084371
000060 0b dd b7 3e 94 69 5a 3e 1b df 20 3f d3 62 04 3f
       0.3591083 0.21329337 0.6284043 0.51713294
000070 5b 5d 1a 3e f9 e2 fa 3e e4 d1 48 3e 4d a4 3f 3f
       0.15074675 0.4900129 0.19611317 0.7486008
000080 36 67 8f 3e ff b4 d0 3e a6 cb 94 3e 8e e3 63 3e
       0.2800843 0.4076309 0.2906162 0.22254774
000090 ea 3a 95 3e b0 fc 70 3e 22 1c 5d 3f b3 c3 c2 3e
       0.2914651 0.23533893 0.8637105 0.38039932
0000a0 32 f8 7b 3e 03 c8 10 3f 66 d0 b7 3e 7e 73 0a 3f
       0.24606398 0.56555194 0.35901183 0.5408248
0000b0 75 67 96 3e 46 0f 09 3f a7 a3 5c 3e ba ec 87 3e
       0.29375806 0.5353893 0.21546803 0.26547796
0000c0 70 ce f0 3e 91 f9 57 3e 0a 69 11 3f 4a 3c 1b 3f
       0.470325 0.21091296 0.568009 0.6063887
0000d0 cb 86 36 3f 25 64 ca 3e 5d 6c 8b 3e c9 99 58 3e
       0.7129943 0.3952953 0.27231112 0.21152414
0000e0 62 93 91 3e a7 dc 41 3e 9b 17 b4 3e 33 8a e0 3e
       0.28432757 0.18931828 0.3517426 0.43855438
0000f0 f2 76 12 3f 29 10 11 3e 02 75 c2 3e 05 1c dd 3e
       0.57212746 0.14166321 0.37979895 0.4318544

pre_processing_batch_norm.1.weight f4 [64]
000000 09 52 70 3f 8f e7 6c 3f f3 6a 70 3f be e0 88 3f
       0.93875176 0.9254083 0.9391319 1.0693586
000010 e7 46 7a 3f fc b9 79 3f 93 4f 83 3f 04 a5 77 3f
       0.9776444 0.97549415 1.0258659 0.9673617
000020 d8 db 81 3f 20 b2 83 3f 25 fe 74 3f ef 52 7f 3f
       1.0145216 1.0288734 0.95700294 0.9973592
000030 59 c8 76 3f 80 08 80 3f 3e d6 84 3f ef 4a 7d 3f
       0.96399456 1.0002594 1.0377882 0.98942465
000040 7e a9 86 3f d5 d8 79 3f 13 e6 82 3f 8b 72 82 3f
       1.0520475 0.97596484 1.0226463 1.0191206
000050 26 7b 8e 3f 95 b1 78 3f 41 59 8f 3f 41 04 78 3f
       1.1131332 0.9714597 1.1199113 0.9688149
000060 29 f0 86 3f d0 f9 6d 3f 38 c5 80 3f 68 3f 75 3f
       1.0542041 0.9295931 1.0060186 0.95799875
000070 8f 88 89 3f ed 55 79 3f 8b cd 7e 3f 72 3d 72 3f
       1.0744799 0.9739674 0.99532384 0.9462501
000080 cc 77 76 3f 8e 72 7d 3f 0f a8 7f 3f 6b 5c 82 3f
       0.96276546 0.9900292 0.9986581 1.0184454
000090 0b c2 83 3f cd 06 80 3f 36 55 7f 3f a4 61 7a 3f
       1.0293592 1.0002075 0.99739397 0.9780524
0000a0 7f a6 7f 3f 9e 06 74 3f a7 f1 81 3f 17 3b 8a 3f
       0.9986343 0.953226 1.0151871 1.0799283
0000b0 05 a1 74 3f 82 01 85 3f a0 2d 6f 3f a7 c8 76 3f
       0.95558196 1.0391085 0.93428993 0.9639992
0000c0 18 2c 78 3f df 40 84 3f 08 b9 70 3f c5 b5 82 3f
       0.9694228 1.0332297 0.94032335 1.0211722
0000d0 0e 91 85 3f cf 99 84 3f 4f 7d 70 3f 22 4f 79 3f
       1.0434892 1.0359439 0.93941206 0.9738637
0000e0 54 2c 8b 3f f6 ed 88 3f e2 ea 82 3f ce 8c 83 3f
       1.0872903 1.069762 1.022793 1.0277345
0000f0 3a 83 81 3f dc 4b 81 3f d3 30 7d 3f 5b aa 81 3f
       1.0118172 1.0101275 0.98902625 1.0130113

pre_processing_batch_norm.1.bias f4 [64]
000000 d4 9a e4 3d ab 9f 57 bc d4 f3 88 bb 62 09 21 3e
       0.111623436 -0.013160626 -0.004179457 0.15726236
000010 89 0e b9 bd dc 90 d6 bd 5b 7b b7 3d 51 81 e4 3c
       -0.090359755 -0.104768485 0.08959075 0.027893694
000020 d3 5a 21 be 54 1e 18 3e f7 33 0a bd dc 6c b6 bd
       -0.15757303 0.1485532 -0.033740964 -0.08907482
000030 49 1d d3 bd 67 7d 9e 3d 38 64 41 be ca 5e 21 3d
       -0.1030832 0.07738762 -0.18885887 0.03939704
000040 4c dc 8a bd 36 14 11 3e ec ea 8d bd e7 47 54 3d
       -0.067802995 0.14167866 -0.069295734 0.051826384
000050 b4 63 31 3d 5d d6 15 3a 64 32 d7 3d ee 33 2b be
       0.043307975 0.00057158415 0.10507658 -0.16719028
000060 5f 81 24 3e e4 ad 9f 3c 35 31 e8 3d 0a 28 dc bb
       0.16064976 0.019492097 0.113375105 -0.00671864
000070 b0 bc 0f 3e 00 7d bc 3c 46 ba 24 be 34 07 02 be
       0.14036822 0.023008823 -0.16086683 -0.1269806
000080 2f c0 f4 3d 05 60 c7 3d 40 41 bc 3b e7 ce 06 3e
       0.119507186 0.09735111 0.005745083 0.13164864
000090 9a 01 f8 bc a8 b4 81 3d dc ab cd bd ae 65 52 3d
       -0.030274201 0.063332856 -0.10042545 0.0513665
0000a0 ef cb ff bd f6 4c 46 3d d4 75 a6 bb 25 31 b9 bd
       -0.12490069 0.04841324 -0.005079964 -0.09042577
0000b0 82 7c f1 bd 9b 52 41 3e 56 5f f7 bc 99 cd 8f 3d
       -0.11791326 0.18879168 -0.030196827 0.070216365
0000c0 01 b4 0d 3e d6 b0 02 be 8e 25 c1 bc bc 92 20 be
       0.13838197 -0.1276277 -0.023577478 -0.15680975
0000d0 41 01 35 bd 45 9a 07 be 11 53 24 3d e9 d0 e4 bd
       -0.04419065 -0.13242443 0.04011828 -0.11172659
0000e0 ea 77 24 3d 20 09 f6 3d 6c 34 1e bb f4 26 96 3c
       0.04015342 0.12013459 -0.0024140133 0.018329121
0000f0 d9 92 ff bd 42 d2 d5 bd 73 9f 43 3e dd d4 c7 3d
       -0.12479181 -0.10440494 0.19103794 0.09757397

pre_processing_batch_norm.1.running_mean f4 [64]
000000 05 0f 58 be 53 ab 0a be 44 4d 47 3d a8 88 28 3e
       -0.2109948 -0.13541918 0.04865767 0.1645838
000010 e1 10 26 ba 72 92 df be df dd db 3e 76 b8 ad be
       -0.00063349126 -0.43666416 0.42942712 -0.33929795
000020 ad 00 8f be 84 0d ed be 76 07 15 3f 95 54 21 3f
       -0.27930203 -0.46299374 0.5821451 0.63019687
000030 35 46 80 bd eb 18 01 bf 10 b3 0e bf e0 d9 0d 3e
       -0.06263391 -0.50428647 -0.5574198 0.13852644
000040 8e b5 0d 3f 26 af 84 be 05 57 37 3f 9f c8 3e 3f
       0.55355155 -0.25914878 0.71617156 0.74524873
000050 53 42 22 3f fa 3f ca be ce 41 a4 be 1d bf 2e 3f
       0.6338245 -0.39501935 -0.32081455 0.68260366
000060 0d e2 07 3e aa 7e b5 bd c0 b7 3e 3e a1 36 79 be
       0.13269825 -0.0886205 0.18624783 -0.24337246
000070 ce e1 ca 3e a7 55 28 bc 66 af 8c bd 98 a2 c0 3e
       0.396254 -0.010274327 -0.06869392 0.3762405
000080 58 50 c3 be be da 79 3e c0 fe e8 3d 3c 02 6d 3e
       -0.38147235 0.2439985 0.11376715 0.23145384
000090 a2 3e 20 3c 9f 44 4f 3e 79 30 11 be 07 19 d2 3d
       0.009780558 0.2024102 -0.14178647 0.1025868
0000a0 c1 4f 76 be 2e 11 7b 3e 86 c9 79 be 7a 76 9c 3d
       -0.24053861 0.24518272 -0.24393281 0.07639785
0000b0 34 45 69 be f4 fe 21 bc 05 cd 82 3d 13 1a 7d 3d
       -0.22780305 -0.009887446 0.063867606 0.061792444
0000c0 68 1a 15 be 9d 9f 94 3e 5d ce b1 bd cc cd 8b bd
       -0.14560854 0.29028025 -0.08681939 -0.06826362
0000d0 72 e7 c6 3e 89 c2 0c 3f 30 56 91 bc b2 f0 88 3d
       0.38848454 0.5498434 -0.017741293 0.06686534
0000e0 dc ab ad bd 4d 2a 1f bd f6 5b 24 be 82 d1 87 3e
       -0.08480045 -0.0388587 -0.16050705 0.2652703
0000f0 eb db 6e 3e 10 0d ec be 48 4b 23 be 19 e0 38 3d
       0.2332608 -0.46103716 -0.15946686 0.04513559

pre_processing_batch_norm.1.running_var f4 [64]
000000 b9 eb 0c 3f f6 06 94 3f 3e 3d 85 3e ed 09 0f 3f
       0.55047184 1.1564624 0.26023287 0.5587452
000010 2c b2 83 3f 64 d3 5e 3f 70 30 df 3e 86 e1 2a 3f
       1.0288749 0.87041306 0.43591642 0.6675037
000020 8d 3b 29 3f 4d 37 66 3f 82 3b 0b 3f 33 50 8e 3f
       0.6610649 0.8992813 0.54387677 1.1118225
000030 db 2b 09 3f ab 0a 66 3f 24 18 4b 3f b4 dc ac 3e
       0.53582543 0.8986003 0.7933371 0.33762133
000040 9d bc 4c 3f 8b bc 74 3f df c8 57 3f 95 4a 93 3f
       0.799753 0.95600194 0.8429088 1.1507136
000050 7e ca 7b 3f b6 20 08 3f 8e 85 46 3f 33 eb dd 3e
       0.98355854 0.5317491 0.7754754 0.43343505
000060 fa 1b 48 3f 9a 3e f7 3e bf e1 2f 3f a7 84 70 3f
       0.7816769 0.4828995 0.68703836 0.9395241
000070 a4 2a 3f 3f 58 6f fe 3e 30 79 f4 3e 89 2b 06 3f
       0.7467444 0.49694324 0.4774871 0.5241018
000080 c5 0e c2 3e ab b5 a8 3e fb f5 b1 3e d1 43 23 3f
       0.37901893 0.32951102 0.3475798 0.63775355
000090 d5 36 0d 3f dc 2b 11 3f 2b 4f 11 3f c9 78 55 3f
       0.5516179 0.5670755 0.56761426 0.8338743
0000a0 06 8b 13 3f 1d 26 49 3f 89 19 0c 3f 71 73 40 3f
       0.5763401 0.7857378 0.54726464 0.7517615
0000b0 67 24 5c 3e 8f ef 68 3f 0d 73 e0 3e 1f 76 fc 3e
       0.21498261 0.9099054 0.43837777 0.4930887
0000c0 d7 2c b9 3e 8f 8d 14 3f c2 e4 41 3f ee b7 1d 3f
       0.36167023 0.580285 0.7573968 0.6160878
0000d0 e9 57 26 3f 71 e7 53 3f b5 79 cf 3e 08 70 11 3f
       0.6497789 0.82775027 0.40522543 0.5681157
0000e0 4c 9a 3c 3f 41 49 47 3f f6 12 fe 3e 1e dd 22 3f
       0.7367294 0.7784615 0.4962384 0.6361865
0000f0 ef cc 6d 3f fc 11 1f 3f 87 82 0f 3f ad 65 26 3f
       0.9289083 0.62136817 0.56058544 0.64998895

post_processing_lin_layers.0.weight f4 [64, 64]
000000 89 f4 65 bb 06 ed ca bc 5f af 23 3d b3 de c5 bd
       -0.0035088381 -0.024771225 0.03996217 -0.09661617
000010 b0 a3 07 3e 9d a9 e2 3c d1 0f 42 3c 20 8d 01 bd
       0.13246036 0.027668769 0.011844591 -0.031628728
000020 63 32 6c bd e3 b4 e1 bd d2 fe 44 3b 81 a0 d9 bc
       -0.05766524 -0.110208295 0.0030059111 -0.026565792
000030 7e 76 fb bc 2c 4b ea bc 5d fb dd bd 0d bb c1 3d
       -0.03069615 -0.028600298 -0.10838959 0.09459505
000040 66 a5 fb bc 18 5e 1f 3e 6a 54 1b be da fb 7f 3d
       -0.030718517 0.15563238 -0.1516892 0.062496044
000050 4a 8e cb bd 9c c4 71 3d 24 24 d6 3c 21 c8 d8 bb
       -0.09939249 0.059025392 0.02614028 -0.006615654
000060 00 19 3b bd 7e 32 3d bd b9 14 b6 bd 01 b7 53 3d
       -0.04567814 -0.04619073 -0.08890671 0.051688198
000070 63 f7 e4 bd c1 1b e4 3d a2 d3 46 3d f5 92 b3 bd
       -0.11179998 0.11138106 0.048541673 -0.08768264
000080 5a 59 57 3d 1c 6d 2c be 50 16 82 3d d1 3f 68 bd
       0.052575447 -0.16838497 0.06351912 -0.056701485
000090 98 74 78 3d 6a 29 c8 bd 36 1a 7e 3d a7 22 9a bd
       0.060658067 -0.09773524 0.062036715 -0.07526141
0000a0 87 be 31 3e 09 0b ed bd a7 f9 23 bd 8a 87 1b 3e
       0.17357837 -0.115743704 -0.04003301 0.15188423
0000b0 44 a1 8b bd c4 26 03 be 2e 15 22 bc e7 34 ca bc
       -0.06817868 -0.12807757 -0.009892745 -0.024683429
0000c0 33 ff 85 bd b6 76 53 3c 8e 32 ff bb a4 79 c4 3c
       -0.06542816 0.012906721 -0.007788009 0.023983784
0000d0 c4 2c 21 3c db bb d9 3d e1 03 6b bd 85 36 5e 3d
       0.009837333 0.10631534 -0.057376746 0.054251213
0000e0 7d 75 e8 bd 49 82 f4 bc 8e 06 c0 3c 8f 6b 9c bd
       -0.11350534 -0.029847281 0.023440626 -0.07637703
0000f0 87 52 f2 3c 3b d4 45 3e b2 ca 80 3c 9d dc d9 bd
       0.029580368 0.19319241 0.015721653 -0.10637782
000100 df 1c 98 3d ea 27 75 3d f3 06 d6 3d 1e 1f 9a 3c
       0.07427382 0.05985252 0.10450544 0.018813666
000110 79 39 1e be 24 32 80 3d 45 18 1d bd 2f b6 ef 3d
       -0.15451612 0.062595636 -0.038353223 0.11704671
000120 12 e0 87 bd bd 1b b9 bb fd 1c 84 3d 51 fb fa bc
       -0.06634535 -0.0056490586 0.064508416 -0.030637415
000130 96 e4 74 3d d6 0a 62 bc 2d aa 8b bd 00 27 99 bd
       0.05978831 -0.013796529 -0.06819568 -0.07478142
000140 ae 62 74 3d d2 6f cc bd 9e 70 9a 3c 6c 5c f2 bc
       0.05966442 -0.099822655 0.018852528 -0.029585086
000150 7b c0 1a be 99 0a ea bb 73 d8 19 3e 11 f2 8a 3d
       -0.15112488 -0.0071423766 0.15023975 0.06784452
000160 7b 0c de 3d 4c b3 91 bc 29 96 91 3c dd fb be 3d
       0.10842224 -0.01778569 0.017771797 0.09325383
000170 4b 04 70 bd 2d 1b 5e bd e9 d4 fb bd ce 78 37 3d
       -0.058597844 -0.054225136 -0.12296469 0.044792943
000180 64 76 f9 bd 9a d8 1d 3d 34 e6 94 bd 9d 91 ce 3d
       -0.12180784 0.038536645 -0.0727047 0.10086367
000190 7f b1 9e 3d d5 a1 c4 3d 44 65 60 bd fd 59 05 3d
       0.077486984 0.096011795 -0.054784074 0.032556523
0001a0 b1 34 b8 3d 2b 2b cd 3d 9f 12 84 3d 1e 50 8c bd
       0.08994425 0.10017999 0.06448864 -0.06851219
0001b0 52 df bf bc 12 2e b6 3d 79 46 95 3d e5 61 a2 3b
       -0.023421917 0.08895506 0.07288832 0.0049555176
0001c0 d1 cb ed 3d 4c d3 32 3c 5d e4 c9 bd 28 d0 21 bd
       0.116111405 0.010914635 -0.0985801 -0.039505154
0001d0 98 81 2b 3d dc 4d df bd e2 91 0d 3d a2 e4 6b 3d
       0.041871637 -0.10903522 0.034562953 0.057591088
0001e0 8e d1 1b 3e a3 11 0a 3e 29 51 bb 3d ea 81 c2 3d
       0.15216658 0.1348329 0.091463394 0.094974354
0001f0 f0 ef de bd 91 f6 80 3d 32 bd 8e 3d 3d 7a 2d bd
       -0.10885608 0.06297029 0.0696968 -0.042352904
000200 3e b6 a3 3d 63 75 ee 3c a5 25 94 3d e6 84 25 3d
       0.07993744 0.029108709 0.072337426 0.040409945
000210 5d 87 14 3d 23 21 e2 3c 07 b2 3c 3c 50 27 95 3d
       0.036261905 0.027603691 0.011517054 0.07282889
000220 89 b3 20 bd 18 69 2f 3c d9 da 08 3d 47 d9 fa 3c
       -0.039233718 0.010706209 0.033411834 0.030621184
000230 39 a2 c2 3d 65 7a 84 3d c0 52 7a 3c 12 ac c6 3d
       0.09503598 0.064686574 0.015278518 0.097007886
000240 ef 07 bb 3d 25 61 14 be 30 1d ac 3d 65 c4 b0 bd
       0.091323726 -0.14490183 0.084040046 -0.08631209
000250 b6 2b 9e 3d c6 e9 f6 bc e7 59 e9 3d 71 b5 f0 3d
       0.07723181 -0.030140769 0.11394101 0.11753357
000260 b5 4a ed 3d 7e 6b 79 bd 37 ca 16 bd b0 80 9a 3c
       0.11586515 -0.06089353 -0.03681394 0.018860191
000270 e0 95 f3 bb cf d0 e6 bd c9 9e 8d bc 14 c7 25 3e
       -0.007433638 -0.11270296 -0.017287629 0.16189224
000280 1e 20 84 bd 5e ef aa 3d 4f 35 2f bc 7a 7c b1 3d
       -0.06451438 0.08346437 -0.010693862 0.0866632
000290 11 54 14 be be 74 b8 3d e8 dd 32 bd 5f 26 07 3e
       -0.14485194 0.09006642 -0.043668658 0.13198231
0002a0 22 57 16 3d 69 7f 07 3e 40 9a 21 3d 9e 8f 96 bd
       0.03670419 0.13232197 0.039453745 -0.073516116
0002b0 be c2 6c 3c 62 f6 9e 3d 9f 67 a9 3d 7e 4f a1 3c
       0.014450727 0.077618375 0.08271717 0.019691225
0002c0 62 ac 34 bd 7c e3 0f be 6a 6c 3c bd f2 7c 63 3b
       -0.04410971 -0.14051622 -0.04600183 0.0034711924
0002d0 09 34 5a 3d 75 0d 4c bd 07 42 b1 3d 74 54 99 3d
       0.05327228 -0.04981752 0.08655172 0.07486811
0002e0 4d 80 1b 3e 48 eb f6 3d 23 83 e4 bd 90 8c b8 3d
       0.15185662 0.12056595 -0.11157825 0.09011185
0002f0 0a 26 c9 bd f2 5b e9 bd d8 2c 10 3e be 81 00 3e
       -0.098217085 -0.1139449 0.14079607 0.12549493
000300 58 c3 be bd 8a 0a 9e bc 19 50 c7 bd 30 3f e3 bb
       -0.093146026 -0.019292135 -0.09732074 -0.006935023
000310 30 7e eb 3d 02 fb 1d bd 99 ea db 3b d6 59 0c be
       0.11498678 -0.038569458 0.006711316 -0.13706145
000320 11 4f 83 3d 2a 2a 1a 3e 04 ea c9 bd 64 f6 9b 3d
       0.06411565 0.15055147 -0.09859088 0.07615355
000330 2e fa 57 3d a7 e3 57 bc bc 20 09 3c 6b 55 d8 bd
       0.052728824 -0.013176835 0.008369621 -0.10563167
000340 c4 ab fc 3d 88 e2 66 bd ae 29 bd bc c7 e7 11 3e
       0.12337449 -0.05636838 -0.023091163 0.14248572
000350 bc ab 94 3d 41 b7 a3 bc fa 58 2e 3d 84 cb 23 3c
       0.07259318 -0.019984843 0.042565323 0.009997252
000360 2d 12 3c be a6 fd cf 3d 34 17 3f bd 91 2c 8d bd
       -0.18366309 0.101558015 -0.046652988 -0.06893266
000370 f8 bd 6a 3d e8 2a 72 bd ab bc 5e 3d ff 13 56 3d
       0.057310075 -0.05912295 0.054379147 0.052265164
000380 dd 5c e5 3d 56 9e 92 3d 32 4b 85 3d 3a 5a d8 bd
       0.11199353 0.071591064 0.06508483 -0.10564084
000390 b6 9b db 3d 29 a6 99 bd 8a 0a c8 3d 42 fd 02 3d
       0.10723059 -0.07502396 0.09767635 0.031979807
0003a0 17 53 2c 3d b1 11 8b bd 9c 4e 86 bd a2 80 b5 3d
       0.04207143 -0.06790484 -0.06557962 0.088624254
0003b0 44 20 6b bd d7 58 b4 bc 76 52 57 3c f4 2e 0d 3d
       -0.057403818 -0.022015018 0.013142219 0.034468606
0003c0 3e f3 36 bd 4c f2 d5 3d f1 6b c9 3b 18 c3 dd 3d
       -0.044665568 0.10446605 0.006146901 0.10828227
0003d0 9f 8b d4 3d c1 57 89 3c 0f a2 40 bd 38 94 95 3d
       0.10378193 0.016765477 -0.04702955 0.07303661
0003e0 8e 20 3c 3c f6 b6 a0 bc 1e c4 bb 3c ed 10 22 3d
       0.011482371 -0.019618493 0.022920664 0.039566923
0003f0 a8 01 15 3e 9e d7 22 bd 55 5e bf bd dc dd 95 bc
       0.14551413 -0.03975641 -0.09344164 -0.018294267

post_processing_lin_layers.0.bias f4 [64]
000000 2f 41 42 3c 9b 44 f7 bd 3d 6c 94 bd be f2 13 be
       0.011856361 -0.12073632 -0.07247207 -0.14448068
000010 5e 29 cc 3d fc 35 23 3c 7d 0d ad 3d 0c 60 84 bb
       0.09968828 0.009961601 0.08449838 -0.00403977
000020 eb 38 c1 3d c6 86 4b 3c 0f f4 86 3b 68 14 e3 3d
       0.09434684 0.012422269 0.0041184495 0.110878766
000030 0c b8 f5 3c ac cc 8f bd 80 bd 73 bd aa 10 15 3e
       0.029994987 -0.0702146 -0.059506893 0.14557138
000040 7c cd d2 bd 38 86 e1 bd 48 2c 60 bd d9 6e b1 bc
       -0.10293099 -0.11011928 -0.05472973 -0.021659302
000050 bc c9 07 3d ba 6b 22 bc d4 9a 96 3d e0 af c2 3d
       0.033151373 -0.009913379 0.0735375 0.09506202
000060 47 db 09 3e de 84 19 bb 02 9e 0e be 73 c7 e0 3c
       0.13462554 -0.0023425142 -0.13927463 0.027438855
000070 88 7c 12 3e 12 b7 15 3a e2 9d 97 bd fc 72 ea bd
       0.14305317 0.00057111785 -0.07403161 -0.11447713
000080 f8 e0 e4 3d 3e 3d d9 bd 11 38 e3 bd 3d a1 f4 bc
       0.11175722 -0.10607384 -0.11094678 -0.02986204
000090 a8 f3 07 be c8 44 92 3d 73 71 76 3c 51 88 ec 3c
       -0.13276541 0.07142025 0.015041697 0.028873594
0000a0 cb 3e bd 3c 68 90 ee 3d 09 18 54 3c 4f 40 43 3c
       0.023101231 0.11648637 0.012945184 0.011917188
0000b0 9b bd 10 3d 27 66 f9 3d 64 11 06 bd 6a 81 f8 bd
       0.035337072 0.12177687 -0.03273143 -0.12134059
0000c0 b2 d8 e7 3c f8 13 59 3d 14 29 cb bd 49 aa c2 3d
       0.02830157 0.05299756 -0.099199444 0.095051356
0000d0 41 6f 80 3d cb 08 93 3d 3c e4 a6 bd 15 99 d4 ba
       0.0627122 0.071794115 -0.08149001 -0.0016219938
0000e0 e6 2f cc 3c 9e b8 b8 bd 12 64 aa 3d 80 42 0e be
       0.024925184 -0.09019588 0.08319868 -0.13892555
0000f0 01 93 b9 3d 19 de b1 3c e9 a5 a5 bc 17 b0 7d bd
       0.09061242 0.02171235 -0.020220714 -0.06193551

post_processing_batch_norm.0.weight f4 [64]
000000 23 21 61 3f 3e 67 6d 3f 1e 19 6f 3f c3 cd 5b 3f
       0.8794119 0.9273566 0.933977 0.8586084
000010 36 af 6d 3f 3c 00 6a 3f 87 59 5e 3f 11 0e 67 3f
       0.92845476 0.9140661 0.8685536 0.9025584
000020 28 cc 71 3f c6 c7 69 3f 4c b1 62 3f e6 08 6d 3f
       0.9445214 0.91320455 0.88551784 0.925917
000030 b4 c4 5e 3f 2e 9d 64 3f 88 96 69 3f dc e2 77 3f
       0.87018895 0.8930234 0.9124532 0.96830535
000040 14 55 6c 3f ee d1 69 3f 17 10 6d 3f 69 7c 64 3f
       0.9231732 0.9133595 0.92602676 0.89252335
000050 cb e8 60 3f 36 7e 5e 3f 34 79 6a 3f 7b ae 6b 3f
       0.87855214 0.8691133 0.9159119 0.9206311
000060 22 7d 70 3f 8b d1 58 3f 03 9b 6c 3f 9a eb 61 3f
       0.9394094 0.8469474 0.9242403 0.88250124
000070 2e 1d 66 3f d0 87 6c 3f d4 5b 64 3f 82 ab 70 3f
       0.89888275 0.92394733 0.8920262 0.940117
000080 d5 3a 66 3f 43 0c 5f 3f 52 ba 61 3f 65 f5 6e 3f
       0.8993352 0.87128085 0.8817493 0.9334319
000090 5c 24 66 3f 15 af 59 3f 37 8d 5d 3f 0b e9 73 3f
       0.8989923 0.8503278 0.865436 0.9527747
0000a0 80 c6 77 3f 5c 77 67 3f 30 77 6a 3f d1 3b 73 3f
       0.9678726 0.904165 0.91588116 0.9501315
0000b0 50 bb 71 3f 30 c7 60 3f 5d be 63 3f 81 0a 6f 3f
       0.9442644 0.87803936 0.88962346 0.933754
0000c0 4b 80 5a 3f 46 ae 6c 3f 8b 61 6b 3f 09 dc 62 3f
       0.8535201 0.9245342 0.91945714 0.88616997
0000d0 99 03 6d 3f 66 8c 52 3f b2 15 78 3f 60 fa 6b 3f
       0.92583615 0.8224548 0.96908104 0.92178917
0000e0 27 6e 71 3f c0 2a 6f 3f 9c 43 66 3f 11 d7 66 3f
       0.94308704 0.93424606 0.89946914 0.90171915
0000f0 39 61 67 3f fd 31 79 3f be 0b 6c 3f 63 05 6c 3f
       0.90382725 0.973419 0.9220542 0.9219572

post_processing_batch_norm.0.bias f4 [64]
000000 a3 90 c3 bc af da 5e 3c 20 1c cf 3a 24 06 1b bd
       -0.02387268 0.013601943 0.0015801229 -0.037847653
000010 62 c1 b9 bc d9 27 91 bc 62 b9 cc 3c dd 11 71 bd
       -0.02267522 -0.017719196 0.024990741 -0.058854926
000020 f3 e4 49 3d 30 a9 ab bb 68 89 fa 3c 92 b0 86 bd
       0.04929061 -0.0052386746 0.030583099 -0.06576647
000030 37 86 2a 3d 48 a4 3a bd c1 85 7c bd 26 d9 61 3d
       0.041631903 -0.045566827 -0.061650995 0.05513873
000040 2b bf f8 bc 9b 19 90 3d 6c 8b 20 ba 3f ec f6 bc
       -0.030364593 0.07036134 -0.0006124291 -0.030141948
000050 4e 56 37 3d be b2 05 bc 27 6d c4 bc 3d d8 4b 3d
       0.04476004 -0.008160291 -0.02397783 0.049766768
000060 29 61 17 3d ec 64 99 bd 0e cb bc bb 8e 38 1a bc
       0.036957894 -0.074899524 -0.0057615107 -0.009412898
000070 8b 5e 47 3c a8 8a 1c 3d e0 6b 3a 3c 07 08 e8 bc
       0.012168537 0.03821817 0.0113782585 -0.02832414
000080 ee 71 35 3d d9 e9 23 bc 9d d2 a0 bc a8 24 42 3d
       0.044298105 -0.010004484 -0.019631678 0.04739824
000090 a7 3d 63 bd 00 d3 ee bc d6 83 bb ba ee 83 8d ba
       -0.055478718 -0.029153347 -0.0014306258 -0.0010796764
0000a0 ee a2 0a 3d 54 22 02 3c 63 99 6b bc b5 03 79 3d
       0.033846788 0.007942755 -0.014379832 0.06079455
0000b0 2c a4 b9 3c df 89 0e bd 4e f2 b7 3d ad 54 6c bc
       0.022661291 -0.034799453 0.08981763 -0.014424485
0000c0 8d 8e 9c 3d e4 f7 38 bd 92 18 4f bc 1e bd ec bc
       0.07644377 -0.045158282 -0.012640135 -0.028898772
0000d0 45 99 b8 bc b0 dc c2 bc fe 1a 4d bd 85 41 77 bc
       -0.022534022 -0.023786873 -0.05007457 -0.015091305
0000e0 13 38 8a 3d 4a 35 d2 3d 13 a3 20 bb c1 70 0a 3d
       0.067489766 0.1026407 -0.0024511262 0.033798937
0000f0 b4 12 13 3c 41 ec 80 3d 83 c5 cc 39 56 68 ec 3c
       0.008976627 0.06295062 0.0003905707 0.028858345

post_processing_batch_norm.0.running_mean f4 [64]
000000 ad 92 03 bf f9 52 85 3e 96 3e 08 3f 12 23 db be
       -0.51395684 0.26039866 0.532205 -0.42800194
000010 ad 2b 87 3e f1 07 43 3e 1c 9a 92 3e 10 88 f0 3e
       0.2640051 0.19045998 0.286332 0.46978807
000020 58 d0 34 bd 98 b4 48 be 39 d9 d9 be b1 db 8b bd
       -0.044144005 -0.19600141 -0.4254854 -0.06829012
000030 bb 92 9f be e6 d1 44 bf 43 db f6 be 60 86 1f 3f
       -0.31166634 -0.7688278 -0.48214158 0.62314415
000040 ed 0a 84 3e 78 82 6f 3e 91 f3 13 3f 78 d6 87 3e
       0.25789586 0.23389614 0.5779353 0.26530814
000050 6d c4 5c be ec 96 d7 3e f8 cd 03 3e fd 9e fb 3e
       -0.21559305 0.42107332 0.1287154 0.49144736
000060 8f a9 06 3f 56 4d 1d bf eb 83 f3 be 3c 96 c5 3e
       0.52602476 -0.6144613 -0.47561583 0.38591182
000070 1c d5 1a 3f a6 8f f0 3e fc b1 e3 3e 6e e9 a5 be
       0.6048143 0.46984595 0.4447173 -0.32404655
000080 bc 2a cc 3e de 15 01 bf 14 38 18 bf 32 47 23 bd
       0.39876354 -0.5042399 -0.5946057 -0.03986282
000090 82 a9 12 bf fb 07 55 be c6 ad 14 bf b4 92 d2 3e
       -0.572899 -0.20803826 -0.5807766 0.4112755
0000a0 17 8f de be af 53 33 be 31 eb fe be 6f e9 03 3f
       -0.43468544 -0.17512392 -0.49788812 0.51528066
0000b0 33 7a e9 bd bb 8e 5d bd 97 29 f2 3e d0 a3 3d 3e
       -0.11400261 -0.054091197 0.47297356 0.18519521
0000c0 12 2a f3 3e e6 12 ed be e7 e1 c6 be 24 b2 ce 3d
       0.47493035 -0.4630348 -0.38844225 0.100925714
0000d0 4f 31 04 bf 15 02 87 be e4 3e cc be 57 00 f4 3c
       -0.5163774 -0.26368776 -0.39891732 0.029785318
0000e0 a4 75 eb 3e 54 5f 59 3e 78 d3 12 3f 4f 85 ed 3e
       0.4598819 0.21227771 0.57353926 0.4639077
0000f0 51 5c 9c 3e 12 fa d5 be 8d 88 78 be fa dc c5 be
       0.30539182 -0.4179235 -0.2427084 -0.38645154

post_processing_batch_norm.0.running_var f4 [64]
000000 d9 ce 0e 41 24 e4 7f 40 8d 0a 24 41 fa 85 02 40
       8.9255 3.9982996 10.252576 2.0394273
000010 7b ad 94 40 7f 2d 69 3f 42 d5 39 40 fb ef 99 40
       4.646177 0.91085047 2.9036412 4.8105445
000020 b8 cd 02 40 3d 70 04 40 68 06 40 40 e3 87 8a 40
       2.043806 2.0693505 3.000391 4.3290877
000030 44 65 ea 40 e3 9b fc 40 e2 6e 98 40 fb 57 be 40
       7.3248615 7.894029 4.7635355 5.94824
000040 a0 88 94 40 b8 1c 6e 40 fc 5e 83 40 10 2a 15 40
       4.641678 3.7205029 4.105345 2.3306923
000050 53 0f 44 40 da f6 b2 40 f0 d4 15 40 22 91 ba 40
       3.0634353 5.5926332 2.3411217 5.8302164
000060 56 1b 4d 40 be e5 04 41 cb f5 c8 40 bd 2c 9d 40
       3.2047935 8.306089 6.280004 4.911711
000070 c3 6a 98 40 28 dc 96 40 6d 32 9b 40 8e b0 02 40
       4.7630324 4.7143745 4.8499055 2.042026
000080 89 c7 44 40 56 7a 59 40 56 70 93 40 f7 bd 47 40
       3.0746787 3.3980918 4.607463 3.1209695
000090 6a bc 9e 40 96 8a 24 40 f7 e9 89 40 f1 4d b5 40
       4.9605 2.5709586 4.30981 5.6657643
0000a0 7d 5f 40 40 da 02 77 40 b2 52 8d 40 7a e6 58 40
       3.0058281 3.859549 4.4163446 3.3890672
0000b0 d0 0d 4c 40 9b 1a f8 3f c9 f4 b5 40 ef 56 27 40
       3.188343 1.9383119 5.686131 2.614681
0000c0 6d bd 92 40 c5 36 c8 40 de ac 2e 40 41 a1 91 40
       4.5856233 6.2566857 2.729301 4.5509343
0000d0 4b 8d d9 40 63 5e 1e 40 18 d1 87 40 87 cd 50 40
       6.7984977 2.474511 4.244274 3.2625444
0000e0 e0 9d 9d 40 48 b3 34 40 7a 05 f1 40 1b b2 f7 40
       4.925522 2.8234425 7.5319185 7.7404914
0000f0 7c f8 da 40 30 29 9c 40 e3 fd 73 40 4b 2c 82 40
       6.8428326 4.880028 3.812371 4.067907
