checkpoints/checkpoints_homogeneous_biomarker_vessel_graph/DCP_model_1_Fractal_rkojjd8n_best_max.pt (torch, 33344 bytes, 45 tensors)

pre_processing_lin_layers.0.weight f4 [16, 15]
00000000: 1cfd 7c3e b541 5f3d 336f 67be 7693 723e
00000010: b394 66be 9778 ceb9 73f2 17be 0be7 dabe
00000020: 79bf bebe b188 f73d cca2 e8bd 7e79 813d
00000030: 2459 26be a960 7c3d 03a7 163e 1789 0d3e
00000040: fa0e 643e 6232 cb3e 9eb2 793e 5396 143e
00000050: 5769 16be 33d6 323e 9c3e 663e da83 833e
00000060: 6e9c 81bd 3cb8 863e aa6b d73d 0838 3bbe
00000070: b53d 193c 5794 bc3d 643e 053e ea7c c33e
00000080: 824d eb3d 5741 893e 5ba7 973e aa87 a3be
00000090: d664 4b3e e8df 08be 8d6a a9b8 571c 4bbd
000000a0: 14b7 023e 6e08 89be 3cae 833e f607 e53d
000000b0: 2bd3 ce3d 11a7 e93d 7e53 7ebe f4b4 b13f
000000c0: 1c15 e9bd b96a 0b3f 4402 41be 537b 5d3e
000000d0: ddf9 303f 8d5f 3dbf 96b5 c0be 044a cfbd
000000e0: 4590 c1be 2945 083e de1c 85bd 38f0 813d
000000f0: ef4f 573d 1bd3 10bd dc8c f83e ff46 873e
00000100: e463 713d bb03 18be 0926 14bd 7f7e a3bc
00000110: 81d1 17bf ebfd 81bc 28ca 183e 2858 09bf
00000120: 3710 433e 9ad8 05bf ec2c 6bbe a514 c83e
00000130: f064 b03e 8a5a e4be 0252 3b3e ba95 72bd
00000140: f6bb a23c 9d13 8f3e ca4f 36bd a993 c7bc
00000150: 37f8 09be fa47 723d d770 01bf be3d ec3d
00000160: 97be 3d3d 2de6 10bd 942a 723e 6614 c53e
00000170: f696 a7be f5fc 3e3e 4c05 e63d 3209 f03d
00000180: 9a36 21be 1254 353d a9d3 07be 9019 6e3e
00000190: 1b56 8d3e 387d 95be 9869 37be a6eb 19be
000001a0: 6cf1 943e 90ee 923e 118d c23e 2974 39be
000001b0: a471 bb3e 8ec4 ba3e 1a9e 323d 277c 2d3d
000001c0: 4296 f0bb 0ac4 533e 7bd9 df3d 4633 0d3e
000001d0: e812 28be 7c30 55be cee6 d5be fe1d 953e
000001e0: 243c 333d dcd5 b63e 437d 8fbe 531b 7dbd
000001f0: fdb9 2bbe 514f dcbd 84e0 2b3f 7e12 82be
00000200: c86a 01be efb5 00bd bf66 3c3e 7444 923e
00000210: 5e90 5b3d bd04 0a3f 655d 203f b3df 2b3e
00000220: d911 943e f66d e33e 93da 093e cdaa 133c
00000230: 241b 78be 2fa6 8ebe cd9f 873e 3b89 59be
00000240: 340f afbe 9668 c1be 0ac1 cc3b 3414 adbe
00000250: 0053 47bd f679 64bd 2d00 293e f934 503e
00000260: 2792 a03e 1074 963e ba8c 8f3e bf86 7dbe
00000270: 1516 11be eff3 013e aacd a53d 5bf6 00bf
00000280: 5b88 833d d090 78be 8e91 c9bd c73b 8ebe
00000290: e4a4 c33d 982e f9be 3af4 32bf caed d6bc
000002a0: 4a1a 66be 87cc 9cbe ea28 6e3e e527 663e
000002b0: 1afb 80be bb97 0ebe 71c0 d43e c6b0 e73d
000002c0: c718 e53e edf5 103f 827d 183f 4dca b63d
000002d0: cabb bd3c 4caa 533e a686 203e 6dbf 8c3e
000002e0: d665 ab3e 0e23 14be 66c4 043d 34c3 a83d
000002f0: e4a4 043d 233b 76bd d422 1cbe e603 f03d
00000300: 157f 8a3e b975 b33e 3658 8d3d cbb0 023b
00000310: ce41 b1be d0a2 853e 7839 cebd 14db 4e3d
00000320: 4886 e83e b756 27be 0372 68bb b52a dabc
00000330: 0549 503e e6cd 3dbc fd40 d7be de48 1ebe
00000340: 5b97 c3be feb1 05bf 47a4 693e 0a86 053c
00000350: 5be1 b6bd a804 6b3e 7340 923e 29a0 b1bd
00000360: 7c7b 9f3b 1dd7 3f3e c07c 9c3e a1fc 4abe
00000370: a950 47be e424 2fbe 93cc 61bd 69a8 9bbe
00000380: 584e 89be b981 283e 6ce7 b23e fd77 2f3e
00000390: b5c6 863e 0fd8 6f3e 2954 2abe 49a8 1c3e
000003a0: ef31 31bd 9ede 33bf 1d17 cebc 863b 58bc
000003b0: ab50 02bf d2e9 d7bd 4045 a7be efa8 f1bb
0.24705929 0.054506022 -0.22601013 0.23689064 -0.22517662 -0.00039381228 -0.14838581 -0.42754397
-0.37255457 0.12086619 -0.11359176 0.06322001 -0.16244942 0.06161562 0.14712147 0.13821827
0.22271338 0.39686877 0.24384543 0.14510469 -0.14688621 0.17464523 0.22484821 0.25686532
-0.06328665 0.26312435 0.10518582 -0.18283093 0.009353091 0.09207981 0.13012081 0.3818124
0.11489393 0.26807663 0.2961987 -0.3193944 0.19862685 -0.13366663 -8.0783946e-05 -0.049587574
0.12765151 -0.26764244 0.25718868 0.11183159 0.10098871 0.114088185 -0.24836537 1.3883348
-0.113809794 0.5445972 -0.1884852 0.21629076 0.6913126 -0.73973924 -0.3763854 -0.10121539
-0.3780538 0.13307633 -0.064996466 0.06344646 0.052566465 -0.035357576 0.48544967 0.26421353
0.058933154 -0.14845173 -0.036169086 -0.019957779 -0.5930405 -0.015868148 0.14920866 -0.5365014
0.19049154 -0.5228363 -0.22966355 0.3907825 0.3445201 -0.44600326 0.18293002 -0.05922482
0.019865017 0.2794465 -0.044509687 -0.024362402 -0.13473593 0.059150673 -0.50562805 0.11535214
0.04632434 -0.035375763 0.23649055 0.38492125 -0.32732362 0.18651183 0.11231479 0.11720504
-0.15743485 0.04426963 -0.13264336 0.23251939 0.27604756 -0.29197097 -0.17911375 -0.15031299
0.2909044 0.28697634 0.3799825 -0.18110718 0.36610138 0.36478084 0.04360781 0.04235473
-0.007342131 0.20680252 0.10930153 0.1378909 -0.16413462 -0.20819277 -0.41777653 0.29124445
0.043758526 0.35710037 -0.28025255 -0.061793637 -0.16770168 -0.10757316 0.6713946 -0.25404733
-0.1263839 -0.031423505 0.1839857 0.2856785 0.053604476 0.5391348 0.6264251 0.16784553
0.28919867 0.4441983 0.13462286 0.00901289 -0.24229103 -0.27861163 0.26489106 -0.21243756
-0.34191287 -0.37775105 0.006248598 -0.33804476 -0.04866314 -0.055780374 0.16503973 0.20332707
0.31361505 0.29385424 0.28037053 -0.24758433 -0.1416858 0.1269071 0.08095868 -0.5037591
0.06422492 -0.24273992 -0.098422155 -0.27779981 0.09552935 -0.4866836 -0.6990391 -0.026236434
-0.22470966 -0.30624792 0.23257795 0.22476156 -0.25191575 -0.13925068 0.4155307 0.11313014
0.44745466 0.5662525 0.5956651 0.089253046 0.023160834 0.20670432 0.15676364 0.27489796
0.33476132 -0.14466497 0.032413863 0.08240357 0.032383814 -0.06011499 -0.15247661 0.117194936
0.2705008 0.35050753 0.069015905 0.0019941803 -0.34620517 0.2610078 -0.10069555 0.050501898
0.45414948 -0.16341673 -0.0035468347 -0.026631692 0.20340355 -0.011584735 -0.4204177 -0.15457484
-0.38201413 -0.5222472 0.22816573 0.008149633 -0.08929702 0.22950995 0.28564796 -0.08673126
0.0048670154 0.18734403 0.30563927 -0.19822933 -0.19464363 -0.17103916 -0.055126738 -0.30401924
-0.26817584 0.16455735 0.34942186 0.17135616 0.26323476 0.23422264 -0.16633667 0.1529857
-0.04326051 -0.7026156 -0.025157506 -0.013197785 -0.5090434 -0.105426446 -0.3267002 -0.007374875

pre_processing_lin_layers.0.bias f4 [16]
00000000: bcfa 13be 365d 243c 1af9 fa3d 6c66 e73d
00000010: cbf1 1fbe b88b 0f3d f529 3fbe bfc8 2fbe
00000020: 0d27 e73d f77d 8abd 6a6a 5e3c 26fb 86bd
00000030: 75ad 72be b021 ef3d 3671 083e ea01 80be
-0.14451116 0.010031989 0.122545436 0.11298832 -0.1561958 0.035045356 -0.18668349 -0.17166422
0.11286745 -0.06762307 0.013575176 -0.065908715 -0.23698981 0.11676347 0.13324437 -0.2500146

pre_processing_lin_layers.1.weight f4 [16, 16]
00000000: 80be fb3e f2bb 32bd 2685 bebc 57ec 4a3e
00000010: 49ad a53e 1a31 933e 967b 8c3e 77dc e43e
00000020: c8ba 9d3d fad1 ae3c d078 a63d b274 ddbd
00000030: ee41 ab3e bb49 083e 4798 2a3e 773e c73d
00000040: 0275 46be a96d 94be 14b1 cf3e be85 debe
00000050: 20a6 73bd fbf9 0c3d 71dd 413e f0e7 b8bd
00000060: 86d4 143d d4d1 64be e687 e5be b7da a83e
00000070: 0724 f9bd c55f 77be bf7e 56be 2a11 82bd
00000080: 19be 14bd 3011 6dbd 0eed 013e db68 a3be
00000090: 03cd 74be 1606 8abd d2b5 de3d 8620 c4bd
000000a0: a32f 923e 4248 f2be b6e8 d2be a461 6dbe
000000b0: 33c8 67be adc4 9ebe c2a5 05be 4a90 edbe
000000c0: 0459 d6bd 9bd3 ae3e a2d3 aebe cbbb ac3d
000000d0: 1ea2 38be e359 25bf b828 81be e182 1abe
000000e0: 4fa7 b6be 2c8e ee3e 61ce fabd 77b2 bcbd
000000f0: d2fb 5ebe fc95 b93e a401 313e dae5 89bd
00000100: 05b2 0f3e f08c 6ebe dd19 1e3e 2d81 b8bd
00000110: 2c3a bb3e 21f1 b53e 7592 853e b107 773e
00000120: ce0d 0b3e fc68 92be 2803 4a3e 8b10 9bbe
00000130: 37e0 a03e 50b0 ccbd 8dfd 053e bb90 213e
00000140: d742 b13d e008 afbe f72c 9bbe 868b 9d3e
00000150: a893 663e 996b b63d 8348 12be db84 ec3d
00000160: 45c0 0ebe 7a03 2b3e fb25 e73e 1c87 7abe
00000170: 9a20 913e 4617 07be b233 e63e efd4 823d
00000180: ea44 6cbe fe29 7c3e 3ce2 1e3e de0c 4c3f
00000190: c7be 613e 988d 973b 20f8 3c3e dbad 0fbe
000001a0: 2a25 74bd fd2c 033e f7d6 863e d794 19bf
000001b0: 770a d43a c933 913c 9d4a 0d3e c9e2 c23d
000001c0: bd1d 843e da5b 7dbd 2654 72be b769 5a3d
000001d0: bf5d 9dbe d7fb b2be 3ee0 8abe 6d16 aebe
000001e0: ce51 403e b607 783e 106f 6e3d f425 e53e
000001f0: dc3f 2d3e b271 62bd 541e bcbe ba2b e23b
00000200: 6af9 5e3e a5d9 9fbe 936a 36bd 8742 b2be
00000210: 2fd8 74be 0a93 8a3d 8643 be3d c057 b53d
00000220: d18f cd3e 5df1 c0be 5f9f 9cbe 183a 0f3d
00000230: 028b 593e 3c33 b4bc ac77 88be 9d88 973c
00000240: 5cb5 febd 7618 753d c934 03be d1ba e3be
00000250: 9330 fabe fb8d ab3e d433 ad3d 3de9 fe3e
00000260: 536a 933e be3e 803e e825 3e3d f03f 18bf
00000270: 6e9b 3f3d 926e 41bf 0980 49bd e41f bcbe
00000280: c401 103e 1094 e5bd a225 993d 4bd3 cb3e
00000290: cd7a 583e 3773 913e 8eb6 653e 4b12 28bd
000002a0: 8c6c ad3e bbff b63d 9647 0f3c 2321 98bd
000002b0: 2ffa 843e 8499 8d3e 5b6e 683e 7fc2 cb3e
000002c0: e9c3 45be 8de6 cebe 9e31 d33d b1e5 57be
000002d0: 2d15 d3bd 1206 453e afc8 383e 2ea9 523b
000002e0: 0993 bdbd 664e dfbe 28e4 8ebe 365c d33e
000002f0: 6a72 67be 3daa 903e 0dfa 1f3d 8a0d 873e
00000300: 143f b4bd 7324 933e 96c4 823e 569a 5a3e
00000310: 4a46 c03e e7f1 c7bd 4105 b63e 8a85 103e
00000320: 21ba 593c 98e8 81bc 2692 4d3e 7af7 f9bd
00000330: c427 b13e 1477 3ebe 8b6c 4e3d e835 f0bd
00000340: b455 3c3d 603f 7cbd c573 093e 0c28 fe3e
00000350: a5b6 223d 5353 123e 959d 953e 8bd8 b23e
00000360: 13da c0bd c702 b8bd ac92 44bd 03d9 3dbe
00000370: bd4f d03d e67c 48bc 200b 843e 82dd b13e
00000380: 8cf2 d73d 1d39 0a3d f3c2 a2be c3a3 5b3e
00000390: 17d2 d33c 1713 3c3d 1df0 aabb 2b8f 7f3e
000003a0: fe97 34be 9b52 a53e cdbd 103e 21f8 dabe
000003b0: 509f 9bbd 2801 b73d fab8 a33e 22f9 d13e
000003c0: 2313 79bc efd2 fbbe c7bd bf3e 9371 58be
000003d0: 8bcb 953e 9509 563d a413 1e3e 2baa 033e
000003e0: dec1 a53e b10e 6cbe eda9 3f3e db93 f93e
000003f0: 13a5 6c3e 1f87 e0bd 4d94 7ebe 9d90 c23d
0.49168777 -0.04363627 -0.02325685 0.19816719 0.3235877 0.287484 0.2743804 0.4469945
0.07701641 0.021340359 0.08128512 -0.108132735 0.33448738 0.13309376 0.16659652 0.09728711
-0.19380572 -0.28989914 0.40564787 -0.43461412 -0.0594846 0.034418087 0.1893213 -0.090286136
0.03633549 -0.22345668 -0.44830245 0.32979366 -0.12165075 -0.24157627 -0.20946787 -0.0635093
-0.036314104 -0.05787772 0.12688085 -0.31915936 -0.23906331 -0.06739442 0.10874523 -0.09576516
0.2855197 -0.47320753 -0.4119317 -0.23181778 -0.22634964 -0.31009427 -0.13051513 -0.46399146
-0.10466197 0.34145817 -0.34145838 0.08434256 -0.18030593 -0.6459028 -0.25226378 -0.15088989
-0.3567452 0.46592844 -0.12246395 -0.09213727 -0.2177575 0.36247241 0.17285782 -0.06733294
0.14032753 -0.23295951 0.15439554 -0.09009013 0.3656782 0.3553553 0.260883 0.24124028
0.13579485 -0.28595722 0.19727767 -0.3028606 0.31421062 -0.099945664 0.13085003 0.15777867
0.08655327 -0.3418646 -0.30307743 0.3077051 0.22517264 0.089072414 -0.14285474 0.11548778
-0.13940533 0.16700545 0.45146164 -0.24465603 0.28345186 -0.13192472 0.44961315 0.0638827
-0.23073164 0.24625394 0.15515989 0.79707134 0.22045432 0.0046250336 0.18454027 -0.14031164
-0.059605755 0.1281013 0.2633588 -0.59992737 0.0016177435 0.017724888 0.13797994 0.09515912
0.25803939 -0.061855175 -0.23664913 0.053323474 -0.30735585 -0.34957764 -0.27124208 -0.34001485
0.18781206 0.24221691 0.058211386 0.44755518 0.16918892 -0.05528421 -0.3674189 0.0069021853
0.21774831 -0.31220737 -0.04453523 -0.3481638 -0.23910592 0.06766327 0.09290223 0.088546276
0.40148786 -0.37684146 -0.3059034 0.034967512 0.21244434 -0.021997087 -0.26653802 0.01849776
-0.12436935 0.05983778 -0.12813105 -0.44478467 -0.48865184 0.3350676 0.08457151 0.49787322
0.28792056 0.25047868 0.04642287 -0.5947256 0.04677909 -0.7555934 -0.04919437 -0.3674308
0.14063174 -0.11209881 0.07477881 0.3980964 0.21140595 0.28408214 0.2243292 -0.04103307
0.33871877 0.089354955 0.008745095 -0.07428195 0.25972125 0.27656186 0.22698347 0.39796826
-0.19313015 -0.4041027 0.10312198 -0.21083714 -0.10306773 0.19240597 0.18045305 0.0032144296
-0.0925656 -0.436145 -0.27908444 0.4128129 -0.22602239 0.28254882 0.039056826 0.26377517
-0.08801094 0.28738746 0.25540608 0.21347937 0.37553626 -0.09762936 0.35550883 0.14113441
0.0132890055 -0.01585798 0.20075282 -0.122054055 0.3460065 -0.18600112 0.050396483 -0.11729032
0.04598017 -0.061583877 0.13423069 0.49639928 0.039724965 0.14289598 0.29221788 0.34930834
-0.09416594 -0.08984905 -0.04799144 -0.18539815 0.10171459 -0.012236809 0.25789738 0.3473931
0.10544309 0.033745874 -0.3178936 0.21449189 0.025857015 0.045916643 -0.005216612 0.24956958
-0.17636105 0.32289585 0.14134903 -0.42767432 -0.07598746 0.089357674 0.31977063 0.41010386
-0.015202316 -0.49184367 0.37449476 -0.21137075 0.29256853 0.052255232 0.1543718 0.12857883
0.3237447 -0.2305248 0.18717165 0.48745617 0.23109846 -0.10963272 -0.2486126 0.09500239

pre_processing_lin_layers.1.bias f4 [16]
00000000: ee62 0f3e 03ed 13be edb5 96bd d6d4 8ebe
00000010: 5734 64be 4c2a 8bbd 6f09 773e abd6 bbbd
00000020: cd27 823c 0592 d83d 3835 893c b556 1d3e
00000030: 6147 31bb 45f2 97bd b206 75bd 4f2f a53b
0.14002582 -0.14445882 -0.07358918 -0.27896756 -0.22285591 -0.06795177 0.24124692 -0.09171804
0.01588812 0.10574726 0.01674901 0.15365107 -0.0027050602 -0.07419256 -0.05982084 0.00504104

pre_processing_lin_layers.2.weight f4 [16, 16]
00000000: ea03 24be 103a 8fbe 2717 8bbe 3714 96be
00000010: dff8 8c3e 3919 113d ce66 57bd 8b07 febc
00000020: e355 0f3e d403 b4be 04dd 683e 038f 38be
00000030: 7b49 c73e ccc5 40bd 9963 a03d 4c3f 36bd
00000040: af6b 8e3e f047 b43c 678a 1cbe 3d5e babb
00000050: 23a5 9c3e 41ff 95bc 4f2c ae3e d26e 563e
00000060: 1935 e5bd a0a6 26bf 4116 343d 10be b93c
00000070: 927e c33d 52f5 143f a4fb f53e 5b6f b13e
00000080: d283 173d 2154 b8be 2e3c e3bd 5e9a ed3e
00000090: 0617 91be d145 be3c 8db3 663e 9c7a 483d
000000a0: 066d 06bf 4a6d aebb ac81 03be 9e83 b7be
000000b0: aec6 55be 955b 103d aa27 753e fa54 f5be
000000c0: e15e 94be 773d edbe 4d83 2dbc 10c2 aebb
000000d0: c82d 3abe 3927 a93d 7303 893e a49d 8a3d
000000e0: a1f0 61be 2e3b b43c ae51 27bd 7cfd 35bf
000000f0: da2e 323e ec72 4abe 9002 c03e 819c 41be
00000100: 5549 be3e c8fc 17be 1cf1 e23d 7ad1 243e
00000110: 411a 623e 5fd2 6f3e 20d2 763c 8d5d 86be
00000120: 9ac2 13bd 3693 efbd dee5 933e 9344 c93d
00000130: c108 a63e 6bee 873e 017b 9c3e 86af 873e
00000140: ca7e 0ebe 955e 0fbe 934a 483e 8958 45bd
00000150: 0324 273e 5733 b6be 8f80 c6be 7e79 7cbe
00000160: 7191 85bd 9825 293e 1a1a 3ebe 51ca 753a
00000170: 3a5c 273c 22dd 6fbc 9022 00bf 94d1 61be
00000180: 160c 153e 6638 42be 233b a53d 88c8 963e
00000190: 5d14 9abe 274f 363e 8fa5 9e3e 1c9f 45be
000001a0: 8eb9 b5be 3114 89be 10cc 743d 9384 46be
000001b0: 5a71 d83d 01ed 173e 1625 9a3e 9605 2a3e
000001c0: afaa d83c 155c b33d ec34 0e3e fd79 01be
000001d0: c86d 6ebd 013e c0bc f250 c4be 5aa2 f2bc
000001e0: cbab 52bd 26f4 bcbd efeb 89bd 985b 103d
000001f0: 31cf 52be 9dac d93d 3f55 e9be 2023 443e
00000200: 8dc8 a3bc e52f 04be 67c0 653e 558f 97be
00000210: 8779 91bd dd48 773e c9a0 16be a3b3 71be
00000220: f563 993d 0b23 aebe ee8b 173e 1f35 6a3e
00000230: c166 ad3d 7430 323e baee 0dbe 27ca 0e3e
00000240: f2e5 d53b e831 d0bd 5306 d1bd bff3 d23e
00000250: 84fa 8ebe ac7d 0b3e 1157 5f3d e9b5 193f
00000260: f5bc 773e 8b74 a33c a559 d5bd 829d 933e
00000270: ff8d a7be ba04 7e3d edb7 ac3d 8aa8 00be
00000280: a4ab 323e 82fc 143d 93be 02be 25f7 9f3e
00000290: bd21 2abd fad2 ce3e da87 da3e 3ae0 05bd
000002a0: b796 66bd 217f 8c3d fba3 77be a8f9 77be
000002b0: d457 fb3d 2588 a03e af87 7d3e 9070 55bd
000002c0: a30f d03d 1608 bebe b68b 36be 5833 483e
000002d0: 3951 38bd 8acf 923e 6579 b63e 2ffe 94be
000002e0: a632 4ebe f34b a8be 9d01 83be 2c78 32bd
000002f0: 6f26 b23e d7a3 3a3d bb1e a83e a19a 443d
00000300: 727d 703c a6bf 03bf 8373 a83d ce17 c9be
00000310: 65e5 ecbd f0ab 71be 3622 9bbe 01d0 3fbf
00000320: 0326 5d3e f60d b83e c359 ccbc 6b3c 31be
00000330: 5ea6 4f3e 60a0 2fbe c486 3bbe 85a1 42be
00000340: 7307 4e3e fbc7 26bd 4c2b 163e c098 203e
00000350: 6b0f 053e f088 b53e 0e4f 29be 31c7 77be
00000360: 495f 0f3e 372a a6be be4d 023e 22f2 a23e
00000370: a095 dd3d 257d 7e3e e0e6 803d a15d 953d
00000380: a78b ca3e 1fb1 2bbe fca5 093e 825e 4bbb
00000390: 32ea e3bd f753 50bd 87c1 a43d d846 25be
000003a0: 5ecf d03d 8fe6 10be fe02 ce3e 55de 7cbe
000003b0: 7c15 d03b af74 f03d ed15 803e 413a 803e
000003c0: 4407 98bd 23b1 dfbe dfb7 06bf 8ef6 22be
000003d0: b935 8c3d e34d 193e 3f23 d23e f593 edbe
000003e0: 3878 f7be 8855 28bf d526 21be 5751 3c3d
000003f0: 5519 173e 871d ee3c cf28 cf3d 3caa 99be
-0.16017118 -0.27973986 -0.271661 -0.29312298 0.27533624 0.035424445 -0.052588277 -0.031009456
0.13997607 -0.3515917 0.22740561 -0.18023305 0.3892325 -0.047063634 0.07831497 -0.04449396
0.2781653 0.022006959 -0.15287171 -0.0056875036 0.3059474 -0.018310191 0.3401818 0.20940712
-0.11191768 -0.65098 0.043966535 0.022673637 0.09545626 0.5818683 0.4804355 0.3465527
0.036990948 -0.36001685 -0.11095463 0.46406835 -0.28337878 0.02322665 0.2252943 0.048945054
-0.52510107 -0.005323087 -0.12842435 -0.35842603 -0.20876572 0.03524359 0.23940912 -0.47916394
-0.28978637 -0.46335956 -0.010590387 -0.0053331926 -0.18181527 0.08259434 0.26760444 0.06768349
-0.22064449 0.022000875 -0.04084938 -0.7108991 0.17400685 -0.19770402 0.37501955 -0.18907358
0.37165323 -0.14842522 0.11081144 0.16095534 0.22080328 0.23420094 0.015064746 -0.2624325
-0.03607426 -0.11698 0.28886312 0.098275326 0.32428554 0.26549086 0.30562595 0.265011
-0.13915554 -0.14000924 0.19559698 -0.048180137 0.16322331 -0.35586044 -0.38769957 -0.2465572
-0.06521881 0.16518247 -0.18564644 0.0009376156 0.01021486 -0.0146401245 -0.5005274 -0.22052604
0.14555392 -0.18966827 0.0806792 0.29449868 -0.3009366 0.17803632 0.30985686 -0.19298977
-0.3549313 -0.26773217 0.05976492 -0.1938651 0.10568495 0.14836504 0.3010642 0.16603693
0.026448576 0.08757798 0.13887376 -0.12644191 -0.058210164 -0.023467066 -0.38343006 -0.02961843
-0.051433366 -0.09226255 -0.06734454 0.0352436 -0.2058685 0.106286265 -0.4557285 0.19154024
-0.019993091 -0.12908895 0.22436677 -0.2960154 -0.071032576 0.24148889 -0.14709772 -0.23603682
0.074897684 -0.3401111 0.14799473 0.22871827 0.084668644 0.17401296 -0.13860598 0.13944302
0.0065276558 -0.10165769 -0.102062844 0.4120159 -0.27925503 0.13622159 0.054526392 0.600432
0.24193175 0.019953033 -0.10417489 0.28831106 -0.32725522 0.062016226 0.084335186 -0.12564293
0.17448288 0.036373623 -0.12768011 0.31243244 -0.04153608 0.40395337 0.42681772 -0.032684542
-0.056296077 0.068601854 -0.24183647 -0.2421633 0.12272611 0.3135387 0.2475879 -0.0521093
0.101592325 -0.37115544 -0.17826733 0.19550836 -0.044999335 0.28673965 0.35639492 -0.29100177
-0.20136508 -0.32870445 -0.25587168 -0.043571636 0.34794948 0.045566406 0.32835945 0.047999028
0.014678346 -0.5146431 0.08225157 -0.39275974 -0.11567191 -0.23600745 -0.30299538 -0.74926764
0.21596532 0.3594815 -0.024945145 -0.17308204 0.20278308 -0.17151022 -0.18313128 -0.19006927
0.20120029 -0.04071806 0.14664954 0.1568327 0.12994163 0.35456038 -0.16534063 -0.24197079
0.14001192 -0.32454082 0.12724969 0.31825358 0.10819554 0.24852426 0.06294036 0.07293249
0.3955967 -0.16766785 0.13442224 -0.0031031673 -0.111286536 -0.050861325 0.08044725 -0.16140306
0.10195802 -0.14150451 0.40236658 -0.24694188 0.0063502174 0.11741006 0.25016728 0.25044444
-0.07423261 -0.43689832 -0.52624315 -0.15914366 0.06846184 0.14971118 0.41042516 -0.46401945
-0.48333907 -0.6575551 -0.1573747 0.04597601 0.14755757 0.029066814 0.101152055 -0.3001269

pre_processing_lin_layers.2.bias f4 [16]
00000000: e4db 9cbd 9c38 f3bc c917 e63d e03a e8bd
00000010: a85d 8b3e fcb8 853d 7151 f33d 8b4b 66be
00000020: a0c9 27be 02a7 abbd e049 96bd 8d82 143d
00000030: 2ac9 d7bd 5e2c 6f3d f574 13be be98 e13d
-0.07659128 -0.02969008 0.112350054 -0.113393545 0.27219892 0.065294236 0.11880768 -0.22489755
-0.16385508 -0.083814636 -0.07338309 0.036257315 -0.10536416 0.05839192 -0.14400084 0.110154614

pre_processing_lin_layers.3.weight f4 [16, 16]
00000000: 3e3d d2bc 8009 40bd cb4f 44bd c048 44be
00000010: 664e b43d ddb2 cbbc 5317 553e 651a de3d
00000020: 5f45 b53e 6ce5 06be 0dd5 d7bd f1c2 063f
00000030: a728 7cbe d884 863d 5a92 17be 7135 a53e
00000040: de4d 52be 20cd ecbd 4cdc 82be 7058 62be
00000050: b8e5 8fbe e965 623e 2f74 a73c 8401 963e
00000060: 81cc ed3d 95bc cdbb 5e0b f0be 3922 0bbe
00000070: 9eff 093f aa9c 39be 22d0 813c 9693 a2be
00000080: 8ccd ab3d 5f91 babe 52ed e5bd 9f8a 903e
00000090: b71e a0be a5e5 c4bd 9923 4ebe 76b1 04be
000000a0: f068 c2bc b0b3 a7be a470 893d 0edb dbbd
000000b0: f0be 3b3e bc83 663d b0e0 e2be 3710 a8be
000000c0: 8696 223e 6224 35be e578 c2be 0771 483e
000000d0: 3120 7a3e 738d 093e 6c4d eebb 8539 c53c
000000e0: ba0d aa3e e005 1ebe 75d8 63be 91de 7fbe
000000f0: 1b0c 433d c180 ba3e 9373 163b d733 b33d
00000100: a038 cc3d 4d4b d63e eef2 1e3e 2c20 7dbd
00000110: eb39 51bd 8b5a 36be 1ff0 bf3d 32ec c13d
00000120: fe02 3f3c a261 a8bc 4ab1 b73d cbf4 053f
00000130: bdd2 85be e57e 5c3e 218b ffbd df39 0c3f
00000140: f337 703e 8287 cebd c7f4 db3b 75da 733e
00000150: 8140 c43e 1a1a f13d e503 d23e f188 26be
00000160: 7886 283e ce6f 5bbd b900 723c b1a9 ae3e
00000170: 55f8 d63d ff28 1d3e bfca 873e 2058 11bd
00000180: 2048 363e 1f56 87be d2e4 84be 4ca9 e93e
00000190: b745 033e 359e 15bf f798 863e 0374 53be
000001a0: 875c 27be 84b0 d43b ff50 a03e 8b67 b03d
000001b0: 3f41 a93d 954c 86be 61ae 0cbe a64d 423d
000001c0: 26e2 3cbe 8273 a4bd 5f10 1b3a 50a1 6fbe
000001d0: 4419 50be 16fc 9e3e d2b2 07bd a45f ca3e
000001e0: 5e48 a83d eb3d 083e 0707 08be 0b0c b3bd
000001f0: 3069 d73e b470 313e 322b 36be 9ad8 b0be
00000200: 5ba4 01be 18ee f0bd 3094 7a3e f7ae 653e
00000210: eb10 663d 31b3 72be 64ea 61be 78b3 aebe
00000220: 9d4f d3be dc3b 67bc 468d d53d f32e 10be
00000230: b9ba a3bd 6400 83be 7045 8dbd 6f81 ad3e
00000240: 2b4b 983e 76d8 bf3e 5561 063e 71e3 04be
00000250: 08ba 873d b509 adbd 3f52 8e3e f5d2 843e
00000260: 4d29 a53e c965 3b3d 79d6 423e 284c c23e
00000270: 628a ebbd 339c 663e d427 a13d 7bdd 843e
00000280: de94 823d 708f b73b ec73 3bbe 4584 acbe
00000290: 1de3 73be 27e2 913e 4037 2bbe cfeb 993d
000002a0: 5fe4 363c b946 97be 7f5d ddbe 4cce 9cbe
000002b0: 25ec 5cbc 5625 b8bd 0705 423e 6309 1fbe
000002c0: 7e9c 1bbd 346d b6be 0301 e1be 741b 7bbd
000002d0: f582 13be 4230 e33e 0d0a 44be 9cf2 a6bd
000002e0: 5fa0 35be 87d9 7dbd 48a1 97be ace6 23be
000002f0: d67e abbd 3a5e fbba da88 16be f727 873d
00000300: 5926 ac3e 58be 9a3d f91c bfbe f51e 253c
00000310: f164 663e 1aca 0ebe 20ed 073e 3979 adbb
00000320: 6b93 b73e bb67 953d a380 073d 6858 24be
00000330: 1c3c 2bbd cda9 903e c54a e23e bbb3 3d3e
00000340: 91ba 613e 483f 6cbd 3507 98bd 5196 9b3e
00000350: 6870 acbd 5fc6 c0be 474b a23d 099d 17be
00000360: e569 ee3d 041f 653d adb7 7a3e c7a1 623e
00000370: bd23 c3bd 6b85 87bd 0a65 0dbd 49b1 d13e
00000380: c7e3 56be 335f d9be 47f2 323d d20d 0cbf
00000390: fe84 febd a6da 10bd 73a1 94be 953a 053f
000003a0: f255 b2bc 72b2 9fbe 2873 dbbe d61b 35be
000003b0: 87da 5fbe 0a43 2cbe 7623 46be 95b7 36be
000003c0: ab81 0ebe b7ef 3bbe 3a99 b83d f228 63be
000003d0: d305 02bf cf3c a23e 52f4 51be 30f1 1ebd
000003e0: 4c93 9ebc 5bf5 6ebe d484 2abe 36cb 68be
000003f0: 2932 f83e 8025 26bd 3031 3d3d 2653 acbe
-0.025663968 -0.04688406 -0.04792766 -0.19168377 0.08804016 -0.024865562 0.20809679 0.10844878
0.35404488 -0.13173455 -0.10538683 0.52641207 -0.24624883 0.06568307 -0.14801922 0.32267335
-0.20537516 -0.11562562 -0.25558698 -0.22104049 -0.2810495 0.22109188 0.020441143 0.2929803
0.11611272 -0.0062785842 -0.46883672 -0.13587274 0.53905666 -0.18126169 0.015846316 -0.31753224
0.08388814 -0.36439034 -0.11226906 0.2823076 -0.31273434 -0.09614114 -0.20130767 -0.12958321
-0.023731679 -0.32754278 0.067109376 -0.10735141 0.18334556 0.056277975 -0.44312048 -0.3282487
0.15877733 -0.1768966 -0.3798286 0.19574367 0.24426343 0.13432865 -0.007272413 0.024075279
0.33213598 -0.15431929 -0.2225054 -0.24987246 0.047618967 0.36426356 0.0022957071 0.08750122
0.09971738 0.41854325 0.15522358 -0.06179826 -0.051080626 -0.17807977 0.09371971 0.09468879
0.011658428 -0.020554367 0.08969362 0.5232665 -0.26137343 0.21532781 -0.124777086 0.54775804
0.23458843 -0.1008444 0.0067125293 0.23813803 0.38330463 0.117725566 0.41018596 -0.16263177
0.16457546 -0.053573422 0.01477068 0.3411384 0.10496584 0.1534767 0.2652187 -0.035484433
0.17800951 -0.26432893 -0.25955826 0.45636976 0.12819563 -0.5844453 0.26288578 -0.20649724
-0.1634389 0.006490769 0.31311795 0.08613499 0.08264398 -0.26230302 -0.13738395 0.047437333
-0.18445644 -0.08029844 0.000591522 -0.2340138 -0.20322138 0.310517 -0.03312952 0.39526093
0.08216928 0.1330487 -0.1328393 -0.087425314 0.4207244 0.17328149 -0.17789915 -0.34540254
-0.12660353 -0.11764163 0.24470592 0.22430025 0.056168478 -0.23701169 -0.22062069 -0.341213
-0.41271678 -0.014113393 0.104273364 -0.1408041 -0.07994599 -0.25586236 -0.0689801 0.33887812
0.2974485 0.37469834 0.13123067 -0.12977387 0.066272795 -0.08449117 0.27797124 0.25942197
0.32258072 0.045751367 0.19027127 0.37948728 -0.11501004 0.22520523 0.07868925 0.25950226
0.063760504 0.005601816 -0.1830594 -0.33694664 -0.23817106 0.28492853 -0.16720295 0.0751568
0.011162846 -0.29546145 -0.43235394 -0.30626142 -0.013484036 -0.08991496 0.1894723 -0.15530924
-0.03799104 -0.3563019 -0.43946084 -0.06130548 -0.14405425 0.44372755 -0.19144459 -0.08151743
-0.17736958 -0.06197503 -0.29615235 -0.16005963 -0.083738014 -0.0019177862 -0.14700642 0.065994196
0.33623007 0.075558364 -0.37326792 0.0100781815 0.22499444 -0.13944283 0.1327405 -0.005293992
0.35854658 0.07295176 0.033081662 -0.1604935 -0.04180537 0.28254548 0.4419767 0.18525593
0.22043826 -0.057677537 -0.0742325 0.3038812 -0.08419877 -0.37651345 0.07924514 -0.14805998
0.116412915 0.055937782 0.24484129 0.22132026 -0.09528301 -0.06617244 -0.034520186 0.4095557
-0.20985328 -0.42455444 0.043688085 -0.5470859 -0.1242771 -0.03536477 -0.29029426 0.52042514
-0.021769498 -0.3119083 -0.42861295 -0.176864 -0.21860705 -0.16822448 -0.19349465 -0.17843468
-0.13916652 -0.18353163 0.09013601 -0.22183588 -0.5079014 0.31687018 -0.20503357 -0.038804233
-0.019357346 -0.23335783 -0.16652232 -0.22733769 0.4847577 -0.040563107 0.046189487 -0.33657187

pre_processing_lin_layers.3.bias f4 [16]
00000000: afba d53d fe94 343e e9c4 d9bd c313 f43d
00000010: 0794 763e df2e 0d3e c720 ca3d 6b48 f93d
00000020: ace3 93bd 12df 80bd 7bba 563d 91df dd3c
00000030: 8c00 64bd 7c46 c3bd 3f66 6e3d a97a 01be
0.10435998 0.17634961 -0.10633261 0.11917832 0.24079905 0.13787411 0.09869533 0.12172016
-0.07221159 -0.06292547 0.052423935 0.027084144 -0.055664584 -0.09534928 0.05820298 -0.12644447

pre_processing_batch_norm.0.weight f4 [16]
00000000: ac9a e63e 7f0a 4b3f 6de3 233f 3098 b73f
00000010: 74fc 983f b073 283f ce69 983e 91ab 1f3f
00000020: 6923 bb3e ecd5 ab3f d0c3 7a3f 99bf b23f
00000030: a944 3c3f 0604 303f 267b 573f aa24 813f
0.4503988 0.7931289 0.640189 1.4343319 1.1952043 0.65801525 0.29768223 0.62371165
0.36550453 1.3424659 0.97955036 1.3964721 0.7354227 0.6875614 0.84172285 1.0089314

pre_processing_batch_norm.0.bias f4 [16]
00000000: 4e78 2abf f509 563e c1ff 393d cc3e 523d
00000010: d891 893e 7ae4 c33e 4997 bbbe 3b11 db3d
00000020: 8c1f c13e 89ad 263d 8071 f83d 8ad4 cb3e
00000030: 3163 81be feae 203b 6fa5 3a3c 6ec2 eabe
-0.6658982 0.20902236 0.04540992 0.05132942 0.26869082 0.3826025 -0.3663886 0.10696646
0.3771938 0.04069284 0.121310234 0.39810592 -0.2527099 0.0024518366 0.0113919815 -0.45851463

pre_processing_batch_norm.0.running_mean f4 [16]
00000000: d486 17be b340 453c 8ba0 fb3d 6149 eb3d
00000010: 7854 20be 7e98 0b3d 767c 40be ddf0 2fbe
00000020: 4f53 e43d 515f 8ebd 21fd 5c3c fb58 83bd
00000030: be16 72be 048c f23d 9a32 093e 323d 81be
-0.14797527 0.012039351 0.122864805 0.11488605 -0.15657222 0.034080975 -0.18797478 -0.17181726
0.11148702 -0.06951774 0.013488085 -0.06413456 -0.23641488 0.11843112 0.13398209 -0.25242

pre_processing_batch_norm.0.running_var f4 [16]
00000000: 77ea 803f c347 e13f 8041 ba3f 544c 5a40
00000010: 1360 c83f 19a9 a33f 8b64 a33f 09d9 2640
00000020: 22a9 1340 812c e23f a876 0940 f507 a340
00000030: c12f ae3f 311d ff3f 67cd a43f ea2b d43f
1.0071553 1.7600025 1.4551239 3.4109087 1.565432 1.278598 1.2765058 2.6069968
2.307198 1.7669832 2.1478672 5.0947213 1.3608323 1.9930784 1.2875184 1.6575902

pre_processing_batch_norm.1.weight f4 [16]
00000000: b1c1 fb3e a8bc 623f cc31 d53e 0178 893f
00000010: 4622 443f 97d9 633f 9274 993f ac51 873f
00000020: 9a73 373f 5a4a 903f 8459 e83e 195a 513f
00000030: 2ecb 2a3f 365b 593f 8b14 9d3f b89c 4f3f
0.49171212 0.88569117 0.41639555 1.0739747 0.766148 0.8900389 1.19887 1.0571799
0.7166077 1.127269 0.45380795 0.81778103 0.6671628 0.849048 1.2271894 0.8109851

pre_processing_batch_norm.1.bias f4 [16]
00000000: 7d9c 72be 9364 883e 8c78 9a3e f25f 11be
00000010: 578d d73d 9aac c5bd 79c7 0e3e 517b 883e
00000020: 7734 6a3e 202b 933e 490a b8be 7cc2 453d
00000030: 6ce2 49bd 74f0 45be 36fb 723e c5de 0cbd
-0.23692508 0.26639232 0.30170095 -0.14196756 0.10525005 -0.09652062 0.1394328 0.26656583
0.22871576 0.2874384 -0.35945347 0.048281178 -0.0492882 -0.19330007 0.23728642 -0.034392137

pre_processing_batch_norm.1.running_mean f4 [16]
00000000: a44d 0c3e a431 6bbe ef52 e0be 0dad ecbe
00000010: f967 a2be a3b9 46bd ef6e a53e d56c f9bd
00000020: 20a6 b2be 1e16 98bd 4261 443e f50c 033e
00000030: 945b 1b3e 67b6 27be f99e 7fbe 25ac 923e
0.13701493 -0.22968155 -0.43813273 -0.46225777 -0.3171995 -0.04851688 0.32311198 -0.12178961
-0.34892368 -0.074260935 0.19177726 0.12797911 0.15171653 -0.16378175 -0.24962987 0.2864696

pre_processing_batch_norm.1.running_var f4 [16]
00000000: ada3 a33f 570c 0a40 fd14 0e40 b4ad 4b3f
00000010: 9d44 8a3f 8731 d53f ae80 7f40 9f4c a43f
00000020: bab7 de3f 8409 0a40 1657 b03f 5ade e03f
00000030: dc3d 943f ea18 ad3f fa32 ff3f b68b 373f
1.2784325 2.1570032 2.220031 0.79561925 1.0802189 1.665574 3.992229 1.2835883
1.7399819 2.1568308 1.3776577 1.7567856 1.1581378 1.3523228 1.9937432 0.71697557

pre_processing_batch_norm.2.weight f4 [16]
00000000: ae5e 273f 02d9 813f a721 533f caff 7c3f
00000010: 802b 6b3f 9c97 703f 5278 543f ae3d 5a3f
00000020: 97b3 4f3f df44 383f 9868 603f 7a18 a73f
00000030: cc04 3a3f 0897 513f 0f4a 293f 3f8f 9e3f
0.65378845 1.014435 0.82473224 0.98827803 0.9186325 0.9398134 0.82996094 0.85250366
0.8113341 0.7198009 0.876596 1.3054345 0.7266357 0.8187108 0.6612863 1.2387465

pre_processing_batch_norm.2.bias f4 [16]
00000000: 7997 31be 3e89 3ebe 8cc9 70be 2c5b 7f3e
00000010: 238a 29be 8d2b 053f 034f a3be 8638 aa3e
00000020: 15d4 9f3e ec67 84be 1615 83bc 5f2e 613d
00000030: 772f 7e3d 2d50 8fbd a286 ebbe 5d69 85bd
-0.17342938 -0.18607041 -0.23514384 0.24937123 -0.16556601 0.5201958 -0.3189622 0.3324625
0.31216493 -0.25860536 -0.016001265 0.054975864 0.062056985 -0.06997714 -0.46001154 -0.06514237

pre_processing_batch_norm.2.running_mean f4 [16]
00000000: 1690 c8be 47b4 d3bc 9be5 fabd b02a 33be
00000010: c82f 193e 1741 45be 0315 dfbd fbc5 f4be
00000020: 44c9 edbe de47 813e d5f3 d33d 9a5e 41be
00000030: f3c1 13bf 3d1f dfbd e8c8 b3be 13ea 20bf
-0.3917243 -0.025842799 -0.12250825 -0.17496753 0.14959633 -0.19263111 -0.108926795 -0.47807297
-0.46442616 0.25250143 0.10349242 -0.18883744 -0.5771782 -0.1089463 -0.35114217 -0.6285717

pre_processing_batch_norm.2.running_var f4 [16]
00000000: 5d06 e33e ff1d 0f40 15ac f73f 5cd6 dc3f
00000010: 9509 f23f b8f2 8e3f 1a28 d43f e749 af3f
00000020: bfbe 5c3e 7231 423f 3c92 1740 9c5a 2040
00000030: e4f5 653f ecbf c73e 6428 113f 07a8 1d40
0.44340792 2.2362058 1.934939 1.7252917 1.8909174 1.1167822 1.6574738 1.3694428
0.21557139 0.758567 2.3683004 2.5055304 0.89828324 0.39013612 0.56702256 2.4633806

pre_processing_batch_norm.3.weight f4 [16]
00000000: 1934 573f f065 493f 11a4 773f 5098 3b3f
00000010: 93dc 953f 9f64 2f3f 8bea 553f 2c47 9f3f
00000020: b0c8 353f c913 9d3f 8bcc 973f 47ac 4b3f
00000030: 6e2c 193f 173f 323f ec1e 123f 3520 613f
0.8406387 0.7867117 0.9673472 0.73279285 1.1707939 0.6851291 0.8356101 1.2443595
0.7100935 1.2271663 1.1859297 0.7955975 0.5983342 0.6962752 0.57078433 0.8793977

pre_processing_batch_norm.3.bias f4 [16]
00000000: 5e21 d63c fdcc 423e f6d7 c9be b5c3 043e
00000010: cef7 253f 1eeb 81bd b257 53be f95a 07be
00000020: a384 0a3e f5d0 a03d ce93 6c3e 8de3 373e
00000030: c12d 72bc 3648 bfbb b901 513d 208a 8b3d
0.026138958 0.1902351 -0.39422578 0.12965281 0.64831245 -0.06343673 -0.20638922 -0.13218297
0.1352716 0.078523554 0.23103258 0.17957897 -0.014781416 -0.0058374656 0.051027033 0.06813455

pre_processing_batch_norm.3.running_mean f4 [16]
00000000: 6e6d b03e b317 cc3e 6ed6 523d 088f bd3e
00000010: 8402 9c3e 195b 583e 504e 26be e70a ec3e
00000020: 1341 b6be a6f9 6b3d a720 0f3d 1a97 7d3e
00000030: 067e 41be f87b 0bbe 12f6 ca3d a929 e2bb
0.34458488 0.3986183 0.051474027 0.37023187 0.3047067 0.21128501 -0.16240811 0.46102068
-0.35596523 0.05761113 0.03494325 0.24764672 -0.1889573 -0.13621509 0.099102154 -0.006901939

pre_processing_batch_norm.3.running_var f4 [16]
00000000: 913e 553f 294d 6a40 4b9a 8e3f 3d7c b13e
00000010: e1a9 5740 0f5f 0540 79ab 953f 6a64 0840
00000020: 58df 283f 793f 3b40 f10e 2140 5e71 0340
00000030: c7e7 973f 3eac da3f 36e7 a740 d6e9 4340
0.83298594 3.6609595 1.1140836 0.346651 3.3697436 2.083927 1.1692954 2.1311288
0.65965796 2.925749 2.516537 2.0537944 1.1867608 1.7083814 5.246974 3.0611472

post_processing_lin_layers.0.weight f4 [16, 16]
00000000: c373 cb3e f23c abbe 9bed 70be bfca a53e
00000010: 6e6a 6abd 0289 df3d 3842 743d 787d 32be
00000020: cce2 35bd 2249 bb3c 878f 5b3e f1c0 01be
00000030: 2f96 aa3e 1ba9 97bd c0ae b2be 2185 debc
00000040: afaa a83e d198 49bd ca23 2fbd fc76 29bd
00000050: 5548 c7be 3304 8f3e 4916 623e e94f aebd
00000060: e1de 26be 5cb9 913d 38cf d33d fe40 5fbd
00000070: ce3a 3c3e bc7e 003e 5d8e 14be a7d0 c33e
00000080: acc7 ff3d 5bd7 bcbe 1bda c3be acfd 933e
00000090: 35d4 47bd 3a22 583e d1db bf3b a660 7dbe
000000a0: a535 9dbe a67b 283e 67bc 5d3d 2382 5dbe
000000b0: 96e2 a03d 9efc fbbd a183 81be e382 aebd
000000c0: 3ee7 88be ae72 9ebc 61a1 93be 3b22 91be
000000d0: 99b3 a8be aaed adbd c408 ffbe 693d d1be
000000e0: 4b60 b4be 4f3f ad3d 8549 f4be af55 0dbf
000000f0: 149e 2fbe ad30 53be 90d5 c4ba 52ee 3dbe
00000100: 7083 cabd cd8e d7bd 5287 6a3e f0bd 433e
00000110: c5cf fcbe 7e1d 713e 34b2 7b3e 225e e1bd
00000120: 51dc a0be fc25 193e e728 2c3c d888 44be
00000130: a38d d83d b6d7 adbd 73bc b73b c0a9 36bb
00000140: 38af 86bd 8a5e 95be 9989 96be e1e1 e03e
00000150: 22c6 48ba 048c 49bc b168 84be 0412 40be
00000160: c2a3 c4bd 664a c03e 8aa4 543e b002 25be
00000170: cf1f 0f3e 878e 8bbe c45c 10bf 88be 86bd
00000180: 2347 92be 2ce5 eb3c c33f b6be 7dee 973e
00000190: e9b7 f63d da94 9c3d 1b20 1abe aa51 18be
000001a0: b1e9 7cbd 87ef ac3e 5c94 da3e 6de9 6cbe
000001b0: 7e6e b03e 73ef 30be f5a9 843c a4f0 a3be
000001c0: 5089 8ebe 96f8 afbe c333 37be b9a7 0c3d
000001d0: 32c3 c1be 4889 c3bd 529a 35be 8c10 7cbd
000001e0: 02b6 d1be 54b8 923e 22d2 6ebe bb3e 94be
000001f0: 68ff 4f3d 3054 5c3c 79e0 6bbe a3b3 1ebd
00000200: fe25 83be 17e0 87be 78a8 9dbe d34e 503e
00000210: acf2 e4be a78e 1cbc e645 6ebe 54e6 56be
00000220: 5fe3 99bb 0c06 933d a184 8a3e 9cb5 c03a
00000230: 61cb 3b3e 9d0a b3be 1c99 18be 6053 8dbe
00000240: 2229 843d 279b 41bf 3829 62be 1134 4b3e
00000250: 7e93 2a3d 5dab c13d 76c6 023c 4ed8 33be
00000260: 0a86 fcbb e583 623e 99d0 ad3e 26be 47be
00000270: 172f 893e 6ca0 59be 0dc9 7dbf 9767 fabd
00000280: f578 10be 229c bebc 2eaf 02be 997c c83e
00000290: a70c 273e bf0a 80bd 3fe1 71be bc57 9dbe
000002a0: 4d68 133e 6b41 333e 71ad 1a3d 92bc 72be
000002b0: 62f2 d23e 5d24 a5be 4aa4 803a cddf 2d3e
000002c0: 5ffb 633d 0876 213e 85d4 8d3e 9b03 03bf
000002d0: 3e7e adbe 8d58 643e 1668 8b3c e8d2 0e3e
000002e0: 6b58 63be f2fb 7dbe 60ec 38bd 5164 2e3d
000002f0: b3d6 9cbd 2a69 5a3e 6b0a ca3e 6bb4 0eb9
00000300: 40af c2bd c168 7bbf 87fc b9bd aa5a c33c
00000310: 6b8d a6be 2ae7 10be 598f b3be 6cfe ccbe
00000320: bb21 8ebe cc46 7f3e b3bb 673d 0b7b 21be
00000330: fb8b 463e 9b62 97be 65f8 09bf 3f53 38be
00000340: 5faf 9f3e 9828 c5bd 96a5 e9bd 9e2b 733e
00000350: cfee 973e ba3a 0c3e 2e18 773e bf69 66be
00000360: 136f e33e 82b2 3dbe a2f7 783e 45a0 973e
00000370: 751b a63e 1ff1 0ebd 648a 37be b058 853e
00000380: da32 7fbe a05b 45be 5d24 0fbe 97d3 7d3e
00000390: 544d 1b3e 1449 6d3e 8c75 a5bd d916 c2be
000003a0: b594 9f3d a63b cd3d 6e0f c83e 1520 56be
000003b0: 75c0 2d3e 5e44 c7be c804 fdbe 41a4 8c3e
000003c0: 94f4 4fbe c4e1 5ebe b57a 40bf 84a2 3f3e
000003d0: 3d13 c0bd 20f6 35bd fac9 77be af3b 91be
000003e0: 48e3 71bb 4edb 5abd 6d12 8c3d 86ca 64be
000003f0: 2ab4 d63d 1ec3 e6be 8677 56bf 30a7 513d
0.39736757 -0.33444935 -0.2352814 0.32381245 -0.057230406 0.10914804 0.059633464 -0.17430675
-0.044405743 0.02286202 0.2144147 -0.12671258 0.33317706 -0.07405301 -0.3489895 -0.02716309
0.3294272 -0.049218003 -0.04275874 -0.041373238 -0.38922372 0.2793289 0.22078814 -0.085113354
-0.16295959 0.071154326 0.10342258 -0.05450534 0.18381807 0.12548345 -0.14507432 0.38245127
0.12489256 -0.36883053 -0.3825234 0.28904474 -0.04878636 0.21106806 0.0058550616 -0.247439
-0.3070499 0.16453418 0.054134753 -0.21631674 0.07855718 -0.12304042 -0.25295737 -0.085210584
-0.26738924 -0.019341793 -0.2883406 -0.28346428 -0.32949522 -0.084925964 -0.49811375 -0.40867165
-0.35229716 0.08459341 -0.4771234 -0.5520887 -0.17150146 -0.20624037 -0.001501726 -0.18547943
-0.09888351 -0.10525284 0.22903183 0.19115424 -0.49377266 0.23546407 0.24579698 -0.110042825
-0.31418088 0.14955896 0.010507799 -0.19192827 0.1057389 -0.08488409 0.0056071817 -0.0027872175
-0.06576389 -0.2917369 -0.29401854 0.43922332 -0.00076589186 -0.012301449 -0.25861123 -0.18756872
-0.09601547 0.37556762 0.20765892 -0.16114306 0.13976978 -0.27257177 -0.5639155 -0.0657931
-0.28569898 0.028795801 -0.3559552 0.2967414 0.12046797 0.07645579 -0.1505131 -0.14874902
-0.061746303 0.33776495 0.42691314 -0.2313592 0.344593 -0.17278843 0.016194323 -0.32019532
-0.27839136 -0.34369344 -0.1789084 0.03433964 -0.37844235 -0.09547669 -0.1773465 -0.061539218
-0.40959173 0.28656256 -0.23322347 -0.2895411 0.050780684 0.013447806 -0.23034848 -0.038745534
-0.25614923 -0.26538154 -0.30792594 0.20342569 -0.44716394 -0.009555495 -0.23268852 -0.209863
-0.004696294 0.07178888 0.27054313 0.0014702561 0.18339302 -0.34969035 -0.14902157 -0.27602673
0.06453158 -0.7562737 -0.22086036 0.1984408 0.041644566 0.09456513 0.007981887 -0.17562982
-0.0077064084 0.22120626 0.3394821 -0.1950613 0.2679374 -0.21252602 -0.99134904 -0.122267894
-0.14108641 -0.02326781 -0.12762138 0.3915756 0.1631342 -0.0625205 -0.23621081 -0.30731
0.14395256 0.17505424 0.037763063 -0.23704746 0.41200548 -0.32254305 0.0009814587 0.16979904
0.055659648 0.15767682 0.27701202 -0.51177377 -0.33885378 0.22299404 0.017017405 0.13947642
-0.22201698 -0.24803141 -0.0451473 0.042576138 -0.07658138 0.2132918 0.39461073 -0.00013609386
-0.095060825 -0.98206717 -0.09081369 0.023846943 -0.32529768 -0.14150682 -0.35070303 -0.40037858
-0.2776011 0.2492935 0.05657549 -0.15769593 0.19389336 -0.29567418 -0.53894645 -0.18000506
0.31188485 -0.09626883 -0.11408536 0.23747107 0.29674384 0.13694277 0.24130318 -0.22501276
0.4442068 -0.18525127 0.24313214 0.29614463 0.32442823 -0.03489792 -0.17923886 0.26044226
-0.24921742 -0.19273233 -0.13978715 0.24787746 0.15166217 0.23172408 -0.08079061 -0.37908056
0.077920355 0.10021143 0.39074272 -0.20910676 0.16967948 -0.38919348 -0.4941771 0.27469066
-0.20308143 -0.2176581 -0.75187236 0.18714339 -0.093786694 -0.044424176 -0.24198142 -0.28365847
-0.0036909152 -0.0534318 0.06839452 -0.22342882 0.10483582 -0.45070738 -0.8377613 0.051184833

post_processing_lin_layers.0.bias f4 [16]
00000000: 5bb3 f3bd 4bd7 8dbe 4536 0abd 93de 003e
00000010: 7e96 1a3e 979c 2dbe 12c8 3cbe 2b1d 8c3d
00000020: 7400 0e3d aa93 ee3d 91dc 5abe 3e64 c03d
00000030: da0a b6bb 6f42 cf3c a351 a8bd 5e96 9c3d
-0.11899444 -0.27703318 -0.03374316 0.12584905 0.1509647 -0.16954266 -0.18435696 0.06841501
0.0346684 0.116492584 -0.21373202 0.0939412 -0.005555493 0.025300233 -0.08218696 0.07645868

post_processing_batch_norm.0.weight f4 [16]
00000000: d494 0c3f e0b4 213f e30c f93e 4b96 9a3e
00000010: 8029 b73e 4f57 d63e 3e47 023f 9d2b 893e
00000020: 004d c63e bcd0 d13e 3bea 043f 13c1 fa3e
00000030: a905 fe3e a375 473f ea98 ea3e d334 c73e
0.54914594 0.6316662 0.48642644 0.3019279 0.3577385 0.41863486 0.50889957 0.26791087
0.3873062 0.40979564 0.5191991 0.4897543 0.49613693 0.77913874 0.4581979 0.3890749

post_processing_batch_norm.0.bias f4 [16]
00000000: 02d3 40bf 1558 1abf 3b64 53bf 91e4 7bbf
00000010: d489 61bf f5cd 1cbf 00d4 07bf 7ab7 44bf
00000020: a804 27bf 374b 0dbf 720d 1bbf cefb 74bf
00000030: 966a 49bf eaf6 44bf a265 04bf b020 02bf
-0.7532197 -0.6029065 -0.82574815 -0.9839564 -0.88100934 -0.61251765 -0.5305786 -0.76842463
-0.6524148 -0.55192894 -0.6056739 -0.95696723 -0.7867826 -0.7693926 -0.5171758 -0.5083113

post_processing_batch_norm.0.running_mean f4 [16]
00000000: 1e30 d8c1 c217 1ac1 1f2e 2ac1 37cd 4742
00000010: 48d6 3741 5688 86c1 5790 08c1 002c a041
00000020: 2f29 5ec0 8fc4 04c2 18f5 ddc0 ca49 db41
00000030: abbc b740 07a9 37c2 239b b6c1 523e b9c1
-27.023495 -9.6308 -10.63626 49.950405 11.489815 -16.81657 -8.535239 20.021484
-3.4712636 -33.19195 -6.9361687 27.41103 5.7417808 -45.915066 -22.82575 -23.15543

post_processing_batch_norm.0.running_var f4 [16]
00000000: 352b 6e43 dd63 6a43 0433 8c42 c60c d144
00000010: 928f 2344 c847 6243 17a4 0043 db27 2844
00000020: 1b1a 4a42 a31e 1b44 740a b542 6105 7f44
00000030: 4397 a943 ad0b ac44 4c6a c843 764e e643
238.16878 234.39009 70.09964 1672.3992 654.2433 226.2804 128.64098 672.62274
50.525494 620.4787 90.52042 1020.08405 339.18173 1376.3649 400.83044 460.61298

final_lin_layers.0.weight f4 [16, 16]
00000000: 3fba 03bf 499c 9abd f3a2 1dbf 7730 a2bd
00000010: 6b32 ac3e 355c 493c 492d 43be ea2a 3a3e
00000020: b801 6ebe 5a47 cebd f759 afbe 0a3e 8cbe
00000030: 7ed8 d3be 86a2 c2be c193 1bbe a115 26be
00000040: b5cd ebbd 4343 27be 5e84 563d 8969 753d
00000050: 176c 5cbe ed04 353d 18ea 153e 63b2 d03c
00000060: 4da7 cd3d c884 9c3d ddac 9b3d 77ef 0e3e
00000070: 1123 8d3e 73da f53d f55a b6bc 1a06 0c3e
00000080: 7e9b 97be 9032 1cbc 7664 aebe 14cc 0e3c
00000090: 5eaa 7bbc afcb fa3b 680d 21be 7a3b 88b9
000000a0: 8d2c 13be a2d4 4ebe 3d5b 23be dd85 3abe
000000b0: 3539 0abe ab7f e5bd 233f 6fbe cfba 7fbd
000000c0: 95c2 8c3d f18a 3f3d 8add c83d 0aa1 b7bd
000000d0: e367 e8bc 015d 773b 49a6 a9bb c2c7 b0bd
000000e0: e0e2 2cbe 1e70 2fbe a15e 6abe 04fc 39be
000000f0: 78c7 6bbe 1678 8fbe 08fa 1abe a4c3 b7bd
00000100: a4f7 223d abb4 193e 6ad4 ea3d 5411 d53d
00000110: ea42 b4bd f0b4 b23d 2f99 303b 2537 d5bd
00000120: 7156 813e f59d ba3c 4931 e5bd aa1a 023d
00000130: 64ea cc3d e37c d43d ccb8 53bd 09f8 25bd
00000140: 7690 ecbd f8a0 76be 5f34 30be 2429 943d
00000150: 83c7 1bbe a39a 23be bf55 e1bd bf0e f9bd
00000160: 97c8 83be cbf9 5fbe 3b9d 21be 1154 4ebd
00000170: e403 bdbd 5fc8 9bbe f192 44be 43c0 7ebd
00000180: 266b cdbe 7362 20be 99c0 fcbe 2a43 3cbe
00000190: 4fd0 83bd 2eda 77bd 260e bcbd 25dc 0fbc
000001a0: 71f4 80be 6eab 0cbe 2cf0 65be 48a3 15be
000001b0: eeea 31be 4d31 b7bd 1ac8 0ebe 3404 48bd
000001c0: 821b 60be a49c 0fbe 651b a03d 9ab6 193e
000001d0: 4bbd 9dbd 1642 f03c 1141 423d 17be 10be
000001e0: a1b5 0b3e ce20 a43d 35a0 eb3c a05a 423d
000001f0: ad22 5c3e 0790 01bd f5d1 493e d4df 7c3e
00000200: 2bf9 0dbf 2d70 053e 1745 0fbf 3e90 603e
00000210: 3d32 963d 156e 05be 5ac9 5abe d1a3 903e
00000220: cb2a 47be 13b1 28be 78f3 81be 1008 d7be
00000230: 386f 8bbe 6bbf 53be ca32 48be 70ac 83bd
00000240: 7aa0 c73c dd42 ac3d 5011 d23d 4817 1bbe
00000250: b688 90bd d4eb f7bd 641e e0bd d61d dfbd
00000260: a44d c53d e93c 4dbe 3c78 84bd 6d0f 0cbe
00000270: 42c4 adbe 3cd8 12be 0485 3abe 26ca 52be
00000280: 81df edbd 39aa 46be 157c 41bd 0abc 6e3e
00000290: b4ed 48be f435 073d 8257 293d adf0 58bd
000002a0: 9b93 403e 8dd0 7c3d 97ae 5dbd b297 9bbe
000002b0: e403 f93c 56f5 62bd c8c1 1bbd ac33 af3c
000002c0: de2b 98bd 11c7 643c e4fe 04bd 7c29 08be
000002d0: 958b 013c effc fdbd cde9 3fbe e45b 11be
000002e0: 9175 87be c77f 8f3d c0b9 3e3c 64e8 6dbd
000002f0: afb1 6bbe c9c1 62be f501 22bc 091f 80bd
00000300: 1ce3 48be 800b 2bbe fede 2dbe 8e15 953c
00000310: 04a0 3a3c 2eef dfbd ff02 85be aaf6 0ebe
00000320: ea5c 90bd 4527 8dbd f5a9 80bd 6d50 1dbe
00000330: deb4 35be b403 48be c8d6 5ebe 412a d0bd
00000340: 05df 8dbc 34e3 06bd 4717 9dbe cfa6 a7be
00000350: 68e2 a5be 24a9 76be 5826 94be 7b50 28be
00000360: e5e2 98be 59f5 f6bd cc92 4cbe 6c84 22be
00000370: fbef 2dbe 6eef 25be dfd1 bfbd 96cb b1bd
00000380: bbd7 813d 36be c03d da01 cbbd c369 a93c
00000390: 741f a83d 8d5d a23d a43a bfbd 0fcd 863b
000003a0: cf1a a63c f299 633d 4709 9e3d d773 b03d
000003b0: 7082 e33d 8612 873d 0f9b 343e b4ea ec3d
000003c0: 1be3 36be 2fca 82bd efff 02be ef2c efbd
000003d0: 8adb 8b3d 7266 86be 6abd 7dbe 0b0f 18be
000003e0: 2f8a 2abe b905 48be 8a6b 99be 8a38 c4bd
000003f0: 72e3 8abe 9368 8ebe c27f 8cbd cb1c 8abe
-0.51456064 -0.0754934 -0.61576766 -0.079194 0.33632216 0.01229005 -0.19060244 0.18180433
-0.23242843 -0.10072203 -0.34248325 -0.27391082 -0.41376108 -0.3801462 -0.15193082 -0.16219188
-0.11513845 -0.16334252 0.05237233 0.0599151 -0.21525608 0.04419415 0.14640081 0.025475686
0.10041676 0.076425135 0.076013304 0.13958536 0.27565816 0.120045565 -0.022260169 0.13674203
-0.2961082 -0.009533539 -0.3406102 0.008715648 -0.015360443 0.0076536755 -0.1572777 -0.00025984255
-0.14372464 -0.201983 -0.15952773 -0.18215127 -0.13498385 -0.11205991 -0.23363928 -0.062434014
0.06873051 0.046763364 0.0980788 -0.08966263 -0.02836985 0.0037744644 -0.0051772934 -0.08631851
-0.16883421 -0.17132613 -0.2288766 -0.18162543 -0.2302531 -0.28021306 -0.15134442 -0.08972862
0.03978695 0.15010326 0.11466296 0.10403696 -0.08801825 0.08725917 0.0026946773 -0.104109086
0.25261262 0.022780398 -0.11191041 0.03176371 0.10005644 0.10375383 -0.051689908 -0.040519748
-0.11550991 -0.24084842 -0.17207478 0.072344095 -0.15212826 -0.15976958 -0.11002683 -0.12161016
-0.25738975 -0.21872632 -0.15782635 -0.05037314 -0.09229258 -0.3042631 -0.19196679 -0.062195074
-0.4012081 -0.15662555 -0.4936569 -0.18384996 -0.06436216 -0.060510807 -0.09182386 -0.008780514
-0.25186494 -0.1373727 -0.224549 -0.14613068 -0.17374775 -0.0894495 -0.1394352 -0.048832133
-0.21885493 -0.14024597 0.07817725 0.15011063 -0.077021204 0.029328387 0.047425333 -0.14135014
0.13643505 0.080140695 0.028762916 0.047449708 0.21497603 -0.031631496 0.19708999 0.24694759
-0.55458325 0.13031073 -0.559648 0.21930024 0.07333801 -0.13030274 -0.21365872 0.28249982
-0.19449918 -0.16473798 -0.25381064 -0.4199834 -0.2723329 -0.20678489 -0.19550624 -0.06429374
0.024368513 0.08411191 0.10257208 -0.151456 -0.070573255 -0.121055275 -0.109432966 -0.10894363
0.096339494 -0.20042767 -0.064682454 -0.1367776 -0.33938795 -0.143403 -0.18214804 -0.20584926
-0.116148956 -0.19400872 -0.047237474 0.23313919 -0.19621927 0.033010438 0.04134322 -0.0529639
0.18806307 0.061722327 -0.05412158 -0.30389172 0.030397363 -0.05540975 -0.0380266 0.021386944
-0.07430242 0.013963477 -0.032469645 -0.13297075 0.007906814 -0.12401759 -0.18741532 -0.1419521
-0.26456884 0.070067935 0.011640966 -0.058082953 -0.23017 -0.22144236 -0.009888162 -0.062559195
-0.19617885 -0.16703606 -0.16979596 0.018198755 0.01139069 -0.10934292 -0.25978848 -0.13961282
-0.07048972 -0.06892256 -0.06282417 -0.15362711 -0.17744777 -0.19532663 -0.2176162 -0.10164309
-0.017318258 -0.03293152 -0.30681822 -0.32744452 -0.32399297 -0.2408796 -0.28935504 -0.16436951
-0.29860607 -0.12058515 -0.19977874 -0.15870827 -0.16986077 -0.16204616 -0.093662016 -0.08681409
0.063399754 0.0941128 -0.099124625 0.020680314 0.08209124 0.07928 -0.09337357 0.0041138004
0.020276455 0.055566736 0.07716613 0.08615845 0.11108863 0.0659533 0.17637275 0.115682036
-0.17860071 -0.0638622 -0.12792943 -0.11678492 0.06828983 -0.26250035 -0.24779287 -0.14849488
-0.16654275 -0.19533433 -0.29964858 -0.095810965 -0.27126652 -0.2781416 -0.06860305 -0.26975092

final_lin_layers.0.bias f4 [16]
00000000: 2e80 163f 8bc0 0abe dbeb 993e 1477 2f3e
00000010: d547 1dbe 0055 8f3e c4bd a73e fcd1 8bbd
00000020: de8f 0e3f 8e18 cd3d 2fac 533e a4bb 033e
00000030: edf6 8e3e 5719 543e 355e dcbd f507 893e
0.58789337 -0.13550012 0.30062756 0.17135268 -0.15359433 0.27994537 0.32761967 -0.06827161
0.55688274 0.10014449 0.20671152 0.12864548 0.27922764 0.20712791 -0.10760156 0.26763883
