checkpoints/checkpoints_homogeneous_biomarker_vessel_graph/DCP_model_1_Fractal_t9o7s4qg_best_mean.pt (torch, 145088 bytes, 18 tensors)

pre_processing_lin_layers.0.weight f4 [64, 15]
00000000: f5fb 813d 2f29 fdbd bad3 4cbe 4d2c ee3d
00000010: 3d19 253d fd30 2fbd be58 37be 1434 1abe
00000020: 7358 a8bc bcd4 d2bd a472 f6bd cdc9 edbc
00000030: 6280 34be 4b80 c53d 71ee 8a3d 7d2d 1b3c
00000040: c60a a53c 9523 953d b77c 0a3d 1626 f4bc
00000050: 3acd ab3d f2bb 1b3e 9004 213d 50b3 b1bc
00000060: 8439 153e 8095 2f3e 8cea 8f3d c6b3 9b3d
00000070: 9860 243d 7d43 5e3d 4af2 ecbd d443 463e
00000080: ed68 363d c76f 6e3d baff 9a3d ce3d 823c
00000090: 04a8 b9bd 880a abbc b689 33be bcdc 9e3d
000000a0: 8513 4d3e 7b8a e6bd 2454 1c3e 221a 473d
000000b0: a571 6cbe 8253 873c 7514 73be 22fa 84be
000000c0: 44c8 96be 08af dd3d 3b9e b53c d6e1 9d3b
000000d0: cec1 1c3d 8365 1e3e 67dc e2bd e8d6 49be
000000e0: e151 903d fbb6 25be 0141 1c3e 3072 993e
000000f0: 67cd b8bd 1f18 43bc 0e4a fd3d d265 db3d
00000100: 5da0 153e 60a1 893c 36d2 88bc aa6d 033d
00000110: f5f9 dabd 9b69 5bbd 68fc de3d cdca eabd
00000120: 2df0 373e 529e 14bd 367d 09be 7743 df3d
00000130: 3b6a 533d 018d 04be a103 7dbc f050 14be
00000140: fd85 5e3d 3fc1 09bd 5f0d 5dbc a2b9 bf3d
00000150: 708e 9ebc 373e 593e 0893 a2bd 1ca3 8dbc
00000160: 9c88 b4bd 019a d0be a0d7 943d 95ec 163e
00000170: e8e1 57be a18f 7ebd e547 bbbd f31e b9bd
00000180: 56e5 c2bd 0ae6 f13b 7127 013e 93dc 203d
00000190: 8475 0c3e 438a 77bd 3680 043c 8f41 dc3d
000001a0: c5ae 1d3d 07e4 89bc e985 6a3d 23ae fdbd
000001b0: 5b96 b93d da8c cc3c 0ceb e2bd ef90 6bbe
000001c0: b8bf 52be 3d30 0abc 1896 05bd 14ce a5bd
000001d0: e72a a23d 1fe8 a8bc 8f96 08be 6e39 96bd
000001e0: c8ce 403d e0a7 793d 4de1 3abe aaad 693d
000001f0: dc88 24bd 5b35 1c3d ef4b f23d acef 07bd
00000200: 7e13 09be fa66 ff3c 44c5 c13d d17c cb3d
00000210: 0d05 2a3e 7329 e53c 48fb b73d 7448 9cba
00000220: c801 2f3e af47 943c 83ad 44bc 8a22 223c
00000230: c163 c23d 0a10 853d 377e e83d ad15 8f3c
00000240: 7f4c 92bd 24f8 0abe 2bc6 223b 5536 aabd
00000250: b666 dc3d 88af 98bd ed63 e9bd 195e 14bd
00000260: 6373 2d3e 993b 113c e84c e23d 86c9 a23d
00000270: 33d2 1abe 0a28 3d3d bb72 37bd 64ae 20be
00000280: 33f0 5a3e 858d ddbc 7545 fa3c ca75 65bd
00000290: 80ee 343e b960 7c3d 4dc6 f6bd a217 c93d
000002a0: 7380 663d 620e 01be 36c4 67ba 8844 6a3e
000002b0: 513c fdbb db72 8fbd 3c91 043d 94bc 40bd
000002c0: 1ac0 aabe 1e92 fa3d 7439 41be 2de6 54be
000002d0: b57b babd 3a98 ac3d 790d 1b3d cbe6 1d3e
000002e0: c46c 1b3e b7a5 343d 96b5 f43b 25f7 b2bd
000002f0: 51da 24be 051c 033e a752 02be 51ec 31be
00000300: e59a 223d ec4c 273d ee97 36bd 85f9 823d
00000310: 931c e1bd 2eba d4bd 5882 24bd 2ffa f33d
00000320: 4497 613e 29d9 8a3d 0614 bdbd 35c5 183d
00000330: c55e 96bd 616c 553d 7ab7 423c 9155 01be
00000340: 8ad1 f5bc 7f8f 4abe 1cd6 033e 926c d3bc
00000350: 4a34 c83c 939c 013e 9203 d23d 1a23 143e
00000360: ba17 c23d a37d 87bc 70fc 253e 124b ec3c
00000370: f9c6 40bd 2178 38be c44c 543d 5849 b2be
00000380: 3718 c4be c7f2 05be 7020 a63d d8cd 623e
00000390: 6274 b1bc 662e 48bd 3994 823d c4d2 be3d
000003a0: da6b b83c e9c5 223e e5a9 e5bd 2fe2 503d
000003b0: d918 50be 8bf6 01be 1421 383d d543 e0bd
000003c0: fe64 47be 0ccb b03c 7d82 42be 24a9 63be
000003d0: 3bf4 b73c 7ef3 893d cda9 123e bea5 1bbe
000003e0: 5890 e5bd 56c8 86be 63f8 053e 6738 6a3e
000003f0: 2db7 b13d 4fcd 56bd ae34 f33d 9828 c8bc
0.06346885 -0.12361371 -0.20002642 0.116295435 0.040307272 -0.04277133 -0.17904946 -0.15058929
-0.020549988 -0.10294482 -0.12033585 -0.02902689 -0.17627099 0.096436106 0.0678376 0.0094712945
0.020146739 0.07282177 0.033810344 -0.029803317 0.08388753 0.15208414 0.03931099 -0.021691948
0.14572722 0.17146873 0.07027158 0.076026484 0.04013118 0.05426358 -0.115696505 0.19361812
0.04453366 0.058212068 0.07568307 0.015898611 -0.090652496 -0.020879045 -0.17533001 0.077569455
0.20026977 -0.11256882 0.15266472 0.048608907 -0.23090227 0.016519312 -0.23738272 -0.25972086
-0.29449666 0.108244 0.022170177 0.0048181815 0.038270764 0.15468411 -0.11077195 -0.19710886
0.07046867 -0.16183083 0.15259172 0.2996993 -0.090235524 -0.011907606 0.123676404 0.1071278
0.14611955 0.016800582 -0.016701799 0.032087006 -0.10692207 -0.05356751 0.108879864 -0.114644624
0.17962714 -0.0362838 -0.1342667 0.1090154 0.05161498 -0.12944414 -0.01544276 -0.14484
0.054327 -0.03363156 -0.013491957 0.093615785 -0.019355029 0.2121514 -0.079382 -0.01728969
-0.08815119 -0.40742496 0.0726769 0.14738686 -0.2108227 -0.062148694 -0.09144572 -0.09039106
-0.095163986 0.007382159 0.12612702 0.039272856 0.13716704 -0.06043459 0.0080872085 0.10754692
0.03849675 -0.016832365 0.057256613 -0.123867296 0.09061881 0.024969507 -0.11079988 -0.23004507
-0.20580947 -0.008434352 -0.032613844 -0.08095947 0.07918339 -0.020618496 -0.13338684 -0.073351726
0.047072202 0.060951114 -0.18250008 0.057050385 -0.04016958 0.03813682 0.118308894 -0.033187553
-0.13386342 0.031177033 0.094614536 0.09935916 0.16603489 0.027973866 0.08983475 -0.0011923448
0.17090523 0.018100588 -0.012004259 0.00989593 0.09491683 0.064972 0.113521986 0.01746639
-0.07143497 -0.1357122 0.0024837356 -0.08311144 0.10761778 -0.07455355 -0.113960125 -0.03622255
0.16938548 0.008864307 0.11049825 0.07948594 -0.15119247 0.046180762 -0.04478715 -0.15691525
0.21380691 -0.02704502 0.030550698 -0.056020536 0.17669106 0.06161568 -0.120495416 0.09818961
0.056274842 -0.12603143 -0.00088411884 0.22877705 -0.0077281375 -0.07004329 0.03236507 -0.047054842
-0.33349687 0.12234901 -0.18869573 -0.2079093 -0.091056265 0.084274724 0.037854645 0.15420072
0.1517821 0.04410335 0.007467936 -0.08738545 -0.16098906 0.12803657 -0.12726842 -0.17375304
0.0396985 0.040844843 -0.044578485 0.06395248 -0.10991778 -0.103870735 -0.040163368 0.11912953
0.2203036 0.06779701 -0.09232335 0.037297446 -0.073422946 0.05210531 0.0118845645 -0.12630297
-0.030007143 -0.19781302 0.12874645 -0.025808606 0.024438996 0.12657385 0.10254587 0.14466515
0.09477182 -0.0165394 0.16209579 0.02884439 -0.047064755 -0.18014576 0.051831022 -0.34821582
-0.38299724 -0.13080893 0.08111656 0.22148836 -0.021661941 -0.048872374 0.063759275 0.09317544
0.022512365 0.15895809 -0.112140454 0.050996955 -0.20321979 -0.12691705 0.04495342 -0.10950438
-0.19472119 0.021581195 -0.1899509 -0.22232491 0.022455325 0.067358956 0.14322586 -0.15199944
-0.11209172 -0.2632472 0.13083033 0.22873078 0.08677516 -0.05244189 0.11875282 -0.02443342

pre_processing_lin_layers.0.bias f4 [64]
00000000: c943 c93b ee0f dab9 e918 38bc f1c2 5f3e
00000010: ba30 04be ea0e 0dbe 5861 4dbd db15 bfbd
00000020: ce0a 6f3c 76bc fe3c 2974 4e3c 9add c2bd
00000030: 175d 27be 42f6 be3d e900 4abe 9435 f8bd
00000040: 7b56 463e c557 663d 98c7 0d3d e730 bc3b
00000050: 3cac 2f3d 59f8 bdbd 9486 ffbd e7c1 a63d
00000060: 4410 103d 9b85 abbd caf1 223d 596f 80be
00000070: 7d57 4f3e 15d8 95bb 81f7 15be 569a 15be
00000080: 3f34 2b3e 5e3e 473c b9c6 91bd cc96 3a3e
00000090: 5233 d5bb 881b ffbd 6298 54bd cbcb 29bc
000000a0: f053 afbc 46f3 10bd 053f 42bd 8646 2b3d
000000b0: 6f12 42be 273a 16bd 75f8 d2bd cb08 c3bd
000000c0: 1d49 9b3d 86e4 d9bd ccc2 133e 170d 75bd
000000d0: 9db0 fbbd c2c0 bebb 2970 c23c e9d7 3ebb
000000e0: d7c6 863d 1e74 0bbe 6e87 54bc 3136 303e
000000f0: b806 583e e436 593d 0321 5f3d 1601 c5bd
0.006142114 -0.0004159207 -0.011236408 0.21851708 -0.12909213 -0.1377522 -0.050141662 -0.093303405
0.014589978 0.031095725 0.012600937 -0.095149234 -0.16344105 0.09324314 -0.1972691 -0.12119594
0.19368927 0.056236047 0.034614176 0.0057431343 0.042888865 -0.09275884 -0.124768406 0.08142453
0.035171762 -0.083750926 0.03978137 -0.25084952 0.20248218 -0.004572878 -0.14645196 -0.14609656
0.16719149 0.012160866 -0.071179815 0.18221587 -0.006506362 -0.12456423 -0.051903136 -0.010363529
-0.02140233 -0.035388254 -0.04742338 0.041815303 -0.18952344 -0.036676552 -0.10301296 -0.095231615
0.075823046 -0.106392905 0.14429778 -0.059826937 -0.12289546 -0.0058213184 0.023735123 -0.0029120392
0.065808944 -0.13618514 -0.012971742 0.17208172 0.21096313 0.053030863 0.05447484 -0.09619348

post_processing_lin_layers.0.weight f4 [64, 64]
00000000: 4eef 953d b6f8 ddbd a53e 5d3c fad9 38bd
00000010: 98b0 c43d 5886 8b3c 7580 923d 99f5 29bd
00000020: ec67 8fbd 5d52 6ebd f2e5 42bd 593a 813c
00000030: 18e4 aebc 0fed 353d 7d47 77bd f69d 303d
00000040: e3ba 8dbd 6f97 6e3d 61cc 9bbc f1da 263d
00000050: cfcd 8bbd b197 b83d d546 d83c af4c 86ba
00000060: 45d3 4abd fa08 70bd 3277 87bd 79fc ab3d
00000070: 121b 84bd 12e1 823d 1477 ba3d b91d c7bc
00000080: fcdf cabb 9e6f a1bd 22bc 843c da0c 86bd
00000090: aa24 6cbc c29c 1cbd 166d bf3c c5e2 653c
000000a0: 979c 033d 7526 e2bd e7cb 4ebd 7b8a c33b
000000b0: 59c1 8dbd 56be b4bd 9840 c4bc 55da 9cbd
000000c0: 69a5 e0bd 3a9a 4d3d 07c0 babc 3ebc d23c
000000d0: 8da8 913d 77d1 5e3d 9111 27bc 87e4 d63c
000000e0: 5638 16bd 1af9 01bd e845 aa3d 5fda 92bd
000000f0: b677 593d 4c06 c93d 0787 55bc 1a66 9e3c
00000100: 24b1 943c b290 e0bd f859 7f3c 5bba 623c
00000110: 74eb 66bd 9e23 be3d 9460 70bc 68c2 3e3d
00000120: 60af 4fbd 40ec d9ba 997e 8c3d f4fc 93bd
00000130: 3604 e53d 6997 36bd 6980 b9bd 5cc3 f0bd
00000140: a7a2 9d3d 9c5a 83bd e195 fe3c cb8a 90bd
00000150: 3b3e b5bd 627d 273d 1dbc 393d 0688 bc3d
00000160: 3037 b4bc f005 89ba 1d37 883d db96 853d
00000170: 48d1 a1bc eb35 63bd 6c32 9abd bd6e 5f3d
00000180: c396 c2bd 999d 983c 12d3 0cbe c5d8 073d
00000190: 523e 993d d050 4f3d 65ea dcbc a0c9 673c
000001a0: 1c17 4d3d 9afe a83c e1d7 503d 3a61 86bc
000001b0: 8751 b1bd 57c8 233d 402a cebc 12aa 133d
000001c0: f840 9a3d cfdb 043c c210 c7bd 565d f63b
000001d0: afef 0b3c 6656 b3ba 540a 9c3c cf14 363d
000001e0: b324 a33d 57a4 213d e941 913d a175 893c
000001f0: 2e34 afbb 1006 c83d f788 48bd c2fa 173d
00000200: fefe c23c bd66 edbd c2d2 b23c 9326 9d3d
00000210: 8112 a73d 45b6 3f3b b89f f5ba 3af5 033b
00000220: aafd d7bc ceca 6ebc e379 d7bc 7fb8 ed3b
00000230: 77e5 313d 763f 1c3d fbd7 583d 281d b83d
00000240: 25bd 983d ebc9 e6bd 7833 123e 36b2 ccbd
00000250: 9e9a e13d 0b1e b23b 175b be3c 3229 ba3d
00000260: fd74 10bd c349 c4bd 79a5 5d3c 27a4 813d
00000270: 88c3 f3bc 0732 b1bd 6af8 183c e1fb bb3d
00000280: f376 4ebd b9f7 023d 3dae 86bd 9e78 b33d
00000290: a89e 18bd 29d8 963d 8535 d0bc c755 b43d
000002a0: 470d 0b3d e3e5 7e3c 450a 273c 0e3e e43c
000002b0: 12b8 a73b 5f57 8e3c 53cf 56bd 60aa 2c3d
000002c0: 3c17 743d 65f1 95bd 704d 50bd 59bb ff3c
000002d0: 8a1b c5bc 5ad3 e63c 8f15 aa3d 2a3f be3c
000002e0: bc62 e43c 6870 29bd ce4d 89bd 60d9 4c3d
000002f0: ab52 14bd 0970 e3bc 1937 b43c 5a89 063e
00000300: 35be f6bd 06d3 f33b 421a c0bd 5020 3ebd
00000310: 47f9 2a3d dc07 403d b9f2 2cbd f500 943c
00000320: 65c7 e0bd e14c c23c c667 33bd 7069 a93d
00000330: 4d8d 343c b455 2dbd 90fb b5bc 8169 2eb9
00000340: de18 fa3d b253 28be 4a7b 05bd f983 9e3d
00000350: 31a8 e53d b9a0 9a3d 8f6e 173e 1955 b53c
00000360: 268a f1bd fc58 573c 8a58 afbd 017d a4bd
00000370: 75c0 333e d2b9 efbd 569f 6d3d 416b fabb
00000380: aff7 843c b994 5b3b 4f2b cf3d e083 453c
00000390: 11ac af3d b1de c03c 2e59 983c ff7b 07bd
000003a0: 3a5a 95bb 7c81 37bd 5c82 023d 17e1 82ba
000003b0: 9bad 7f3c 305f b43d 9a5c 313d 1394 e13d
000003c0: a99d a9bb 09db 8e3b 270b 66bd 4557 04bd
000003d0: 573c 523d 7dde 01be ad7d 91bd 17cf 0bbc
000003e0: bd06 c83d 07da b73d 596c 1c3c 7b27 1cbc
000003f0: f7bb 983d c1cf a9bd 40b3 34bd 6caf 0dbd
0.07321034 -0.108384535 0.013503705 -0.045129754 0.09603995 0.017031834 0.071534075 -0.041493986
-0.070022434 -0.058184016 -0.047582574 0.015774893 -0.021348998 0.04441553 -0.06037091 0.043119393
-0.069204114 0.058249887 -0.019018354 0.040736143 -0.06826364 0.09013308 0.026400963 -0.0010246242
-0.04951789 -0.05860231 -0.066145316 0.08397765 -0.06450476 0.06390585 0.091047436 -0.024306165
-0.006191252 -0.078826174 0.01620299 -0.0654542 -0.014413038 -0.038235433 0.023367446 0.014031117
0.032131758 -0.11042491 -0.050487425 0.005967436 -0.06921644 -0.08825366 -0.023956582 -0.07658831
-0.109690495 0.05019591 -0.022796644 0.025724526 0.07112227 0.05439898 -0.010197059 0.026232017
-0.03667482 -0.031731702 0.08314115 -0.07170557 0.05309268 0.09815654 -0.013032681 0.019335795
0.018150873 -0.109650984 0.015585415 0.013838376 -0.05637689 0.09284137 -0.0146714635 0.04657212
-0.05070436 -0.0016626194 0.06860084 -0.07225981 0.11182444 -0.04457799 -0.090576954 -0.11756012
0.07697039 -0.06413767 0.031077327 -0.07057723 -0.0884976 0.04089106 0.045345414 0.09205632
-0.021998972 -0.001045404 0.06651137 0.06522914 -0.019753113 -0.055471342 -0.075291485 0.054548968
-0.09501412 0.018629836 -0.13752392 0.033165712 0.0748259 0.05061418 -0.026967237 0.014147192
0.050070867 0.020629216 0.05098713 -0.016403783 -0.08658128 0.03998598 -0.02516663 0.036050864
0.07531923 0.008109047 -0.09719993 0.0075184507 0.008541032 -0.0013682365 0.019047894 0.04445344
0.07965984 0.039463367 0.070926495 0.016779723 -0.0053467965 0.09766781 -0.048958745 0.037104376
0.02380323 -0.115918614 0.021829013 0.07673373 0.08157826 0.0029252928 -0.0018739616 0.002013518
-0.026366074 -0.01457472 -0.026303237 0.0072546597 0.043431725 0.03814646 0.05294035 0.08989936
0.074579515 -0.112689815 0.14277446 -0.099949285 0.11015819 0.0054357103 0.023236794 0.09089889
-0.03526782 -0.095843814 0.013528221 0.06330138 -0.029756323 -0.0865212 0.00933657 0.091789015
-0.050406408 0.031974528 -0.06576202 0.0876324 -0.03726068 0.07365448 -0.025416145 0.08805423
0.03394821 0.015557739 0.01019532 0.027861621 0.0051183784 0.017375646 -0.052443814 0.04215467
0.05959247 -0.07321433 -0.0508551 0.031217264 -0.024060983 0.028176952 0.08304893 0.023223478
0.027879111 -0.041366965 -0.06704293 0.050011992 -0.03621165 -0.027763383 0.021998929 0.13138333
-0.12047998 0.0074409274 -0.09380008 -0.046417534 0.041741636 0.046882495 -0.042223666 0.018066863
-0.109755315 0.0237183 -0.043800138 0.08272064 0.011020017 -0.04231806 -0.02221468 -0.00016633236
0.12211774 -0.16438177 -0.03258828 0.077400155 0.112137206 0.07550187 0.14788269 0.022135304
-0.11793928 0.013143774 -0.08561809 -0.08031655 0.17553885 -0.11705364 0.058013283 -0.00764218
0.016231386 0.0033505394 0.10115682 0.012055367 0.08577741 0.023543688 0.018597212 -0.033077236
-0.004557875 -0.04480122 0.0318626 -0.0009985295 0.015605356 0.08807218 0.043301202 0.11014571
-0.0051762653 0.004359607 -0.05616298 -0.03230979 0.051327076 -0.12682529 -0.07104049 -0.008533261
0.0976691 0.08977132 0.0095473165 -0.009530897 0.074577264 -0.08291579 -0.04411626 -0.034591123

post_processing_lin_layers.0.bias f4 [64]
00000000: 047d bdbd a04b 19be e832 bdbd 84d3 1fbe
00000010: 06e3 023d 46ef 85bd 7992 47bd 2b10 b7bd
00000020: a029 b83c c1ae e9bd 65c2 1ebd 111c eebc
00000030: a965 49bd 023c a6bd abfe e3bd cd59 2c3d
00000040: d6c7 f9bd af06 1abe 771f e7bd 1ac9 f1bd
00000050: be9d c6bd 7594 73bd f098 3a3c 8a2e ed3d
00000060: df7e 33bd 4b40 07be e477 ebbd 5907 543b
00000070: 7c5a c13c b176 febd 2ead 12be 89be 2cbe
00000080: 7140 d6bb 57e3 41be e24d aabd ca28 42bd
00000090: 3996 1fbe c318 eebb 569f 5ebd 7120 8fbd
000000a0: 0177 98bd 6add 003d c039 83bd bd25 03bd
000000b0: 7f13 70b8 7edb 193d a519 0bbe 39b5 e5bd
000000c0: 9d41 a53c 94fb 73bd 7a32 15be 5128 fdbc
000000d0: e4f3 4bbd e15c 2e3c 6795 d2bd c6f7 85bd
000000e0: 5e98 d5bd 9772 e0bd 7f6a 8ebc dd2b 59be
000000f0: f6db 09bd a9fb 18bc b7e3 09be db85 83bc
-0.092523605 -0.14970255 -0.09238225 -0.1560803 0.031954788 -0.065397784 -0.04872367 -0.08938631
0.022480786 -0.11410285 -0.038759608 -0.029066117 -0.049169216 -0.08116914 -0.111325584 0.04207783
-0.12196319 -0.15041612 -0.11285298 -0.11805935 -0.09698056 -0.05946775 0.011389002 0.11581142
-0.043822166 -0.1320812 -0.11497477 0.0032353012 0.023602717 -0.12424982 -0.14323875 -0.16869558
-0.0065384437 -0.1893438 -0.08315636 -0.04740218 -0.15584649 -0.0072661354 -0.054351173 -0.069886096
-0.07444573 0.031461157 -0.06407499 -0.032018412 -5.7238616e-05 0.03756284 -0.13584001 -0.11216206
0.020172888 -0.059566095 -0.14570037 -0.030903013 -0.04979314 0.010642261 -0.102824025 -0.065414
-0.10429452 -0.10959356 -0.017384766 -0.21208139 -0.033657037 -0.009337344 -0.13465773 -0.016055038

post_processing_lin_layers.1.weight f4 [64, 64]
00000000: d77a 19bc b4f1 25bc 1ccd 83bd 56ad c1bc
00000010: ee0f 87bc 8db6 e8bc bfe1 77bc 53e0 10bd
00000020: 2942 8fbd 7f08 aabd 95af 97bc fa5c bdbd
00000030: 3b0d debc ad8d 0bbe f28f 34bd 3ac9 d0bd
00000040: 3b7b a9bd faff b83c d302 02be b71c 32be
00000050: e704 c5bd 5326 d4bd 389e ce3a e5b1 00be
00000060: d38a 64bd e561 0ebe 2181 ea3c 6f4b 7ebb
00000070: 1473 1ebd 2713 04be 37fd 953d 76f2 05be
00000080: 21be 22be 8147 3c3d bbf2 ee3c 3bca 04be
00000090: 71e3 a0bd 5abe 0fbe 5c54 ddbd 2707 e5bd
000000a0: a78d 6c3d 0609 1cbd 904d 93bd 6baa bfbd
000000b0: a9a1 bdbc 3a5e 803d c98e 263d 38e1 a6bd
000000c0: 4a1e 7cbd f668 503b e9ef 6fbd f513 aabd
000000d0: 9ccc 0dbe 3717 59bd 0880 f9b7 2112 403d
000000e0: 7681 8abd cff7 01be 9505 bbbd 6acf bebc
000000f0: 4b2e 2bbd 4899 62bd 5897 dbbd fc07 903c
00000100: cab7 b0bc 263f c8bd 85bb 8fbc 5516 c0bd
00000110: a88a bfbd 24f5 e63d f5e3 9a3c 8a98 9ebd
00000120: e8e3 06be ee86 80bd 977c 35bc 9fbe d4bd
00000130: 2114 cebd 1a71 36bd d51f efbd bc0c 7dbd
00000140: a236 973d 825e 4fbd 56b4 3ebd 239f a13d
00000150: 99ca 9abb 6326 963d 12f7 483d 19fe db3c
00000160: 9822 7abd 8d5b e33e eecc d4bd abc8 d1bd
00000170: a681 e7bd 05db b63d 452c d9bd 1aac 5f3c
00000180: 2c83 17be 22b7 2d3d 944c 933d c3df b5bc
00000190: 78fd 933d d936 3dbd 6912 8cbd da44 26bd
000001a0: 8330 bdbd 0a6a 64bd 5147 8a3c 9322 2ebd
000001b0: 7617 c1bd 64dc 2bbb 3f35 dcbc 0033 a3bc
000001c0: 4b22 e3bd b684 ef3d 3401 9c3d 895d ecbd
000001d0: c300 023d 639d 513d 6e8d 32bd 58ac bc3c
000001e0: 33cc cfbd 554d 79bd 5a02 8f3d a06b a63d
000001f0: 7c7c f0bd 7915 93bd 4001 4b3d 9221 99bd
00000200: 92c6 443d c993 96bd b3f6 99bd 8c02 363d
00000210: d507 5ebd d0fd b7bd 8133 83bc 2695 233d
00000220: c12b e8bc edd0 26bc 5d5b efbc ec6c c9bd
00000230: da9e 8e3d 2d95 c63d 048f 793d 9c6d 39bd
00000240: 86c0 ac3c e6e4 85bd 318f e83c 4b41 513d
00000250: a601 d5bd b0c5 dd3c c382 8f3b 2207 51bc
00000260: 5fea a1bd 3527 f5bd 1cb0 aa3d 3a07 a03c
00000270: 4258 443d e09e 3e3b d8db 4e3d 34d8 4dbd
00000280: 8f47 883b bb86 c73d 5b5c a43d f9ae aabc
00000290: 527c 3dbc 5421 f43c 150c 403d ce5b 5b3c
000002a0: 547e 93bd 07d4 f33d 1c03 af3d 1cc2 093e
000002b0: 7a46 31bd 217f ef3d 9933 863c 1b4f dfbc
000002c0: 5bea 933d 14b5 9d3d 9fd9 903c 404b af3b
000002d0: 61df a3bb 6839 7d3c 26d4 8dbc 130a 15bd
000002e0: 0c3f ae3c 9a20 363d 38a9 80bd c5a3 2abd
000002f0: b178 4ebd d0e4 45bd d06f a53d d16f 323b
00000300: bd12 fbbc abc3 b5bd e512 37bd ba50 c3bd
00000310: 37ce b6bc 2831 5ebc f1cc 58be 2717 a8bd
00000320: 202d f8bd 284e b2bd f06b a0bd 3b7d c83a
00000330: e694 23bd ad9b 6cbe 3ca5 0ebc b124 fdbd
00000340: d80b febd f475 3abd 2dac 5bba abcc 2e3d
00000350: 3690 053d 636d d0bd 6619 93bd 2624 d6bc
00000360: 00b2 b7bd afb2 813c bb98 27bd 827d 5cbe
00000370: 9466 44bb 798f 19be f787 f7bd 0a9b f7ba
00000380: af06 69be f7e4 1bbe 2291 b6bd 9278 bebd
00000390: 6abc 2dbe a449 13be 2475 2abe 9f7b a0bb
000003a0: b1d4 56be 3ad5 a7bd 12dd 0ebe 7542 9cbd
000003b0: eff9 0fbe f45d 3bbe d3ec b5bc 38a2 a63d
000003c0: ce59 e5bd bf68 62bd cd59 10be 1caf 27be
000003d0: eae4 2fbe ee42 55be 8c46 c7bc eccc 18bd
000003e0: eb85 963c dd27 c0bd 559d 653d e1a8 d33b
000003f0: 7d63 d53c 3aa9 413d dda8 10be d913 81bd
-0.009367666 -0.010128427 -0.06435606 -0.023642223 -0.016487088 -0.02840736 -0.015129506 -0.035370182
-0.06995041 -0.08302402 -0.018516341 -0.092462495 -0.027105918 -0.13628264 -0.04408259 -0.10194631
-0.082754575 0.022582997 -0.1269639 -0.17393766 -0.09620076 -0.10358872 0.0015763706 -0.12567861
-0.055796456 -0.13904531 0.028626027 -0.0038802286 -0.038683966 -0.12897931 0.073236875 -0.13080773
-0.15892841 0.04596663 0.029168477 -0.1296777 -0.07855881 -0.14037457 -0.10807106 -0.11183005
0.057752278 -0.038094543 -0.07192528 -0.093586765 -0.023148375 0.06267972 0.040663514 -0.08148426
-0.061552323 0.0031800843 -0.058578406 -0.08304588 -0.13847584 -0.053000655 -2.9742732e-05 0.04689229
-0.06762974 -0.12692188 -0.09131924 -0.023292262 -0.041792195 -0.05532196 -0.10722226 0.017581932
-0.021572012 -0.097776696 -0.017545471 -0.093792595 -0.093526185 0.112772256 0.018907527 -0.07743938
-0.13172877 -0.06275736 -0.011077068 -0.103879206 -0.10062433 -0.044541456 -0.11675993 -0.061779723
0.07383467 -0.05062724 -0.0465587 0.07891681 -0.0047238586 0.073315404 0.04906375 0.026854562
-0.061068147 0.44405785 -0.1039065 -0.102433525 -0.11304025 0.089284934 -0.10604147 0.013651872
-0.14796132 0.042410977 0.071923405 -0.022201424 0.0722608 -0.046194885 -0.06839449 -0.040593006
-0.092377685 -0.05576519 0.01687971 -0.04251344 -0.09428303 -0.0026223892 -0.026880858 -0.01992178
-0.11090525 0.116952345 0.07617417 -0.11541278 0.031739008 0.051175486 -0.04359191 0.023031399
-0.1014637 -0.060864765 0.069828704 0.081259966 -0.117424935 -0.0718183 0.04956174 -0.07477106
0.048040934 -0.073524065 -0.07517757 0.044436023 -0.054206688 -0.08983958 -0.01601577 0.03993716
-0.028341176 -0.010181648 -0.02921837 -0.09835228 0.06963892 0.09696422 0.060927406 -0.045270547
0.021087896 -0.065377995 0.028388591 0.05108766 -0.10400705 0.027071804 0.0043796017 -0.012758048
-0.07906031 -0.11970369 0.083343714 0.019534696 0.04793573 0.0029086396 0.050502628 -0.050255015
0.004158921 0.09742495 0.08025428 -0.020835387 -0.011565285 0.029801048 0.046886522 0.013388587
-0.072018296 0.119056754 0.08545515 0.13452953 -0.043280102 0.1169417 0.016382026 -0.0272594
0.07222434 0.077005535 0.017681895 0.0053495467 -0.005000994 0.015455581 -0.017313074 -0.03638656
0.021270297 0.044464685 -0.06282276 -0.04166009 -0.05040807 -0.048313916 0.08077967 0.0027227292
-0.030648584 -0.08875211 -0.044695754 -0.09536882 -0.022315128 -0.013561524 -0.21171929 -0.08207541
-0.12117982 -0.08706313 -0.078330874 0.0015296111 -0.039936922 -0.2310626 -0.008706387 -0.12360514
-0.12404603 -0.045522645 -0.0008379843 0.042675655 0.032608233 -0.10177114 -0.07182579 -0.026140284
-0.08969498 0.015832273 -0.04091714 -0.21532252 -0.0029968368 -0.14996137 -0.1208648 -0.001889081
-0.22756456 -0.15224062 -0.08914401 -0.09300341 -0.16966406 -0.1438356 -0.16646248 -0.0048975493
-0.20979573 -0.081949666 -0.13951519 -0.07629863 -0.14060186 -0.18297559 -0.022207653 0.081364095
-0.111987695 -0.055275675 -0.14096756 -0.16375393 -0.17177168 -0.20826313 -0.024325632 -0.037304804
0.018374404 -0.09382603 0.056058247 0.006459341 0.026048416 0.047280528 -0.14126916 -0.06302614

post_processing_lin_layers.1.bias f4 [64]
00000000: 36c7 713d 46fb c6bd a748 753c f8fe 093d
00000010: 1d90 8a3d 4895 993a fc93 46bc 5654 41be
00000020: 4f71 e6bd 77b0 d0bd 743c 2c3d 78e9 d1bd
00000030: c46e 44bd a3ce f3bd 6e9e 99bc d143 993d
00000040: 4ae6 503d 481a f0bd d4a1 cfbd 95cd bfbd
00000050: 7577 5abc 6536 e5bd fcda 033d 3828 a839
00000060: fd41 653d 4f17 843c 3fd1 583d 8989 503d
00000070: aa7f 92bd db1e 4f3c 4ec2 4f3d b0dc 153c
00000080: 2bd2 eb3d 4513 0f3d 8674 bc3c 1db2 e3bd
00000090: 2684 11bd 4208 b63d 0dc5 97bb 85e4 98bd
000000a0: ca76 a63d a90b 39be d701 4a3d 2d49 61bd
000000b0: 4bc8 92bd 48a9 593c de8f 68bc 2b96 10be
000000c0: 09e0 f1bd 8c49 8cbd a204 0a3d 5cea 0abe
000000d0: 8031 913d 09d4 b23c cfc0 933d 491a b23d
000000e0: f18b 66bd 4ed5 b1bd 3982 8d3d bfc8 5bbd
000000f0: 9a57 2d3d 9314 91bd d7f8 353d db09 843d
0.059027873 -0.09715895 0.014970935 0.033690423 0.06765769 0.0011717463 -0.012120243 -0.18879828
-0.11252081 -0.10189908 0.04204984 -0.10249609 -0.047957197 -0.11904647 -0.018752303 0.07483638
0.05100087 -0.11723763 -0.10138288 -0.093653835 -0.013334145 -0.111920156 0.03219126 0.00032073422
0.055971134 0.016124396 0.052933928 0.050912414 -0.07153256 0.012641634 0.050722413 0.009146854
0.11514696 0.034930486 0.023004781 -0.11117957 -0.035526417 0.08888294 -0.0046316446 -0.07465462
0.08128126 -0.18070854 0.04931816 -0.055001426 -0.07167109 0.013284989 -0.014194457 -0.14119785
-0.118103094 -0.068499655 0.033695824 -0.13565964 0.070895195 0.021829622 0.0721451 0.0869642
-0.056285802 -0.08683263 0.069096036 -0.053658243 0.04231987 -0.07084002 0.044426765 0.06447192

post_processing_lin_layers.2.weight f4 [64, 64]
00000000: 7e5d fabd 17a2 0fbe 8ff5 8e3d 7854 98bd
00000010: ab68 92bd b9f0 73bd ee92 37be b7a2 c6bc
00000020: 0026 bfbd 5e93 a2bd d747 15bc 6592 d8bd
00000030: 86ea c9bd c8f8 2bbb 373c fbbd 2ecc 07be
00000040: c9be 53be 56b5 64bd 6f54 a1bb bb1c ae3c
00000050: 25ff 56bc 1dc8 81bd fd29 21be 8742 38bd
00000060: cac3 2f3d cf51 1cbd 8636 65be 2ad7 bdbd
00000070: abd7 62bd ea00 5fbe b6cb e73c 4989 12bd
00000080: cd01 edbd ffea 30be 0301 0ebe dc68 1cbe
00000090: 8b6f f9bd 5c14 96bc b691 853c 530e 84be
000000a0: 0898 8dbd 8a26 1ebd 17fb 15be 08dc 0fbe
000000b0: 6c85 12be 1cc7 38bd 06ff 9fbd b2e6 0bbe
000000c0: 1cb8 43be d3ef a8bd 70c9 0abe 0935 6abd
000000d0: 8836 36be 27cf 8ebd b2b9 dcbd 5bcd 8abc
000000e0: cb60 54bd 8f96 00be c379 3bbd 5f1f ebbd
000000f0: 72d3 95bd ed86 6abd a939 1dbe 9f70 9bbd
00000100: 8a6f a1bd 5256 e73c 0b61 c6bc 331f e7bc
00000110: 07bb 1e3d 6a6e b43b b9c8 52bd f10b bdba
00000120: 8abc e33c e5b6 9c3d 382b e4bd c061 afbd
00000130: df0f 84bc 8a0e debc bc67 253d 1a2f f7bd
00000140: 5e1f ffbd 8170 333e 9b15 8b3d b129 a43d
00000150: 4bb9 af3c 11fa fcbd e343 96bd 3bb5 dbbd
00000160: 045e 26bd 60d7 a43c 0db5 3d3d 6077 d53c
00000170: 74f5 b63c ccc1 223b 50df 353d f481 95bc
00000180: 63d9 67bd e960 da3c af44 9fbd bd0d dabd
00000190: aef9 4fbd 3f98 a43c 2000 df3b 395a aebc
000001a0: 7f8f 5f3d 1fc9 983d 7d01 193c dad7 473e
000001b0: f1b4 6dbc 9fc8 a03d 2276 92bd 77aa 223d
000001c0: 1400 b1bd ea87 62bc bbb0 39bd 73dd 0c3c
000001d0: 9510 463d c481 8f3d 2989 2dbd 3714 c8bb
000001e0: 4054 a9bc 2c4c 8c3d ed2e 18bd 2853 63bd
000001f0: 29d9 8ebd 2483 db3c 8255 4d3d 7b67 80bd
00000200: e405 a03c ae61 b73c 609c 863d 5866 063d
00000210: 94d8 163c dca4 ddbd d3c8 0bbe 6807 623d
00000220: db02 a4ba 8ead 70bc d074 403c 1ff4 03bd
00000230: 5fdc ea3d 6831 4cba 1c5a cabd cc7b e3bd
00000240: affb 6abc e057 a63d 7162 d73b 9f14 e0bd
00000250: f672 fdbd a7de 7dbd 1782 c2bd 28a1 d1bd
00000260: 99f0 0fbe 517b e93b b66e 60bd 48d7 a7bd
00000270: a42b 2b3d 7d73 97bc 91c5 883a a8b4 b23b
00000280: 4787 0c3d dbff 953c 58d2 37bd aad1 d7bc
00000290: ed96 1bbd 62d6 8bbc 062c 53bd a101 c33c
000002a0: c959 09be 38a9 b0bd 3663 f83c b10e 1f3d
000002b0: 6588 d93d 117c 503d 5828 493c 86ad 05bc
000002c0: bea0 213c 9fd4 c43c 4fbe 51bd 3016 353d
000002d0: f5b3 b3bd 6dfa ebbd ee70 393c ed06 ccbd
000002e0: 59a1 813c b81c 16bd e071 06be 13e6 833d
000002f0: f103 ffbc 4452 7cbd 181c 0f3d f8f9 c7bd
00000300: 0e63 933c ab74 48bc 4947 71bd 7903 a23c
00000310: 2b6e 6c3d b52d 91bd 90d6 f33b ba1a b43d
00000320: 7892 ccbd d4d1 343e 4919 3e3d b454 e83c
00000330: 3dea 153e 76af c53d 08f8 1b3d 8598 0f3d
00000340: b337 1ebc 8e7c cf3d d3bb 9dbd d9f7 5c3d
00000350: ca7a 34bc cf6d 313c 9eeb dcbd 3a06 c7bd
00000360: 9abd f9bd 1a72 b93b acb0 513d 9020 49bd
00000370: de80 3fbc 64ab d1bd 569d 7dbd 1d1b 253d
00000380: 1098 3e3d 8f63 0fbd d8f8 bfbd 6b18 f7bd
00000390: 8b28 963c bbdc cfbd c0f1 8bbd 420c e7bd
000003a0: 59ec f6bd c3c6 093e 07cc 15be 55e6 1f3e
000003b0: bcd5 c43d 150f 603d 2658 e0bc 30aa a03d
000003c0: ca55 6dbd b900 ed3d a68c fcbc f95b 073e
000003d0: 7ad9 7bbd 5c7f 943c a6e7 5f3b 0fc6 d7bd
000003e0: b72e 163d b3bc 13bd e9ae c3bd 3f88 cc3d
000003f0: 5f90 593d 81b0 513a 7c1c cebd 0dc5 acbd
-0.122248635 -0.14026676 0.0698043 -0.07437986 -0.0714887 -0.059555743 -0.17927143 -0.02424751
-0.0933342 -0.07938264 -0.009111366 -0.105747975 -0.09859185 -0.0026240814 -0.122673444 -0.13261482
-0.20678248 -0.055836998 -0.0049233953 0.021253934 -0.013122355 -0.06336997 -0.15738674 -0.04498532
0.04291133 -0.038163956 -0.2238408 -0.09269555 -0.05538146 -0.21777692 0.02829538 -0.035775457
-0.11572609 -0.17277144 -0.13867573 -0.15274376 -0.12179478 -0.018320255 0.016304832 -0.2579218
-0.06913763 -0.038610972 -0.14646564 -0.14048779 -0.14308709 -0.04511176 -0.07812314 -0.13662222
-0.19113201 -0.08248868 -0.13553405 -0.057179485 -0.1779424 -0.06973105 -0.10777606 -0.016943624
-0.05185012 -0.12557434 -0.045770418 -0.11480593 -0.073157206 -0.05725758 -0.15354027 -0.0758984
-0.078826025 0.028239403 -0.024216196 -0.02821312 0.038752582 0.0055063264 -0.051460955 -0.0014423114
0.027799863 0.07652072 -0.11141056 -0.08563566 -0.01612085 -0.027106542 0.040382132 -0.12069531
-0.12457155 0.17523386 0.0679123 0.080157645 0.02145066 -0.12352384 -0.07337167 -0.10727926
-0.040617004 0.02012223 0.04631524 0.026057899 0.022333838 0.002483475 0.04440242 -0.018250443
-0.0566038 0.026657538 -0.07776772 -0.106471516 -0.050775222 0.020092128 0.006805435 -0.021283256
0.054580208 0.07460236 0.009338734 0.19515935 -0.014508472 0.078507654 -0.07151438 0.03971335
-0.08642593 -0.01382635 -0.04533456 0.0085977195 0.048355658 0.07007173 -0.042367134 -0.0061059254
-0.020670056 0.06850466 -0.037154127 -0.055499226 -0.06975014 0.026795931 0.050130375 -0.06269737
0.019534059 0.022385444 0.06572795 0.032812446 0.00920691 -0.1082246 -0.13650827 0.055182844
-0.0012513058 -0.014689816 0.0117466 -0.032215234 0.11467814 -0.00077893445 -0.09880468 -0.11107597
-0.014342233 0.081222296 0.0065730144 -0.10941433 -0.12375443 -0.061979916 -0.09497469 -0.10235816
-0.14056624 0.007125296 -0.054793082 -0.081953585 0.041789666 -0.018487686 0.0010434856 0.005453665
0.034308698 0.018310478 -0.044878334 -0.026345093 -0.03798573 -0.01707 -0.051555656 0.023804488
-0.13413157 -0.08626026 0.030320745 0.03883237 0.10621718 0.05089957 0.012277685 -0.008159047
0.009864984 0.024027167 -0.051206883 0.044210613 -0.087745585 -0.11522374 0.011318428 -0.099622585
0.015824007 -0.036648482 -0.13129377 0.064403675 -0.03112981 -0.061601892 0.0349389 -0.09764475
0.017991569 -0.012234847 -0.058905873 0.019777047 0.05772225 -0.07088796 0.0074413493 0.0879416
-0.09988874 0.17658168 0.046410833 0.028360702 0.14640136 0.09652607 0.038078338 0.035057563
-0.009656834 0.10131179 -0.0770184 0.053947303 -0.011015603 0.010829403 -0.10787128 -0.097179845
-0.12194367 0.005659354 0.051193878 -0.04910332 -0.011688439 -0.10237768 -0.061917625 0.04030906
0.046531737 -0.035007056 -0.09373635 -0.12065204 0.01832988 -0.10149523 -0.068332195 -0.11281635
-0.120567985 0.13454728 -0.14628612 0.15615208 0.09611079 0.054701883 -0.027385782 0.07844961
-0.057943143 0.115724035 -0.030828785 0.13218679 -0.0614867 0.018127136 0.0034165173 -0.105358236
0.036665644 -0.03606863 -0.09554846 0.099869244 0.0531162 0.00079990184 -0.10064027 -0.08436022

post_processing_lin_layers.2.bias f4 [64]
00000000: 0f8a 0dbd ce9f 013d bdca cfbc 17e8 08be
00000010: 354d 27be 2b63 a63d 0537 90bd 832b 41bb
00000020: a7f8 9fbd 16db 0bbe a12b 913c 540d 99bc
00000030: 8c80 0b3c 96c7 3d3d 2a1f c23b 6b24 f8bd
00000040: dbde 933d 1669 873b 5934 fb3c 520f 7ebd
00000050: 5f2d 2cbc 7fb7 56ba 624d 9e39 e850 30be
00000060: d58e 8dbd 8507 973b 16d2 08be 6a89 cfbd
00000070: 204a d9bd 811f 82bd e2ec 17be 9e9c 46bb
00000080: 4f08 d03c fc64 39bc fa9a 01bd 7647 24bd
00000090: 53f5 943c a3dd f63d 29fb f9bd 408a 05be
000000a0: 22f5 4b3c d3da 023d 49fb 62bc b771 6abc
000000b0: 1b65 1bbe 3bbf 2dbd 45d8 d9bc 3c54 2e3d
000000c0: eba4 06be 7773 353c 2d37 e23c 02a6 edb9
000000d0: 5c8d 3539 9457 caba 71e5 65bb 928c 6cbd
000000e0: b331 bcbd be67 d9bd c554 dc3c eb2d e0bd
000000f0: 36cb 26bd 91ae 503d 1bfb 84bd 69f4 ddbd
-0.03455549 0.031646542 -0.025365228 -0.13369785 -0.16338046 0.081243835 -0.07041744 -0.0029475398
-0.078110985 -0.13657793 0.017721 -0.018683113 0.008514535 0.046332918 0.005924125 -0.12116321
0.07220241 0.0041324003 0.03066461 -0.06202633 -0.010508864 -0.0008190795 0.00030193763 -0.17218363
-0.06912009 0.0046090507 -0.13361391 -0.101336315 -0.10609841 -0.06353665 -0.14836457 -0.0030305753
0.025394587 -0.01131558 -0.031641938 -0.040107213 0.018183386 0.120539926 -0.12206108 -0.1304102
0.012448581 0.03194697 -0.013853856 -0.014309338 -0.15175287 -0.0424187 -0.026592383 0.0425608
-0.13148849 0.011074892 0.0276142 -0.00045327848 0.00017314166 -0.0015437477 -0.0035079385 -0.057751246
-0.09189167 -0.106154904 0.02689589 -0.10946258 -0.04072114 0.05094773 -0.06493207 -0.10837633

post_processing_lin_layers.3.weight f4 [64, 64]
00000000: 3afb 3f3d 708d c03d a137 aa3d 1512 a23d
00000010: f6df ea3d 0895 38be 667b a73d 0e01 ac3c
00000020: 3a16 00bd ee79 8b3d 2b1f 42bd b9f3 893c
00000030: 276c 79bc 06d8 693d c818 65bc 140d 87bd
00000040: 8c8a 3fbd 26cd 0c3e c224 15bc ab9f 353a
00000050: 0c03 f33d 7358 113d d5b2 e93d 4f50 af3d
00000060: ce86 e53d 766f 81bc 7e6a 063e aabe d73b
00000070: fa4c 9abc d3dd 2b3d 472c 95bd d91b 583d
00000080: 9886 d6bc 77b3 ad3d 819f 673d f12a d83d
00000090: e089 983d 14ee 433d 301d 20bc 2fb1 dc3d
000000a0: f321 3bba 98b0 01bd 7f48 0e3e 87be 6bbd
000000b0: 386c 433d 6074 623d e9ca 6ebd a811 df3b
000000c0: b488 4e3d 9113 1a3b 2359 5c3d 961c bd3c
000000d0: 4ed1 41bd 7812 203d cabf 053e b32e a33d
000000e0: e80f 5d3d 8883 c4bc 570d fb3c 2c5f 423b
000000f0: a3a0 3a3e 1b17 373d 7137 6bbc d4f0 6ebc
00000100: 7ac2 ec3d c106 93bd 42e5 e23b cfb7 ab3d
00000110: e67b 7f3d 25d7 5b3b a9e6 7abd 028e cdbc
00000120: a491 9b3d 375f ea3d 1473 1dbc 5519 8ebd
00000130: c005 ecbc be69 83bb 241d f1bc 9054 6c3d
00000140: 63e8 f23c dd60 313d 4124 d3bb 3cb8 cebc
00000150: 5313 95bc 0b07 db3d 69da debc 4047 8fbd
00000160: 3471 283e dd3a 663d b773 e33b 86e3 ba3c
00000170: f4e8 9fbc 66f8 433d 1c22 95bd ab57 013e
00000180: b18c ddbc 772d 76bd 836a 893d c946 3b3d
00000190: 90cb 8e3d 2cef 49be 8af5 b03d 9bba 603d
000001a0: 176f b7bd 4db9 0fbe 2a66 92bc 58df f4ba
000001b0: dfbd 9ebd 8025 1d3e eba4 d5bd 3e3b e13d
000001c0: 0903 aa3d acdc 42bd c6f2 08bd aa13 6f3d
000001d0: 0ea6 bb3d 405f 85bd a8ff 46be 082a 013c
000001e0: dbb6 0b3d 1329 133d 9d6d dc3d 144d 013d
000001f0: 5aaf b53d 08ae 2abd a088 1b3d d83d 2abd
00000200: 0bd0 a43d a945 e0bc 0d8b 40bd 2468 46bd
00000210: 2b06 563e ee4b 51bd 176e 1ebd 9f0f 9c3c
00000220: 238c 8c3c a60a 8bbd 435b 4abd cfaa b43d
00000230: ebe4 70bd 3d8e 25bd 9bbb a83b 7712 eebd
00000240: 8157 93bd b61f 15bd 7f4d e8bd 4064 413c
00000250: cedd 213e 1e22 a4bc d8e4 083d 5f24 83bd
00000260: cba4 2f3e 5aee 89bd ff7d c6bc d8b8 82bc
00000270: bdb8 253e 69f6 933b 3f05 cd3c 9b34 0cbd
00000280: cdb3 b6bd ab50 203e fb1d 2e3d bcbf 6f3e
00000290: cd17 eebd abad d1bd f7eb 093e 6ffb 323d
000002a0: ca8f 8ebd e22d 7d3e 1743 7c3d 340b ccbd
000002b0: 2b6b b4bc bb71 8bbd c62c a13d 0064 02be
000002c0: 91d3 08be 947d 0abd 165e 323d fcda ccbc
000002d0: 1a8a 843d 17f7 843d ad7a c03d c978 6a3e
000002e0: c4d9 913d bafd 38bc 4a2f 7cbd d279 693c
000002f0: df39 8fbd 5495 243d 8261 573e e063 8e3d
00000300: 0d1a 4cbd f2aa 9f3d 098c bc3c e1ed fc3d
00000310: 7c2f 18be aa62 363d 7907 0b3d c808 fabb
00000320: 384a 96bb 0971 07be f452 e33c 25dd d03d
00000330: ff46 003e 74e7 f1bc f776 253d 6722 5b3c
00000340: 0fa5 84bc 8f0f f13d 6dce 0b3e b06e 9e3d
00000350: a590 efbd ac92 023d c354 3dbd 0465 0d3e
00000360: fd00 40bc 67c2 bd3d ce42 0e3d 6822 6abd
00000370: b6d8 45be 37f9 f93d f222 cd3d 8529 263b
00000380: 05f5 153d 2b3d 873d 225d 87bd 7874 71bc
00000390: f855 383d bc78 ddbd 3540 cfbd 1f0a 09be
000003a0: bfc7 a83c 133b 8f3c 74f6 443c c42e 9dbc
000003b0: ce99 0abe 9dfd 963d d992 6d3c a6f4 b83d
000003c0: 1f10 163d b6e6 3fbd 2022 f83d df51 f4bc
000003d0: e205 b83c 9c82 0bbc 9127 8d3c b7ac 57bd
000003e0: 139d 173c 9ee0 40bd 6364 2fbc 41ba b1bd
000003f0: 1829 cebd ad4a 1ebc c8bb 02bd 4b83 013d
0.046870448 0.09401977 0.083113916 0.07913605 0.114684984 -0.18025601 0.08177833 0.020996597
-0.031271197 0.068103656 -0.047393005 0.016839849 -0.015223539 0.05709078 -0.013982959 -0.06594291
-0.046762988 0.13750133 -0.009103002 0.00069283944 0.118658155 0.035484742 0.11411063 0.085602395
0.112073526 -0.015800219 0.13126561 0.006584008 -0.018835533 0.041959595 -0.07283836 0.052760933
-0.026187226 0.08481496 0.0565486 0.105550654 0.074481726 0.04783447 -0.009772584 0.107759826
-0.0007138543 -0.031662554 0.13894843 -0.057554748 0.047710627 0.055286765 -0.05829898 0.0068075247
0.05042334 0.0023510198 0.053795945 0.02308492 -0.04731875 0.039080113 0.13061443 0.079678915
0.053970248 -0.0239885 0.03064601 0.0029658778 0.1822534 0.04469977 -0.01435648 -0.014583785
0.11560531 -0.071790226 0.0069243023 0.08384668 0.062374018 0.0033544984 -0.06125513 -0.025092129
0.07596138 0.11443942 -0.009609956 -0.069384255 -0.028811336 -0.004010408 -0.02943284 0.057697833
0.029651826 0.043305267 -0.006443531 -0.025234334 -0.018197691 0.10694703 -0.027203755 -0.06996012
0.16449434 0.05620848 0.0069412845 0.02281357 -0.01952026 0.047844313 -0.072818965 0.12631099
-0.027044626 -0.060101952 0.067097686 0.045721803 0.0697242 -0.19720143 0.08640583 0.05486546
-0.089567356 -0.1403553 -0.017870981 -0.0018682284 -0.07751059 0.15346336 -0.10431846 0.10997628
0.0830136 -0.04757373 -0.03343465 0.058368362 0.09162532 -0.06512308 -0.19433463 0.007883556
0.03410993 0.035927843 0.107630946 0.031567648 0.08871336 -0.041669875 0.037972093 -0.041562885
0.080474935 -0.027376967 -0.04700761 -0.04843916 0.2090079 -0.051097803 -0.03867921 0.019050417
0.017156666 -0.067891404 -0.04940344 0.08821642 -0.058812063 -0.040418852 0.0051493174 -0.11624616
-0.071944244 -0.036407195 -0.11342906 0.011803687 0.15807268 -0.0200358 0.033421367 -0.064034216
0.17152707 -0.06734915 -0.024230001 -0.015957281 0.16183753 0.0045154584 0.025026916 -0.034229856
-0.08921013 0.15655772 0.04250906 0.23412985 -0.116256334 -0.10238203 0.1346892 0.043696817
-0.06961019 0.24724534 0.06158742 -0.09963074 -0.022023758 -0.06808802 0.07869868 -0.1273346
-0.13361956 -0.033811167 0.04354676 -0.025006764 0.06471653 0.06492441 0.093983985 0.22897638
0.071216136 -0.011290962 -0.061568536 0.014250236 -0.0699346 0.040181473 0.2103329 0.069526434
-0.04982953 0.07796277 0.023015993 0.12350059 -0.14861864 0.044527687 0.033942673 -0.0076304413
-0.0045864843 -0.13226713 0.027749516 0.1019843 0.12527083 -0.02952931 0.040396657 0.013374901
-0.016191987 0.11770546 0.13652964 0.07735956 -0.11697511 0.03187816 -0.046223413 0.13808066
-0.011718986 0.09265595 0.03473168 -0.05716172 -0.1932095 0.12205737 0.10016431 0.0025354337
0.036610622 0.06603464 -0.066095605 -0.014737241 0.04500386 -0.10814044 -0.101196684 -0.13382767
0.020603059 0.017484223 0.01202165 -0.019187339 -0.13535234 0.07372592 0.014500343 0.09031038
0.036636468 -0.046850882 0.12115884 -0.029824195 0.022463743 -0.008515026 0.01723078 -0.052654948
0.009253758 -0.04708921 -0.010705086 -0.08678103 -0.10066432 -0.009661359 -0.031917363 0.03161935

post_processing_lin_layers.3.bias f4 [64]
00000000: 0c7b b5bb 12c1 8b3d 495d 2c3c 15d0 aa3c
00000010: 97ac 8dba 552c a8bc 73e6 473d 54e9 f33a
00000020: 2350 17bc 7a8e 853d 2d66 933d c0c0 db3c
00000030: a4d3 af3d 748d 803c 617d abbc d3be a1bc
00000040: 5dbc 18bb 138f 7e3d 40d7 1a3d 8f35 853d
00000050: 6672 76bb 4c7c 0abb eb8b f43c f44d dc3a
00000060: 6ee2 e23c cbb7 153d 0e72 6a3c 9c1b 623d
00000070: b0fe 2c3d b9a6 02bd a0cb cc3c 2e3e 48bd
00000080: 5895 fd3c 0455 4fbc f185 2b3d a11f 5dba
00000090: 28da e6ba 79f7 14bd 0134 473d d2ad a4bc
000000a0: e55a 273d ea4d 0dbd 1be4 233d 86d6 06bd
000000b0: 611c 8d3b e9dd 90bc ff54 80bc 0feb 06bc
000000c0: a783 6dbd 742d ba3c bac3 ed3c bb33 f03c
000000d0: 95b4 23bd dcc4 16bd 3013 23bd 39e2 b63c
000000e0: d659 8bbc fff9 64bd f9a7 b7bc 1210 75bd
000000f0: a918 4f3d 8ec0 633d beda a93c 391c f93b
-0.00553835 0.068239346 0.010520288 0.020851174 -0.0010808882 -0.020528952 0.048803758 0.0018608966
-0.009235415 0.06521316 0.07197223 0.026825309 0.08585289 0.01569245 -0.020933809 -0.019744312
-0.0023305633 0.062148165 0.037802935 0.06504356 -0.0037604808 -0.0021131216 0.029851874 0.00168079
0.02769586 0.03655223 0.014309419 0.05520211 0.042235076 -0.03189728 0.02499944 -0.048887424
0.030955002 -0.012654547 0.041875783 -0.0008435194 -0.0017612623 -0.03636882 0.04863358 -0.020102415
0.04085817 -0.034498133 0.04001246 -0.03291943 0.0043063615 -0.01768394 -0.01566553 -0.008234753
-0.05798688 0.022726752 0.029023994 0.029321542 -0.03996714 -0.036808833 -0.03981322 0.022324668
-0.01701061 -0.055902477 -0.022418963 -0.05982978 0.050560627 0.055603556 0.020734187 0.0076022414

final_lin_layers.0.weight f4 [64, 64]
00000000: ed07 403e 134a 633e bad7 0ebe f664 1f3e
00000010: dfd4 5c3d 1cbb 8dbe 19f5 c33e c333 b9bd
00000020: 5448 98be 08ee 3d3e 280a a63d bc9b a73c
00000030: 317e 1d3f f786 d23d 249b 33be 382c d6bc
00000040: 994a 193b 2bfd 913e 5ee1 7a3e d30a 1b3e
00000050: 6eba efbd c67a c83c e65b 923e 793c 9abd
00000060: e97e ae3d 7338 a93d 5b40 a83c b9c3 be3d
00000070: b3e8 bb3e d03a 4fbb 8cdc 6fbd 568b 9cbd
00000080: 32f2 b63e 41c9 dbbe fda4 743e 8061 4f3b
00000090: 76d0 48bd 2887 0dbf 3d6d 3b3e 4ff8 afbe
000000a0: d954 793d 9816 0ebe 2efa 083f d0dd 15be
000000b0: f905 203d ad03 a0bd 17e1 33be d395 31be
000000c0: 15fc 0ebf c92c 963e 830e 0fbc 05ca 0b3e
000000d0: 874f dabd be97 c9be 8e9a 30be 3bc2 8c3e
000000e0: 5d4e 30be 553f 8fbe 192e 4f3d 8796 efbe
000000f0: 375c 943e 3608 343e 9370 d43d 39fa 743e
00000100: 1498 97bc a990 b23c dbdd 973d 40f9 e33d
00000110: 2909 66bc e4a3 febc 8212 513b 8bab 08bd
00000120: cfd9 febc 4003 e9bc dffd 32bd 7b4d 60bd
00000130: e877 023c fd2b 74bd 58e7 04bb 1353 913b
00000140: e479 9e3d 4cbb da3b 1644 033b 6933 3a3d
00000150: 4574 603d f34c 983d 53bf 04be 60e9 e63c
00000160: 8794 ab3c db38 953d 036e a7bd 2cba c43c
00000170: 4f0d e0bd df8e c9bd aa10 a7bd d828 07bd
00000180: eb54 89bd 4a20 a33d d1f9 61bd d7cc 853d
00000190: 5ab3 af3b a89b 7dbd 67dd 5b3c 405d 3ebb
000001a0: 92de 613d 5ae5 fc3c bb2d a23d b5e0 8dbc
000001b0: 1373 0e3d 4358 d53c 19ae ec3d cda6 99bd
000001c0: 80e1 8a3d bfa4 bebd 2178 323d fe68 03be
000001d0: a0e9 3cbd b6ea 2d3d a7fe 18bd 2510 b93d
000001e0: 9bcf a2bc 57b9 db3d 9512 93bd bf53 47bd
000001f0: d847 04bc bbd3 da3d b88e d4bc 5d76 b23d
00000200: 16ec b63c 2daa 853e 900b af3d d499 033e
00000210: ced9 84be c48e 70be 1920 d33e e1f4 ebbc
00000220: 6c2e 2abe d3cd 903e 4614 693e 04b6 003e
00000230: 6acc cc3e 0c38 f6bd 59c8 123d 8871 21be
00000240: 04e6 683d d961 b73e 4009 9f3e 58a4 b93e
00000250: ab95 38bb 7187 1f3d 3f22 ba3e aa0b c5bd
00000260: 7dae 523e dacf 533e 0951 fb3d 160e 823e
00000270: 60ca d13e 5ed7 2bbe 1a66 c73c 345e 9cbe
00000280: 8774 643e d602 98be 2977 9d3e 7242 c13d
00000290: 862d 9a3d efca f8be 2b80 2b3e 7893 d4be
000002a0: b10c 863e f6dc 8abe 3c04 bc3e 7850 9f3d
000002b0: 8c5e c23d 59e0 293c 665b 65be 7df0 83be
000002c0: 1b45 d8be ff55 773e 1dea 843d b913 fe3d
000002d0: 3565 b1bd 5b67 b1be e73c a5be 8ead 8d3e
000002e0: 6d7d 4dbe 3e8e 8abe c565 3dbe 8bc8 cabe
000002f0: 17db 6d3e 7ab0 093f 60b7 cd3d 1896 b73e
00000300: 057f af3d 225f 58bd 093f 693d 9057 f4ba
00000310: 563f cdbb bfa0 7b3c 9642 14bd c6f0 54bd
00000320: 8efa 9dbd 71d0 8fbc 7035 8b3c d519 643b
00000330: dfe4 063e 5d44 d8b7 a9fb 16bd 3986 943d
00000340: 11dc 6e3d a8bb 5c3d 1523 0bbd d8c9 863d
00000350: 1042 0a3d bd0a 6d3d 32c3 2f3d 66d1 ee3c
00000360: 4f04 383d dda8 c5bd 0987 5a3d 5d99 c83c
00000370: bc5d 1e3d c951 d3bc 1892 acbc 9e9c 863c
00000380: 1a7e 3bbd 8814 273d 6db2 b43d c56c c0bc
00000390: abb3 54bd 8e29 72bd 6c1b 15bc 7a8f 3abd
000003a0: 502e 73bd 9e04 76bd 5263 423d a8cd 3fbd
000003b0: a358 4d3d 348e 60bd 7faa b8bd 6a86 b13c
000003c0: 445a 96bb 24dc 573d 9b34 4d3c 3e5f 3dbc
000003d0: 44f4 6bbd 4503 573d cea5 12bd 99ba c83d
000003e0: 9e1d 9ebd 5525 1d3c 5530 c33c fee3 1cbd
000003f0: c64a 583d d62c d0bc af42 51bd 8a4f 563c
0.18753023 0.22196226 -0.1394948 0.15565857 0.053913947 -0.27681816 0.38272932 -0.09043076
-0.29742682 0.18547833 0.08107406 0.020460002 0.6152068 0.10279649 -0.1753965 -0.026144132
0.002339041 0.28513464 0.24500033 0.15140848 -0.117054805 0.024472605 0.28585738 -0.075310655
0.085203 0.0826272 0.0205385 0.09314675 0.36700973 -0.0031620748 -0.05855994 -0.07643764
0.35731655 -0.42926982 0.23891063 0.0031643808 -0.04902693 -0.5528436 0.1830339 -0.34369132
0.060871933 -0.13875806 0.53506744 -0.14635396 0.039068196 -0.07813201 -0.17566334 -0.1734231
-0.55853397 0.29331043 -0.008731487 0.13651283 -0.106597 -0.39373583 -0.17246458 0.27491936
-0.17217393 -0.27978006 0.05058107 -0.4679453 0.28976604 0.17581257 0.10373034 0.23923577
-0.018505134 0.021797495 0.074153624 0.11131525 -0.01404027 -0.031084009 0.00319019 -0.03336672
-0.031109719 -0.028443933 -0.04369914 -0.05476139 0.007963158 -0.059612263 -0.0020279493 0.004434952
0.077380925 0.0066751596 0.0020029596 0.045459185 0.054798383 0.07436552 -0.1296361 0.028187454
0.020944847 0.07286235 -0.0817528 0.024014555 -0.109400384 -0.098417036 -0.08157475 -0.032997936
-0.0670565 0.07965143 -0.055169884 0.06533211 0.0053619565 -0.061916023 0.013419486 -0.002904728
0.0551439 0.030871082 0.07918879 -0.017319063 0.034777712 0.026043063 0.11556644 -0.07502518
0.06781292 -0.093087666 0.043571595 -0.1283302 -0.04612124 0.042460166 -0.03735223 0.090362824
-0.019874385 0.1072871 -0.071812786 -0.04866385 -0.0080737695 0.10684916 -0.02594696 0.08713982
0.022329371 0.26106396 0.08547127 0.1285165 -0.25947422 -0.23491961 0.41235426 -0.02880329
-0.16619271 0.2828203 0.2276164 0.12569433 0.39999706 -0.12022409 0.035835598 -0.15765965
0.056859985 0.3581684 0.31061745 0.36258197 -0.002816538 0.038947526 0.36354253 -0.09621365
0.20574374 0.20684758 0.122713156 0.25401372 0.40974712 -0.16781375 0.024340678 -0.3054062
0.22310077 -0.29689664 0.30754974 0.094365016 0.07528214 -0.48592326 0.16748111 -0.4151876
0.26181558 -0.27121705 0.3672198 0.0777902 0.0949069 0.01036843 -0.22398147 -0.25769415
-0.42240223 0.24153899 0.06489966 0.124061055 -0.08661882 -0.34649166 -0.32273027 0.27671474
-0.20067377 -0.27061647 -0.18495853 -0.39606127 0.23228107 0.53784907 0.10044742 0.358567
0.08569149 -0.0528251 0.05694488 -0.0018641818 -0.0062636537 0.015358149 -0.036196314 -0.051987432
-0.07713805 -0.017555447 0.016993254 0.0034805436 0.13173245 -2.578104e-05 -0.036861096 0.072521634
0.05831534 0.0538899 -0.033969004 0.065814674 0.03375441 0.05787157 0.042910762 0.029152583
0.044925984 -0.09651349 0.053351436 0.024487192 0.03866361 -0.025795834 -0.021065757 0.016432103
-0.045774557 0.040791065 0.088230945 -0.023489365 -0.051929157 -0.05912166 -0.009100776 -0.045546986
-0.05937034 -0.060062997 0.047458 -0.04682699 0.05013336 -0.054823115 -0.090168945 0.021670539
-0.004588397 0.052700177 0.012524749 -0.011558352 -0.057605997 0.052493352 -0.035802655 0.09801216
-0.07720493 0.00959142 0.023826757 -0.038303368 0.052805685 -0.025412004 -0.051088985 0.013080487

final_lin_layers.0.bias f4 [64]
00000000: 8f9e 94be e509 b7bd 9339 bcbe 819e 463d
00000010: d5ea 0ebe ae3f aebe 16ed 21be c83e 133d
00000020: d537 1bbd ba10 493d 5461 8cbe aa02 123d
00000030: ea2b 5a3d b7f1 a7bd b4dc adbe 1571 f13d
00000040: c680 00bd 55f8 5c3d 9be8 a03c 0108 393d
00000050: 9c41 7dbd de03 c8bd 4269 eabc 118b c3bd
00000060: 257d 4e3d af8a 253d 1f2a b1be df32 9abe
00000070: f1f2 82be 8d49 8cbd 8e3e b3bd 2ebf 84be
00000080: 7191 b2be 1b86 8fbe 09f4 f5be d03c 7dbc
00000090: c6d7 25be 4bb9 8fbe fadc 0a3d 7b0b d3bd
000000a0: 298a 19be e286 25be 4723 babd d3f8 37be
000000b0: 7198 a23d d421 89be b912 9b3c e26f b0be
000000c0: 27c3 80be 05d9 c63d 47e2 31bd 04ec 90bd
000000d0: bad6 db3c e3a0 79be 419d 85be f2ff edbd
000000e0: 78f3 fdbd c68b aa3d dcb0 123d 5d2a 07be
000000f0: ba61 8e3d c7b1 a23c eec4 33be abaa ea3c
-0.2902722 -0.08937434 -0.36762676 0.048491005 -0.13956769 -0.3403296 -0.15813097 0.035948545
-0.037895042 0.049088217 -0.27418005 0.035647072 0.053264536 -0.082004 -0.33957446 0.11789147
-0.031372808 0.053947765 0.019642165 0.04517365 -0.061830148 -0.097663626 -0.028614644 -0.09548009
0.050412316 0.040415462 -0.34602448 -0.30116937 -0.25575975 -0.06849966 -0.08752166 -0.2592711
-0.34876588 -0.28032002 -0.48037747 -0.015456393 -0.16195592 -0.28071055 0.033902146 -0.10304924
-0.1499411 -0.16164735 -0.0908876 -0.17966013 0.07939232 -0.2678362 0.018929826 -0.3446036
-0.2514889 0.09709362 -0.043428686 -0.070762664 0.026835788 -0.2437778 -0.26096538 -0.11621083
-0.123999536 0.08327441 0.035813197 -0.13199754 0.069522336 0.019860161 -0.17555591 0.028645834
