checkpoints/checkpoints_homogeneous_biomarker_vessel_graph/DCP_model_1_Fractal_cpdztid0_best_add.pt (torch, 162094 bytes, 43 tensors)

pre_processing_lin_layers.0.weight f4 [64, 15]
0	0x3d915cc4	0.07097772
1	0xbe233ded	-0.15941592
2	0xbe8fc2ec	-0.280784
3	0x3e0284a9	0.12745918
4	0x3cf9da7d	0.030499691
5	0xbe84586e	-0.25848716
6	0xbe9a13db	-0.30093274
7	0xbe4ab5ad	-0.19795866
8	0x3d1ec3c2	0.038760908
9	0xbe921566	-0.2853195
10	0xbe8a1e50	-0.26976252
11	0xbe669332	-0.22517088
12	0xbe75437c	-0.23951524
13	0xbd850495	-0.064950146
14	0x3d4f7ada	0.05065427
15	0xbdc63b56	-0.09679286
16	0xbe10dc7f	-0.14146613
17	0x3d8f14d6	0.06986396
18	0xbcb775a1	-0.022394957
19	0x3d0e2d6b	0.034711283
20	0x3e7844d6	0.24245009
21	0x3e4b99c1	0.19882871
22	0x3e2c9dca	0.16857067
23	0x3d9045bd	0.070445515
24	0x3c4e178d	0.012578857
25	0x3d9ca823	0.07649257
26	0x3e6036dc	0.21895927
27	0xbdb09781	-0.08622647
28	0xbcbc5d73	-0.022993779
29	0xbda52b99	-0.08064956
30	0xbe377d9f	-0.17919014
31	0x3e55a528	0.20863783
32	0x3d8a5472	0.06754388
33	0x3c509bf1	0.012732492
34	0x3dc044db	0.09388133
35	0x3dbc1365	0.09183387
36	0xbe98d7b2	-0.29852062
37	0xbb0d4b44	-0.0021559754
38	0xbe938481	-0.2881203
39	0x3d5a97f2	0.053367563
40	0x3dd098ea	0.10185416
41	0xbddb3595	-0.10703579
42	0x3e095f64	0.13415295
43	0x3d84aa98	0.06477851
44	0xbe9649f2	-0.2935329
45	0x3cf87d04	0.03033305
46	0xbe9bf8fa	-0.30463392
47	0xbe811cff	-0.25217435
48	0xbe9f699a	-0.31135255
49	0x3d9405d8	0.07227677
50	0xbd46c77a	-0.04853008
51	0xbc5813ea	-0.013188342
52	0x3b610c4b	0.0034339603
53	0x3e0e8f9b	0.13921969
54	0xbe776cc9	-0.24162592
55	0xbe94ce7d	-0.29063788
56	0xbd8fe69b	-0.070264064
57	0xbd75fa7b	-0.06005333
58	0x3cbc6128	0.022995546
59	0x3e84c0f3	0.2592846
60	0xbe12e242	-0.14344123
61	0xbd5e0398	-0.054202646
62	0x3e71885b	0.23587172
63	0x3dae979b	0.0852501
64	0x3e3c2284	0.18372542
65	0xbde3ebda	-0.111289695
66	0x3de2010d	0.11035357
67	0x3d415919	0.04720411
68	0xbd60dfdd	-0.054900993
69	0xbdc7603b	-0.097351514
70	0x3e98f1cc	0.29871976
71	0xbd4f34dc	-0.05058752
72	0x3e348df0	0.1763227
73	0x3da0e578	0.07856268
74	0x3d990ff9	0.0747375
75	0x3d9a53a5	0.07535485
76	0x3c83d3be	0.016092177
77	0xbe1c10ad	-0.15240736
78	0xbdcc6b1e	-0.099813685
79	0xbe795754	-0.2434972
80	0x3df2e8c9	0.118608065
81	0xbd3a8e6c	-0.04554598
82	0xbdf5ae84	-0.11996177
83	0x3dc25e5b	0.09490653
84	0x3d5cba77	0.053888764
85	0x3e9b517f	0.30335614
86	0xbe307f22	-0.17235997
87	0xbe89c7ea	-0.26910335
88	0xbe734097	-0.23755108
89	0xbea88626	-0.32914847
90	0xbd325d85	-0.04354622
91	0x3d8b0611	0.067882665
92	0xbe74f4d0	-0.23921514
93	0xbe18b55f	-0.14912938
94	0xbde03b3c	-0.10948798
95	0xbe3e0c08	-0.18559277
96	0xbe30a4e4	-0.17250401
97	0x3d3da207	0.0462971
98	0x3e875787	0.26433966
99	0x3cc71191	0.024300369
100	0x3e9719e4	0.2951194
101	0xbda9394a	-0.0826288
102	0xbc96a2bb	-0.018388143
103	0x3e4c9144	0.1997729
104	0x3ccad54b	0.02475991
105	0xbcbba73a	-0.022906888
106	0x3d9ec904	0.077531844
107	0xbdb85d7c	-0.09002206
108	0x3da82e50	0.082119584
109	0x3df833bf	0.12119245
110	0xbea01c7c	-0.31271732
111	0xbe883f98	-0.26611018
112	0xbe4084e3	-0.18800692
113	0x3d86649a	0.06562157
114	0xbe5c855a	-0.21535245
115	0xbe2ab479	-0.16670407
116	0x3e26ede3	0.16301684
117	0xbb8cbbfb	-0.00429487
118	0xbdcc338e	-0.09970771
119	0x3e223ee1	0.15844299
120	0x3e7387ed	0.2378232
121	0x3e6f73fd	0.2338409
122	0x3cbdcf8f	0.02317026
123	0x3e69ebea	0.228439
124	0x3dbe5fb8	0.09295601
125	0xbdc900eb	-0.09814628
126	0x3e9b98a2	0.30389887
127	0x3d80eeaa	0.062955216
128	0xbd8af675	-0.06785289
129	0xbdd123b9	-0.10211892
130	0x3dee6835	0.1164097
131	0x3dc17bc8	0.094474375
132	0x3e4f1155	0.20221455
133	0x3d4afb21	0.0495559
134	0x3e817923	0.25287732
135	0xbe37b2c1	-0.17939283
136	0x3cc99f8b	0.024612209
137	0xbd01cb18	-0.031687826
138	0xbe1442a5	-0.14478548
139	0x3d8a3392	0.067481175
140	0x3d54177d	0.051780213
141	0xbd455f85	-0.048186798
142	0x3e72a5bf	0.2369604
143	0x3e8e23cf	0.27761695
144	0xbe172f44	-0.14764124
145	0xbe3b4da5	-0.18291338
146	0xbd95fd6e	-0.073237285
147	0xbe380ba4	-0.1797319
148	0xbc553fb7	-0.013015679
149	0xbe127cf2	-0.14305475
150	0xbe3056d1	-0.17220618
151	0xbdacd750	-0.08439505
152	0x3db1f051	0.08688415
153	0xbba6da60	-0.0050919503
154	0x3cc8dd33	0.024519539
155	0xbd69db14	-0.057093695
156	0xbe9082ed	-0.28224888
157	0xbd46bf1d	-0.048522104
158	0xbe68fae5	-0.22751959
159	0xbe7e17aa	-0.24813715
160	0x3da04fdc	0.07827732
161	0x3cb26d94	0.021780767
162	0x3e35b85b	0.17746107
163	0xbc1f693a	-0.009729678
164	0x3d92526d	0.07144628
165	0x3c576df9	0.013148778
166	0xbe51b771	-0.20480134
167	0xbb7c723e	-0.0038520242
168	0x3a86fa4a	0.0010297981
169	0xbe433321	-0.19062473
170	0x3d963f7c	0.073363274
171	0x3e98c5a3	0.29838285
172	0xbda00eb9	-0.07815308
173	0xbde6eac2	-0.11275245
174	0x3e5a44c9	0.21315302
175	0x3d01eba7	0.031718876
176	0xbe86faf1	-0.26363328
177	0x3e158b83	0.14604001
178	0xbe1084ff	-0.14113234
179	0xbe8a41aa	-0.27003223
180	0xbde8d54d	-0.11368809
181	0xbc37f87c	-0.011228677
182	0x3e08eabd	0.13370796
183	0x3e58f7ec	0.21188325
184	0x3e87715c	0.26453674
185	0xbe0c1e34	-0.13683397
186	0x3dc495b6	0.095988676
187	0xbd48e8b0	-0.049050033
188	0xbde8426a	-0.113407925
189	0x3ce3bce0	0.027800024
190	0xbe44de1b	-0.19225352
191	0xbe529988	-0.2056638
192	0x3d82d004	0.06387332
193	0x3d9c80fd	0.0764179
194	0x3e2f157d	0.17098041
195	0x3cf30a0e	0.02966788
196	0xbe32c6ab	-0.17458598
197	0xbe0588f8	-0.1304053
198	0xbdc41be7	-0.095756344
199	0x3e892574	0.26786387
200	0x3e2b4104	0.1672402
201	0x3baef362	0.005339072
202	0x3cb3c0ba	0.021942485
203	0x3ea0789e	0.31342024
204	0xbe5310ff	-0.20611952
205	0x3d3f4f97	0.046706762
206	0xbdd7d3a8	-0.10538417
207	0xbe0a211f	-0.13489197
208	0xbdc77e67	-0.09740906
209	0xbe24ffeb	-0.1611325
210	0x3cf5f7dc	0.030025415
211	0xbe12106b	-0.14264075
212	0xbdfbc74f	-0.122938745
213	0xbd1c037c	-0.03808926
214	0x3e06ffef	0.13183568
215	0x3e1a98bd	0.15097328
216	0x3e07c4e9	0.13258709
217	0x3cd9942e	0.026559915
218	0x3e9dcc43	0.30819902
219	0xbd495cba	-0.049160697
220	0xbd76abee	-0.06022256
221	0x3a51d296	0.0008004097
222	0xbdee3253	-0.11630692
223	0xbe369f13	-0.1783412
224	0xbe77fc2b	-0.24217288
225	0xbe765bf4	-0.24058515
226	0x3d1435c4	0.036184087
227	0x3daf2773	0.08552446
228	0xbdff2357	-0.124579124
229	0xbe16981d	-0.14706464
230	0x3c47f457	0.012204251
231	0x3d77147e	0.060322277
232	0xbd6b81dd	-0.057496894
233	0x3d8dc1a3	0.06921699
234	0xbe56f3dc	-0.20991462
235	0xbdacc2c0	-0.08435583
236	0xbe5ca945	-0.21548946
237	0xbe675840	-0.22592258
238	0x3d818ee6	0.06326084
239	0xbe1fc0e9	-0.15600933
240	0xbe074e96	-0.13213572
241	0x3de2596b	0.110522114
242	0xbe054fab	-0.13018672
243	0xbdf492d4	-0.11942068
244	0xbd7d6f72	-0.06187386
245	0x3eb65930	0.3561492
246	0x3ea6e6b3	0.32597885
247	0xbe91fb8c	-0.28512228
248	0xbe6b09cb	-0.22952954
249	0xbdc058e8	-0.093919575
250	0x3e8795a8	0.26481366
251	0x3e3984eb	0.1811711
252	0x3e82f6a0	0.25578785
253	0xbe0bf6b0	-0.13668323
254	0xbd8f9fa5	-0.07012872
255	0xbd56e45f	-0.052463885

pre_processing_lin_layers.0.bias f4 [64]
0	0xbdde2675	-0.10847179
1	0xbcda02e9	-0.026612716
2	0x3dce55ce	0.1007496
3	0x3e639074	0.22223073
4	0xbe7db3d1	-0.24775626
5	0x3d6692fc	0.05629252
6	0xbe399284	-0.18122298
7	0xbe14fba4	-0.14549118
8	0x3e20e347	0.157117
9	0xbd56d9a3	-0.05245365
10	0xbd7ce254	-0.06173928
11	0x3c032c08	0.008006103
12	0xbe86f35d	-0.26357546
13	0x3e4b3295	0.19843514
14	0x3bb1bcf4	0.0054241363
15	0xbe72f332	-0.23725584
16	0x3e3e694c	0.18594855
17	0x3d9d938d	0.07694159
18	0x3d2b1bb9	0.041774485
19	0xbdacf5d7	-0.08445328
20	0xbbd671c8	-0.0065443255
21	0xbe878187	-0.2646601
22	0xbc02049c	-0.007935669
23	0xbde8e136	-0.113710806
24	0x3dad672e	0.084669456
25	0x3d756c2d	0.059917618
26	0x3ddf1746	0.10893111
27	0xbe9f020b	-0.31056246
28	0xbdd25155	-0.10269419
29	0x3d23a4c6	0.039952062
30	0xbebc4b73	-0.36776313
31	0xbe2bf20e	-0.16791555
32	0x3e6b4260	0.22974539
33	0xbdb94c70	-0.090477824
34	0xbd22b5d5	-0.03972419
35	0x3e8046fa	0.2505415
36	0xbc2e8ac0	-0.010653198
37	0xbe6d18fe	-0.23154065
38	0x3e8b6278	0.27223563
39	0xbc8f2d7b	-0.017477741
40	0x3cd191c8	0.02558221
41	0x3e5eb8c5	0.21750171
42	0xbc27f824	-0.010252032
43	0x3dff9d40	0.12481165
44	0xbd6a5e36	-0.057218753
45	0xbcfcb951	-0.030850084
46	0x3de44637	0.11146205
47	0xbe34def8	-0.17663181
48	0xbd60747f	-0.0547986
49	0xbdff97d4	-0.12480131
50	0x3e873616	0.26408452
51	0xbe2af91f	-0.16696595
52	0x3d94dd7d	0.07268808
53	0x3b857ca8	0.004073698
54	0x3cfdfc90	0.03100422
55	0x3dc3cfd0	0.095611215
56	0xbcb2fc57	-0.02184884
57	0xbeb1fd8c	-0.34763753
58	0xbd9522de	-0.07282041
59	0x3e9ebdd9	0.31004217
60	0x3de06502	0.10956766
61	0x3d9e8c5d	0.07741616
62	0x3e810ed4	0.25206625
63	0xbddc67dd	-0.10761998

pre_processing_lin_layers.1.weight f4 [64, 64]
0	0x3dc81e65	0.09771422
1	0x3de8f998	0.11375731
2	0x3d03ae32	0.032148547
3	0x3e0deaed	0.13859148
4	0x3ce20c9b	0.027593901
5	0x3d86693d	0.06563041
6	0x3e0a76a5	0.13521822
7	0x3d8f782a	0.07005341
8	0xbe806748	-0.25078797
9	0x3e56436e	0.2092416
10	0xbde37681	-0.11106587
11	0xbd743497	-0.059620466
12	0x3c7e53f0	0.015522942
13	0x3e10b7a4	0.14132553
14	0x3e420fd3	0.18951349
15	0xbd7cc3bf	-0.061710116
16	0xbd43c0ee	-0.047791414
17	0xba58c902	-0.00082696986
18	0x3e4199ab	0.18906276
19	0x3d9c4867	0.07630997
20	0x3ca727f0	0.020404786
21	0x3cd0460c	0.025424026
22	0xbdd8b2ec	-0.10581002
23	0x3def442b	0.11682924
24	0xbd5a93d4	-0.053363636
25	0xbca1bd23	-0.019743508
26	0xbe2afb79	-0.16697492
27	0xbd94fc07	-0.07274633
28	0xbe26f557	-0.16304527
29	0xbe3ac061	-0.18237449
30	0xbd6ea05e	-0.058258407
31	0xbd5224eb	-0.05130474
32	0x3e3a8865	0.18216093
33	0x3d689863	0.056785952
34	0x3da3fba5	0.08006982
35	0x3e6113fc	0.2198028
36	0xbd336838	-0.043800563
37	0x3d7fa7b5	0.062415797
38	0xbdbd4080	-0.09240818
39	0xbe236685	-0.15957077
40	0x3de801df	0.11328482
41	0xbdf9929c	-0.12186167
42	0x3bcc31fa	0.0062315436
43	0xbc0d06ff	-0.008607625
44	0xbd8b5163	-0.06802633
45	0xbdab1ef7	-0.083555155
46	0x3e5f83c4	0.21827608
47	0xbceefcef	-0.029173343
48	0xbe25c14c	-0.16187018
49	0xb8f56752	-0.00011701755
50	0xbdd8724c	-0.105686754
51	0xbe26fb0f	-0.16306709
52	0x3c68510f	0.014179482
53	0x3c68ff72	0.014221059
54	0x3d422810	0.047401488
55	0xbdaa9462	-0.08329083
56	0xbe094158	-0.13403833
57	0xbdc688ac	-0.09694037
58	0xbe2ee3b5	-0.17079051
59	0x3bd24fcf	0.0064182053
60	0xbc5b955b	-0.013402308
61	0x3d61e5e5	0.055150885
62	0xbd14f996	-0.036370836
63	0xbde8cbd9	-0.11367006
64	0xbdce6d09	-0.100793906
65	0x3d2e640c	0.04257588
66	0x3e08b5a1	0.13350536
67	0xbe2dfd44	-0.16991144
68	0x3ddd5900	0.10807991
69	0x3dffea22	0.12495829
70	0xbe03b877	-0.12863337
71	0xbd69632c	-0.056979343
72	0xbdb3cca4	-0.087792665
73	0xbe18db42	-0.1492739
74	0x3d9cb3ab	0.076514564
75	0xbc9d23ae	-0.019182052
76	0x3d849eeb	0.06475624
77	0xbdb32c27	-0.08748656
78	0x3dadae3f	0.084805004
79	0x3d4fadfc	0.050703034
80	0xbdfce138	-0.123476446
81	0xbd971aaa	-0.07378133
82	0xbcebc6d9	-0.028781341
83	0x3d32800a	0.04357914
84	0xbd598a81	-0.053110603
85	0x3ba54691	0.0050438126
86	0xbdb63db9	-0.088984914
87	0xbdaf005d	-0.08544991
88	0xbd6c78b9	-0.057732318
89	0x3e2eb3e5	0.17060812
90	0x3e0e02eb	0.138683
91	0x3d7eb871	0.062187616
92	0xbdc7de43	-0.0975919
93	0x3c60ffb9	0.013732844
94	0x3d5c3284	0.053759113
95	0x3d944e5c	0.07241508
96	0xbdebc498	-0.11512107
97	0x3d3a2759	0.04544768
98	0x3d130513	0.03589351
99	0x3d7d4811	0.061836306
100	0xbd1c0835	-0.038093764
101	0xbb7ce6b5	-0.003858966
102	0x3d0cf124	0.034409657
103	0xbd8091c2	-0.06277801
104	0xbdca2afd	-0.098714806
105	0x3df9343e	0.121681675
106	0xbd1d6b42	-0.038432367
107	0xbdab5d8b	-0.08367451
108	0x3e42085f	0.18948506
109	0x3d2dea08	0.042459518
110	0x3ccd2b9f	0.025045214
111	0xbdaabfb9	-0.083373494
112	0x3dafba30	0.08580434
113	0xbcf8cf5c	-0.030372314
114	0xbde99ae4	-0.11406496
115	0x3d32ee54	0.04368432
116	0x3be3ae53	0.0069482713
117	0xbdc7aedf	-0.09750151
118	0x3e21bc8e	0.15794584
119	0xbd4746aa	-0.048651375
120	0x3c389ea7	0.011268294
121	0xbd67c71c	-0.05658637
122	0xbdbb9f3a	-0.091612294
123	0xbc75f0c4	-0.015011016
124	0xbce620e3	-0.028091853
125	0x3db1ad2b	0.08675607
126	0xbe24c25b	-0.16089766
127	0x3e14d616	0.14534792
128	0x3d9c67c3	0.076369785
129	0xbc091653	-0.008367139
130	0xbe4c5ab1	-0.19956471
131	0x3ddbae93	0.10726657
132	0xbd9ddcd0	-0.07708132
133	0xbbbd18bd	-0.0057707713
134	0xbe0061af	-0.12537263
135	0xbd3d0d4c	-0.04615526
136	0x3d1f9f2c	0.038970158
137	0xb9467649	-0.00018926816
138	0xbc91cb8f	-0.01779726
139	0xbd19174d	-0.037375737
140	0x3d104181	0.03521872
141	0x3e36ba95	0.17844613
142	0x3cb84147	0.022492064
143	0x3e19fd74	0.15038091
144	0xbdf52f30	-0.11971891
145	0xbd07ca42	-0.033151872
146	0x3e01fb74	0.12693578
147	0xbd961a1d	-0.073291995
148	0xbd58c0ce	-0.052918248
149	0x3e708c7e	0.23491094
150	0xbd079a8d	-0.033106375
151	0xbdbd99ed	-0.09257875
152	0x3c92d1d9	0.017922329
153	0x3d642031	0.055694763
154	0x3d66817a	0.056275822
155	0xbc9e1334	-0.019296266
156	0xbd015ef5	-0.0315847
157	0xbd508500	-0.05090809
158	0xbda6bda5	-0.081416406
159	0xbdf091fd	-0.11746595
160	0x3e57dd27	0.21080457
161	0xbd958393	-0.073004864
162	0x3d52d6aa	0.05147425
163	0xbc3f7c12	-0.0116872955
164	0x3d3c1fd5	0.045928795
165	0x3dd8844c	0.105721086
166	0x3dad6c5f	0.08467936
167	0xbdbc8da4	-0.09206703
168	0x3d8b90c3	0.068147205
169	0x3d729899	0.05922756
170	0x3d93a252	0.072086945
171	0x3e13904e	0.14410517
172	0x3e1e2122	0.15442327
173	0xbdfe22ed	-0.12409005
174	0x3be3f57a	0.0069567533
175	0x3e1f705b	0.15570204
176	0xbe2125d1	-0.15737082
177	0xbe01c805	-0.12673958
178	0xbe39878a	-0.1811811
179	0xbcd4a8bd	-0.025959367
180	0xbd3c0681	-0.04590464
181	0xbcd1ea7c	-0.025624506
182	0x3dc165e1	0.0944326
183	0x3dedcee5	0.116117276
184	0xbdda00de	-0.10644697
185	0xbde62911	-0.112383015
186	0xbb960ad8	-0.0045789294
187	0x3db51dd9	0.088435836
188	0xbd8286d0	-0.0637337
189	0x3e18d395	0.14924462
190	0xbdf9178f	-0.121626966
191	0x3d233fd1	0.039855782
192	0x3d955f04	0.072935134
193	0x3d3e5e83	0.046476852
194	0x3d3c28b2	0.045937248
195	0xbbf2a5e8	-0.0074050315
196	0x3c35064a	0.011048863
197	0x3daa512d	0.08316264
198	0x3e707fbc	0.23486227
199	0x3dfdc2cb	0.123906694
200	0x3cab90e7	0.020943118
201	0xbd2e67d8	-0.042579502
202	0xbe48bb40	-0.1960268
203	0x3d015195	0.031571943
204	0x3e2fc41d	0.17164655
205	0xbda8ce32	-0.08242454
206	0x3d603984	0.05474235
207	0xbd55cef4	-0.05219932
208	0xbe1dd3b5	-0.15412791
209	0x3d585e6d	0.052824426
210	0x3e6e6775	0.23281653
211	0x3d232457	0.03982958
212	0x3d9d7550	0.07688391
213	0x3d574074	0.0525517
214	0x3d9ce09c	0.07660028
215	0xbc163340	-0.009167492
216	0xbe338481	-0.17531015
217	0xbd0e19e3	-0.034692656
218	0x3c83bb9a	0.016080666
219	0xbbe03976	-0.0068427874
220	0x3c0cbbe1	0.008589716
221	0xbe1b23bf	-0.15150355
222	0x3e22b0eb	0.15887801
223	0x3e2aa027	0.16662656
224	0xbe06a6f6	-0.13149628
225	0xbd4ed899	-0.050499532
226	0xbe657432	-0.22407606
227	0xbe12186f	-0.14267133
228	0xbc8e8498	-0.01739721
229	0x3d09a744	0.033606783
230	0xbbd88d88	-0.0066086687
231	0xbc168990	-0.009188071
232	0x3d50603b	0.050873023
233	0x3dc335a8	0.095317185
234	0x3d67f9c7	0.05663469
235	0xbd5f3646	-0.05449512
236	0x3dba988e	0.09111129
237	0xbd7cb52b	-0.061696213
238	0x3c9d7808	0.019222274
239	0x3e223b92	0.15843037
240	0xbde303a4	-0.11084679
241	0xbc8ca53f	-0.01716864
242	0x3e135051	0.14386107
243	0x3e13b3a3	0.14423995
244	0x3e0bd445	0.13655193
245	0x3c8e56ee	0.017375436
246	0x3da2e8d4	0.07954565
247	0x3de24175	0.11047641
248	0x3df79907	0.120897345
249	0x3d9fc18e	0.078005895
250	0x3d5cb649	0.05388478
251	0xbe115c62	-0.14195397
252	0x3da43624	0.08018139
253	0x3e0e2d9c	0.13884586
254	0x3de11b15	0.109914936
255	0x3e1bc4e0	0.1521182

pre_processing_lin_layers.1.bias f4 [64]
0	0x3e155f61	0.14587165
1	0xbe02320d	-0.12714405
2	0xbe3d0b73	-0.18461399
3	0xbdb7f19e	-0.08981632
4	0xbe2dea4a	-0.16983905
5	0xbd3ab90e	-0.04558664
6	0x3e24fa18	0.16111028
7	0xbdaa28b4	-0.08308545
8	0x3d974e82	0.07388021
9	0x3da87518	0.08225459
10	0x3d2ad284	0.04170467
11	0xbcabaa89	-0.020955341
12	0xbd412212	-0.047151633
13	0xbd41425c	-0.047182426
14	0xbda54442	-0.0806966
15	0x3dea9438	0.11454052
16	0xbd076d1e	-0.033063047
17	0xbc24f616	-0.010068437
18	0x3e434955	0.19070943
19	0xbcf5d777	-0.030009968
20	0x3e47b4f5	0.19502623
21	0xbd9d9289	-0.07693965
22	0x3d9dcc19	0.07704944
23	0x3e63b6de	0.22237727
24	0x3e0679b5	0.13132365
25	0x3cb5d215	0.022194901
26	0xbd7dc856	-0.061958633
27	0x3bea230c	0.007145291
28	0xbd65dd22	-0.05611909
29	0x3d6148cb	0.05500106
30	0x3e1a72ff	0.1508293
31	0xbdcc244d	-0.09967861
32	0x3e044203	0.12915806
33	0x3dc4f331	0.096166976
34	0x3c8675d7	0.016413612
35	0xbc99af5c	-0.018760376
36	0xbc1aa967	-0.009439803
37	0xbdc2430d	-0.09485445
38	0x3d64c650	0.055853188
39	0x3ddf4533	0.109018706
40	0xbe09193b	-0.13388531
41	0x3c54aded	0.01298092
42	0xbd5119a6	-0.05104985
43	0x3e25c717	0.16189228
44	0xbd035786	-0.03206589
45	0xbd54edf4	-0.051984742
46	0x3dba7cfd	0.09105871
47	0x3bc18c8e	0.005906648
48	0xbcae8a3f	-0.021306155
49	0xbe1d5e78	-0.15368068
50	0xbddd7dd3	-0.10815015
51	0xbc7716bc	-0.015081104
52	0x3dc14f6c	0.09438977
53	0x3d159b6b	0.03652517
54	0x3ddcc5e7	0.107799344
55	0x3c2eed63	0.010676715
56	0x3d2e2807	0.04251864
57	0xbd6f4b0a	-0.058421172
58	0x3d39f913	0.04540355
59	0x3ca8aba0	0.02058965
60	0x3dbe9257	0.09305256
61	0x3d84cc35	0.06484262
62	0x3dc124f1	0.09430874
63	0xbd91b9d9	-0.07115526

pre_processing_lin_layers.2.weight f4 [64, 64]
0	0xbb980c1a	-0.0046401145
1	0xbbbe86b4	-0.0058143977
2	0xbb92b82b	-0.004477521
3	0xbc6202c4	-0.013794605
4	0x3d310c30	0.043224514
5	0x3cbe6d5e	0.02324551
6	0x3e07ed93	0.13274221
7	0x3d8996b6	0.06718199
8	0x3e241c0a	0.16026321
9	0xbdc582ff	-0.09644126
10	0x3dadb6f1	0.08482159
11	0x3dac2151	0.08404792
12	0x3de4282b	0.11140474
13	0xbdf4ba88	-0.119496405
14	0x3e008c48	0.12553513
15	0x3d765898	0.060143083
16	0x3e085570	0.13313842
17	0xb96f1b40	-0.00022802968
18	0x3dbee780	0.09321499
19	0x3db23e41	0.0870328
20	0x3d7c57ef	0.061607298
21	0xbc4cba4d	-0.012495589
22	0xbcd37cda	-0.02581637
23	0x3d707e20	0.058714032
24	0xbd28edb3	-0.041242313
25	0xbd81591d	-0.06315825
26	0xbd2ca03d	-0.042145003
27	0xbdfdffc7	-0.12402301
28	0x3dedc60b	0.11610039
29	0x3cf592ff	0.02997732
30	0x3e1878e2	0.14889863
31	0x3d79807b	0.060913544
32	0x3e51433f	0.20435809
33	0xbd649150	-0.055802643
34	0x3e13fa6e	0.14451
35	0x3e04e0cc	0.12976378
36	0xbb7e4cfe	-0.0038803215
37	0x3d8c539d	0.068518855
38	0xbe051075	-0.12994559
39	0x3a6c0530	0.00090034585
40	0xbd9824db	-0.074289046
41	0x3d7b49e7	0.061349776
42	0xbdc7aa46	-0.09749274
43	0x3c999739	0.018748866
44	0xbe192c26	-0.14958248
45	0x3e3d46ec	0.18484086
46	0xbc30fd8a	-0.010802636
47	0xbcf4a859	-0.02986543
48	0xbdd3e919	-0.10347194
49	0xbda257fd	-0.07926939
50	0x3d33dd45	0.04391219
51	0xbd30200f	-0.042999323
52	0x3d09c51c	0.033635244
53	0x3de714ef	0.1128329
54	0xbb16436f	-0.0022928377
55	0x3e5fb6db	0.21847098
56	0xbcacc9f0	-0.021092385
57	0x3cf01d8f	0.02931097
58	0x3dc44ed2	0.09585346
59	0xbdab2136	-0.08355944
60	0x3dc39c4f	0.09551298
61	0xbdd0614c	-0.10174808
62	0x3bf17119	0.0073682186
63	0x3da76d93	0.081751965
64	0x3d2dce59	0.042433117
65	0x3dc16027	0.09442168
66	0xbc9d0a0f	-0.019169835
67	0xbe2df722	-0.16988805
68	0x3cb11a7e	0.021619078
69	0xbc606bc8	-0.013697572
70	0xbc181dad	-0.009284419
71	0xbde6abc5	-0.11263231
72	0xbc9ab9a3	-0.018887347
73	0x3d1d9919	0.038476083
74	0xbc5b753a	-0.013394648
75	0xbe12c22c	-0.14331883
76	0x3d92eaf2	0.071737185
77	0xbce44eda	-0.02786963
78	0x3e23fe17	0.16014896
79	0x3d4379bf	0.047723528
80	0x3ce1a670	0.027545184
81	0x3d0e18e9	0.034691725
82	0xbd593062	-0.053024657
83	0x3daeeb1e	0.08540939
84	0x3e3a2bd3	0.1818078
85	0xbd2cd1ea	-0.042192377
86	0xbcdb4d44	-0.026770242
87	0xbe3e80de	-0.18603846
88	0xbc74ae4b	-0.014934133
89	0x3c98f1fa	0.01867007
90	0xbdb51bca	-0.08843191
91	0xbd0093bf	-0.0313909
92	0xbe0dc7a9	-0.13845696
93	0x3dd417c1	0.10356093
94	0xbdd4f106	-0.10397534
95	0xbd1b2748	-0.03787926
96	0xbd7fc5bc	-0.062444434
97	0xbd7e39d8	-0.062066883
98	0xbd63f198	-0.055650324
99	0xbbea5a85	-0.007151904
100	0xbd3940ab	-0.045227688
101	0xbdd6eccc	-0.10494384
102	0xbd9059b0	-0.070483565
103	0xbe296bc0	-0.1654501
104	0xbd6083ba	-0.054813124
105	0xbccd0fc1	-0.025031926
106	0x3e06a214	0.13147765
107	0xbc5b6d31	-0.0133927325
108	0x3d781c0e	0.06057363
109	0x3beea52f	0.007282875
110	0x3e041549	0.12898745
111	0x3c9da3f7	0.019243224
112	0xbd554fa3	-0.0520779
113	0x3da3ef41	0.080046184
114	0xbda9634f	-0.08270895
115	0xbdcb0e6c	-0.0991486
116	0xbe1cc304	-0.15308768
117	0x3d7e3f7d	0.062072266
118	0xbdab7809	-0.08372504
119	0x3d45a378	0.0482516
120	0x3c504777	0.012712351
121	0xbe13fffd	-0.1445312
122	0xbd1c9fb6	-0.03823825
123	0x3b4a05a5	0.0030826118
124	0xbdbd6edd	-0.09249661
125	0xbcfbe73b	-0.030749908
126	0xbe26a919	-0.16275443
127	0xbbdbddcf	-0.0067097913
128	0xbd9a9d3f	-0.075495236
129	0x3cfdec8d	0.030996585
130	0x3d7a0098	0.061035722
131	0xbe2806c5	-0.16408832
132	0x3d92f653	0.07175889
133	0xbc5d273e	-0.013498126
134	0x3da043cb	0.078254305
135	0xbda95fc3	-0.08270218
136	0x3dec7a01	0.11546708
137	0xbced5c50	-0.028974682
138	0x3e1bc8c2	0.15213302
139	0x3e2ac4a7	0.1667658
140	0x3ddbd920	0.10734773
141	0xbc80dd83	-0.015730625
142	0xbceb093f	-0.028690932
143	0x3ded14b4	0.115762144
144	0x3dc0e193	0.09418025
145	0xbc63978e	-0.013891114
146	0xbd5ec5cb	-0.05438785
147	0x3d9f63cc	0.077827066
148	0x3d30dc91	0.0431791
149	0xbdc0a2b0	-0.0940603
150	0xbd88ac03	-0.06673434
151	0x3d91600e	0.07098399
152	0xbd88da1d	-0.06682227
153	0x3e068576	0.13136849
154	0x3d2f18bd	0.0427482
155	0xbd235431	-0.039875213
156	0xbe354c3c	-0.17704862
157	0x3ddf06b7	0.10889953
158	0x3da64ff5	0.08120719
159	0xbe057fa4	-0.13036972
160	0xbcc15c5b	-0.023603609
161	0x3d8a205b	0.067444526
162	0xbcf81d9c	-0.030287556
163	0x3e048146	0.12939939
164	0x3d09ba48	0.033624917
165	0x3cac199f	0.02100831
166	0x3d2d85b6	0.042363845
167	0xb9a6f7fb	-0.00031846747
168	0x3e2be0ce	0.16784975
169	0xbd0090a0	-0.031387925
170	0xbe16b021	-0.14715625
171	0x3cf63d76	0.030058604
172	0x3d816bd6	0.06319396
173	0x3c236931	0.00997381
174	0x3d048b2c	0.032359287
175	0x3c183ffe	0.009292601
176	0xbe121146	-0.14264402
177	0x3c33de74	0.01097833
178	0xbe0602cc	-0.13087004
179	0x3df18af2	0.1179408
180	0x3e11e3d0	0.1424706
181	0x3e4e2974	0.20133
182	0xbd8c8e8e	-0.06863128
183	0x3d05ab58	0.03263411
184	0xbda649e5	-0.08119563
185	0x3da78c3b	0.08181044
186	0xbe025751	-0.12728621
187	0x3df09319	0.11746807
188	0x3c19dceb	0.00939105
189	0xbde7b93d	-0.11314628
190	0x3bffcfa2	0.007806734
191	0x3cd5decc	0.026107214
192	0x3e445090	0.19171357
193	0xbde559b0	-0.11198747
194	0x3d83b9b4	0.064319044
195	0xbd19f076	-0.037582837
196	0xbd27cd28	-0.040967137
197	0xbb1beae9	-0.002379114
198	0xbd992cd0	-0.074792504
199	0xbdb4ee3a	-0.088345006
200	0x3e3aca07	0.1824113
201	0x3e42b429	0.19014038
202	0xbdf70cda	-0.12062998
203	0x3d191d43	0.03738142
204	0x3d3b8bce	0.045787625
205	0x3d90d635	0.07072107
206	0xbe016f3f	-0.12640093
207	0x3da2e646	0.079540774
208	0xbbf40532	-0.0074469084
209	0x3d9770b4	0.07394543
210	0x3e0d9af7	0.13828646
211	0x3cba5184	0.022743948
212	0xbd4fe87b	-0.05075882
213	0x3d8bef42	0.06832744
214	0xbc052db2	-0.00812857
215	0x3d97d459	0.07413549
216	0x3c643016	0.01392748
217	0x3db7f1f5	0.089816965
218	0x3e691683	0.22762494
219	0x3e045452	0.1292279
220	0x3c44df2b	0.012016098
221	0x3e0dfabe	0.13865182
222	0x3e0ecd76	0.13945565
223	0xbc9985a8	-0.01874049
224	0x3dacf5b3	0.08445301
225	0xbc87cb26	-0.01657636
226	0x3e0352bd	0.12824531
227	0x3dbc2d6a	0.091883495
228	0xbc9005a9	-0.017580824
229	0xbd1e184c	-0.03859739
230	0xbd6d9726	-0.058005475
231	0x3d0abb53	0.033870053
232	0x3dc14fba	0.09439035
233	0x3dfa0916	0.12208764
234	0x3e3b055f	0.18263768
235	0xbd95f270	-0.07321632
236	0xbd52a851	-0.05143005
237	0x3d214886	0.039375804
238	0x3dc39d9a	0.095515445
239	0x3bc5300b	0.00601769
240	0x3d2ff3de	0.04295718
241	0xbddef4ee	-0.108865604
242	0x3c5d2035	0.013496448
243	0xbcd9b694	-0.026576318
244	0x3daf8d7c	0.08571908
245	0xbad9df3e	-0.0016622317
246	0x3e5099fb	0.20371239
247	0xba3482ff	-0.0006885975
248	0xbe18c9f7	-0.14920793
249	0xbb8ed45a	-0.0043588104
250	0x3d5ca19b	0.053865056
251	0x3cc927db	0.024555137
252	0xbccd1861	-0.025036039
253	0x3de76877	0.11299222
254	0x3e3f7f3d	0.18700881
255	0xbdcd796e	-0.100329265

pre_processing_lin_layers.2.bias f4 [64]
0	0xbd8738d5	-0.06602637
1	0x3d09a5e3	0.033605468
2	0x3b762095	0.0037556041
3	0xbde19a03	-0.110157035
4	0x3d0f5d7a	0.035001256
5	0xbba23724	-0.004950421
6	0x3d2377e5	0.039909262
7	0x3cc54e4f	0.024085192
8	0xbdba972a	-0.091108635
9	0xbe11e81a	-0.14248696
10	0xbdd1678d	-0.10224829
11	0x3d695357	0.056964245
12	0xbbf24e9d	-0.0073946253
13	0x3da29149	0.07937867
14	0xbd87f736	-0.066389486
15	0xbad67f6e	-0.0016364881
16	0xbd122a54	-0.0356849
17	0x3ddfcc09	0.109275885
18	0xbc8eb81e	-0.017421778
19	0x3c345160	0.011005729
20	0xbdd4888d	-0.103776075
21	0x3d59fa89	0.053217445
22	0xbc1c9e1e	-0.009559182
23	0x3dc24778	0.09486288
24	0x3d80c9e4	0.062885076
25	0xbe0821d9	-0.13294162
26	0xbdb10881	-0.086442
27	0x3db8a022	0.09014918
28	0xbdb82122	-0.089906946
29	0x3d38516e	0.044999532
30	0x3e2303be	0.15919396
31	0xbc034414	-0.008011837
32	0x3d15faf2	0.036616273
33	0xbe04b662	-0.12960199
34	0x3df33edf	0.11877226
35	0x3b865c83	0.0041003837
36	0x3d7e405f	0.062073108
37	0xbcb715cd	-0.022349263
38	0x3d8c21e1	0.068423994
39	0xbe56b189	-0.20966162
40	0x3d8c3940	0.06846857
41	0xbb0f094d	-0.0021825612
42	0xbbdca9f1	-0.006734126
43	0x3e2c87a7	0.16848622
44	0xbe224069	-0.15844883
45	0xbe64a968	-0.22330248
46	0x3e38642c	0.18006963
47	0xbca10ebb	-0.019660344
48	0xbdf01201	-0.11722184
49	0x3dca2de5	0.09872035
50	0xbdbcb08a	-0.0921336
51	0xbd39651b	-0.045262437
52	0x3d458a81	0.04822779
53	0x3dc390ba	0.09549089
54	0xbe41819c	-0.18897098
55	0x3c787461	0.015164466
56	0xbcd19779	-0.025584923
57	0xbb9473e6	-0.0045304177
58	0xbbe3d0e2	-0.006952391
59	0xbd4d44db	-0.050114494
60	0xbc1ff11c	-0.009762075
61	0x3c3fb06e	0.011699779
62	0x3abb6ac1	0.0014298783
63	0xbdadef53	-0.08492913

pre_processing_lin_layers.3.weight f4 [64, 64]
0	0x3d8d5547	0.06901031
1	0xbe0f2196	-0.13977656
2	0x3d39ca50	0.045358956
3	0xbd8e28c3	-0.069413684
4	0x3e6c2d98	0.23064268
5	0xbd6a4db4	-0.05720301
6	0xbd3e3cd0	-0.046444714
7	0x3d71bbfa	0.05901716
8	0x3d3578f1	0.04430479
9	0x3d807a40	0.06273317
10	0x3da0ff2a	0.07861169
11	0x3e4f6adc	0.20255607
12	0xbc882cf0	-0.01662299
13	0x3deb133c	0.11478278
14	0xbe0fb8e9	-0.14035381
15	0x3dce3bdc	0.10070011
16	0x3c387730	0.011258885
17	0xbe05867b	-0.13039581
18	0x3ce189c2	0.027531508
19	0x3da95aae	0.08269249
20	0xbd612595	-0.05496748
21	0x3ddab234	0.10678521
22	0x3e3a7c8a	0.1821157
23	0x3d1ca270	0.03824085
24	0x3d99ceb7	0.07510131
25	0x3da8d3dc	0.08243534
26	0xbd1bcfbd	-0.03803991
27	0x3d2c12f0	0.042010248
28	0x3e042e1f	0.12908219
29	0x3d662856	0.05619081
30	0xbd8e7f20	-0.06957841
31	0xbd60fd7d	-0.054929245
32	0x3e436dea	0.19084898
33	0xbc92dbda	-0.017927099
34	0x3cc8d5bb	0.024515977
35	0x3bfd8d13	0.0077377646
36	0xbd333ccc	-0.043759152
37	0xbd7607dd	-0.060066093
38	0xbd5b339d	-0.05351602
39	0x3d7e8f21	0.062148217
40	0x3e06eee2	0.13177064
41	0x3dff8492	0.12476458
42	0x3d0c3f3d	0.034239996
43	0x3d69f1e6	0.057115458
44	0x3e3faed9	0.18719043
45	0x3e6f615c	0.23376983
46	0x3c5ebda7	0.013595021
47	0xbcaf97ea	-0.021434743
48	0x3d9bc418	0.07605761
49	0x3e003eee	0.12524006
50	0xbe44a853	-0.19204836
51	0x3e177b67	0.14793168
52	0x3e4622ff	0.19349287
53	0x3df398b4	0.1189436
54	0xbd97613f	-0.07391595
55	0x3cf3b8bf	0.02975118
56	0x3e00d02c	0.12579411
57	0x3c9a123c	0.018807523
58	0x3e02297e	0.1271114
59	0xbe043e9b	-0.12914507
60	0x3cbdb598	0.02315788
61	0x3df5fd41	0.12011195
62	0xbe14d0a1	-0.1453271
63	0xbdcb2119	-0.09918422
64	0x3e022a80	0.12711525
65	0x3d4eae4b	0.050459187
66	0x3d53c92a	0.051705517
67	0x3d6ac210	0.05731398
68	0x3b7baabf	0.0038401333
69	0xbd3b1396	-0.045672975
70	0xbd40be4a	-0.047056474
71	0xbc1a6493	-0.009423393
72	0x3d78d12d	0.06074636
73	0x3ce31676	0.027720671
74	0x3dc2f1e2	0.09518792
75	0x3e1e5e66	0.15465698
76	0x3d82b3ba	0.06381936
77	0x3e3e12fb	0.18561928
78	0xbdc8056b	-0.097666584
79	0x3df736dc	0.120710105
80	0x3e0ce89f	0.13760613
81	0xbc06974e	-0.008214785
82	0x3e0e8ce6	0.13920936
83	0x3d37db4b	0.04488687
84	0x3d301201	0.04298592
85	0x3d04dbd1	0.032436196
86	0x3d97387c	0.073838204
87	0xbe30b0b0	-0.17254901
88	0xbdcf47bb	-0.101211034
89	0xbcabd2a6	-0.020974468
90	0xbdc20102	-0.094728485
91	0x3e000b6c	0.12504357
92	0x3c81e9b9	0.015858518
93	0x38f7ae80	0.00011810381
94	0x3def7da9	0.1169389
95	0xbddce5e6	-0.10786037
96	0xbcb6e3a9	-0.022325354
97	0xbd8665a4	-0.06562355
98	0xbdd14b75	-0.102194704
99	0x3be7b3fc	0.0070710164
100	0xbd2302ce	-0.039797597
101	0xbe1f5a7e	-0.15561864
102	0x3dbb50dd	0.09146283
103	0x3e11dd09	0.14244474
104	0xbd421155	-0.04737981
105	0x3e2266ec	0.15859574
106	0x3dcfd119	0.10147304
107	0x3dfc004d	0.12304745
108	0x3d388b04	0.04505445
109	0x3d7ed157	0.06221136
110	0xbd9ea891	-0.07746995
111	0xbd4a549c	-0.049397096
112	0x3b203c76	0.00244501
113	0x3db6c777	0.08924764
114	0xbe24268b	-0.16030328
115	0x3d8de5a4	0.06928566
116	0xbc51d2d9	-0.012806618
117	0x3e0e180d	0.13876362
118	0x3dc6dea9	0.09710438
119	0x3c93a2c7	0.018021954
120	0xbd72ee2f	-0.05930918
121	0x3e22b1e6	0.15888175
122	0x3e492fe0	0.19647169
123	0xbcc37b71	-0.023862572
124	0x3d9d45d0	0.07679331
125	0xbd013cf8	-0.031552285
126	0xbe25e8f3	-0.16202144
127	0xbe144dea	-0.14482847
128	0xbde65065	-0.11245803
129	0x3d721228	0.059099346
130	0x3cb664d6	0.02226488
131	0xbe413ca9	-0.18870796
132	0x3d827321	0.06369615
133	0xbcbbf8e9	-0.022945838
134	0xbd54c5a8	-0.051946312
135	0xbd8cef03	-0.06881525
136	0xbd63ee82	-0.05564738
137	0xbdfd302d	-0.123627044
138	0xbdc9c464	-0.09851912
139	0xbd11b6fc	-0.035574898
140	0xbcd03693	-0.025416648
141	0xbe250342	-0.16114524
142	0x3d30b3b0	0.043140113
143	0x3d6b1a79	0.057398293
144	0xbcd137a7	-0.025539232
145	0x3cbd4ab7	0.023106916
146	0xbe09e221	-0.13465168
147	0xbdafccc5	-0.085839786
148	0x3cf528cb	0.029926678
149	0xbd77d5ef	-0.060506757
150	0xbd9f9299	-0.07791633
151	0x3e0b589d	0.13608022
152	0x3e3ba46f	0.18324445
153	0xbd863a90	-0.06554139
154	0x3df8e5c2	0.12153198
155	0x3dbc85b3	0.092051886
156	0xbdcb07b6	-0.0991358
157	0x3c88cc1b	0.016698888
158	0xbabaa4be	-0.0014239771
159	0x3df2bdf0	0.11852634
160	0xbc6bd368	-0.014393665
161	0xbc56fdae	-0.013122005
162	0xbdbcedec	-0.092250675
163	0xbcf4d64e	-0.029887345
164	0xbd62de67	-0.05538788
165	0x3e181713	0.14852552
166	0xbdd28ad5	-0.10280386
167	0x3cd8378c	0.026393674
168	0x3e0d54db	0.13801901
169	0xbdf2c431	-0.11853827
170	0xbde2f738	-0.110823095
171	0x3c3f8f09	0.011691817
172	0xbe18f3f3	-0.14936809
173	0xbb32b048	-0.0027265716
174	0x3cdae9de	0.026722845
175	0xbd31536c	-0.043292448
176	0x3da350bd	0.07974384
177	0xbe1f9d29	-0.15587296
178	0xbdbfd100	-0.093660355
179	0xbd5b4bc3	-0.05353905
180	0xbe0d3e07	-0.13793193
181	0x3ae8e129	0.0017767298
182	0xbcf5c153	-0.02999941
183	0x3dd92af5	0.106038965
184	0xbe0a8090	-0.13525605
185	0xbd71e8b5	-0.059059817
186	0xbdbe99ce	-0.0930668
187	0x3ccfc1d6	0.025360983
188	0x3d8a11d6	0.06741683
189	0x3d7b3416	0.06132897
190	0xbd01a6fd	-0.031653393
191	0xbc4cb04f	-0.012493207
192	0xbcea4a90	-0.028600007
193	0x3e39ed74	0.18156987
194	0xbe16b3db	-0.14717047
195	0xbe1965a6	-0.14980182
196	0xbdb4ba09	-0.08824546
197	0x3da58383	0.080817245
198	0xbe241f98	-0.16027677
199	0xbd505617	-0.05086335
200	0x3bb33a69	0.0054696095
201	0x3d8ea22c	0.069645256
202	0x3d5fcee7	0.054640677
203	0xbe03f659	-0.12886943
204	0xbd771823	-0.060325753
205	0x3d21ba26	0.039484166
206	0x3da893fa	0.08231349
207	0xbd746971	-0.05967087
208	0xbcc38f60	-0.023872077
209	0xbcd553d3	-0.026040947
210	0xbcd7709f	-0.02629882
211	0xbcb3be21	-0.021941246
212	0xbe2d6ce7	-0.16936074
213	0xbc01ea84	-0.007929448
214	0xbd0bfc01	-0.034175877
215	0xbd00e8a1	-0.031471852
216	0x3d4b3da0	0.049619317
217	0xbd5e1a72	-0.05422444
218	0xbdca6122	-0.09881808
219	0x3e316d96	0.1732696
220	0x3dc4a342	0.096014515
221	0xbe1f77cf	-0.15573047
222	0x3c13ff57	0.009033046
223	0xbbfc65a8	-0.007702548
224	0xbcdd28f0	-0.02699706
225	0xbe44d270	-0.192209
226	0xbdac419a	-0.0841095
227	0xbd4f2a6a	-0.05057756
228	0x3d2d8e40	0.04237199
229	0xbd5cdfda	-0.05392442
230	0xbd99e0f2	-0.07513608
231	0x3c8f05b6	0.017458778
232	0x3da4ed91	0.08053125
233	0xbdc9f334	-0.098608404
234	0xbdd3f323	-0.10349109
235	0xbcbc0e6d	-0.022956097
236	0xbdcb4763	-0.09925725
237	0xbdc3df54	-0.09564081
238	0xbd6545fc	-0.055974945
239	0x3ddf37b9	0.108993
240	0x3e0ae14a	0.13562503
241	0xbe5fa4e7	-0.21840249
242	0xbb8960f4	-0.004192466
243	0xbda12d28	-0.07869941
244	0xbe3a4b62	-0.18192819
245	0xbcb2337e	-0.021753069
246	0xbbc9a4ff	-0.0061537023
247	0xbd4ea99c	-0.05045472
248	0x3b835ca1	0.004008845
249	0xbd0160ec	-0.031586573
250	0x3c456f9a	0.012050534
251	0xbcc06ddd	-0.023489887
252	0x3e030c4b	0.12797658
253	0x3dcd7c20	0.100334406
254	0x3d861730	0.065473914
255	0xbd263c09	-0.040584598

pre_processing_lin_layers.3.bias f4 [64]
0	0xbb1f5dd8	-0.002431741
1	0x3d904f0a	0.070463255
2	0x3d31f4b0	0.043446243
3	0x3de1b265	0.11020354
4	0x3da78b32	0.08180846
5	0x3d0a1f3a	0.033721186
6	0xbb7bac60	-0.0038402304
7	0x3d7c486f	0.061592516
8	0xbc2ef8d4	-0.010679442
9	0xba5134a6	-0.00079805625
10	0x3d089f60	0.033355117
11	0x3d968b36	0.07350771
12	0x3d91bd6d	0.07116208
13	0xbd05877c	-0.03259991
14	0x3ddb20b0	0.10699594
15	0xbe546b98	-0.20744169
16	0x3d6e86de	0.058234088
17	0xbc7ce6cd	-0.015435887
18	0x3a6e336c	0.0009086642
19	0xbd27d5c0	-0.040975332
20	0xbd97c801	-0.074111946
21	0xbd9de659	-0.07709951
22	0x3e144c18	0.14482152
23	0xbdb39cfb	-0.08770176
24	0x3d4e1f94	0.050323084
25	0xbd070fbb	-0.032973986
26	0x3dc719d5	0.09721724
27	0xbc98ff70	-0.01867649
28	0xbc6530f8	-0.013988726
29	0xbe1b93c7	-0.15193091
30	0x3d7839cf	0.060602006
31	0xbe34a301	-0.17640306
32	0xbe388684	-0.18020064
33	0x3c06755d	0.0082066925
34	0xbc862bff	-0.0163784
35	0xbd907e78	-0.07055372
36	0x3c94581d	0.018108422
37	0xbd8a9224	-0.06766155
38	0xbdb03cf7	-0.08605378
39	0xbe086c99	-0.13322677
40	0x3cf681f8	0.03009127
41	0x3dca1ecd	0.09869156
42	0x3d22a9ca	0.039712705
43	0x3b6f508f	0.0036516523
44	0xbccd9c8e	-0.025099065
45	0x3dabe25d	0.08392785
46	0x3e383626	0.17989406
47	0xbd88348c	-0.066506475
48	0xbcae0576	-0.021242838
49	0x3e3f3d68	0.18675768
50	0xbb3c2695	-0.002870952
51	0x3d84edf5	0.06490699
52	0xbd33ace3	-0.04386605
53	0x3d050a10	0.0324803
54	0xbca180a2	-0.019714657
55	0x3d92932a	0.071569756
56	0x3c01105e	0.007877437
57	0xbbea9cdd	-0.007159813
58	0x3d6b0830	0.057380855
59	0x3d5febc8	0.054668218
60	0xbdcaba60	-0.098988295
61	0xbcd16cc3	-0.025564557
62	0xbe148ddb	-0.14507239
63	0xbd820882	-0.06349279

pre_processing_batch_norm.0.weight f4 [64]
0	0x3f68352c	0.90706134
1	0x3f85dae6	1.0457428
2	0x3f637554	0.88850904
3	0x3f8c2df2	1.0951521
4	0x3f6cb9de	0.9247111
5	0x3f6fb9da	0.9364296
6	0x3f747c63	0.955023
7	0x3f683382	0.90703595
8	0x3f5fcf62	0.87425816
9	0x3f893461	1.071911
10	0x3f854982	1.0413058
11	0x3f80482a	1.0022023
12	0x3f5f1453	0.8714039
13	0x3f868588	1.05095
14	0x3f731e19	0.949678
15	0x3f7080db	0.9394662
16	0x3f873ce7	1.0565461
17	0x3f8b8f57	1.0903119
18	0x3f83fa0d	1.0310684
19	0x3f8af401	1.0855714
20	0x3f8113ca	1.0084164
21	0x3f89397f	1.0720671
22	0x3f6b2bbd	0.91863614
23	0x3f830571	1.0236036
24	0x3f553485	0.83283263
25	0x3f7a99ab	0.9789073
26	0x3f7b3891	0.9813319
27	0x3f613a20	0.87979317
28	0x3f79c1c4	0.9756129
29	0x3f647de0	0.8925457
30	0x3f814ffd	1.0102535
31	0x3f68ef4a	0.90990126
32	0x3f8a8491	1.0821706
33	0x3f8247a6	1.0178115
34	0x3f811b90	1.0086536
35	0x3f6f5a70	0.9349737
36	0x3f740719	0.9532333
37	0x3f85768c	1.0426803
38	0x3f60edae	0.8786267
39	0x3f766a1c	0.9625566
40	0x3f6db42f	0.92853063
41	0x3f75c838	0.96008635
42	0x3f6c9d0f	0.9242715
43	0x3f74d5f9	0.95638996
44	0x3f7a76a9	0.9783731
45	0x3f84bb9e	1.0369756
46	0x3f87209a	1.0556824
47	0x3f884bcb	1.064813
48	0x3f85cbb3	1.0452789
49	0x3f59a3aa	0.85015357
50	0x3f80fce3	1.0077175
51	0x3f6d578a	0.927117
52	0x3f5c5db9	0.8608051
53	0x3f769991	0.96328074
54	0x3f6fa88e	0.9361657
55	0x3f869325	1.0513655
56	0x3f891611	1.0709859
57	0x3f78e704	0.972275
58	0x3f82a2cc	1.0205932
59	0x3f701b6f	0.9379186
60	0x3f7c41cc	0.985379
61	0x3f7d4a01	0.98941046
62	0x3f7a64a6	0.9780983
63	0x3f71956b	0.9436862

pre_processing_batch_norm.0.bias f4 [64]
0	0xbdd94710	-0.10609257
1	0xbba0fbcf	-0.0049128304
2	0xbd15329e	-0.036425225
3	0x3dfb743e	0.12278031
4	0xbdfb4ed7	-0.12270897
5	0xbc9f92e2	-0.019479219
6	0xbd3678d3	-0.04454882
7	0xbd8d4e88	-0.06899744
8	0xbda1b3b8	-0.07895607
9	0x3d84ab5b	0.06477996
10	0xbcc9d6b8	-0.024638519
11	0xbdaa0df0	-0.083034396
12	0xbdd35d7c	-0.10320565
13	0x3c3d00ea	0.011535862
14	0xbdb9ccf4	-0.09072295
15	0xbd807b6b	-0.0627354
16	0x3cd15a49	0.025555747
17	0x3dc4bced	0.09606347
18	0x3d811ec5	0.06304697
19	0x3d9f4cf5	0.0777835
20	0x3d2bc339	0.041934226
21	0x3d6b6803	0.05747224
22	0x3cf65e5f	0.030074297
23	0x3db73991	0.08946527
24	0xbd9800c7	-0.07422023
25	0xbc8888b2	-0.016666744
26	0x3b2fbb82	0.0026814644
27	0xbde693fe	-0.11258696
28	0x3e0abc55	0.13548405
29	0x3d8ca9c2	0.06868316
30	0x3d9639d2	0.07335247
31	0xbca5b8fb	-0.020229807
32	0x3dfed7cf	0.12443506
33	0x3ded7089	0.1159373
34	0xbc508659	-0.0127273435
35	0xbd90fe2b	-0.07079729
36	0x3d91caf5	0.07118789
37	0xbbf3cb8e	-0.007440037
38	0xbdff786a	-0.12474139
39	0xbd13ae80	-0.036055088
40	0xbd22004e	-0.03955107
41	0x3a1ba065	0.00059366814
42	0xbd5711aa	-0.05250708
43	0xbdad50e1	-0.08462692
44	0x3d104bf6	0.035228692
45	0xbc98f09e	-0.018669423
46	0xbdaa605b	-0.083191596
47	0xbca546e5	-0.020175407
48	0x3cc9158e	0.02454641
49	0xbda6f967	-0.081530385
50	0x3dbce39b	0.092231
51	0x3d2e4ea4	0.042555466
52	0xbd96157f	-0.07328319
53	0xbded7a94	-0.115956455
54	0x3d222f31	0.039595786
55	0x3cb0e4a6	0.021593403
56	0xbc2273be	-0.00991529
57	0x3cc71732	0.024303053
58	0xbd6b8a04	-0.05750467
59	0x3d51509a	0.05110226
60	0xbca47d4b	-0.020079276
61	0xbca47679	-0.020076023
62	0xbda1fce6	-0.07909565
63	0x3d5f60ba	0.054535605

pre_processing_batch_norm.0.running_mean f4 [64]
0	0xbddfae53	-0.109219216
1	0xbcd2475f	-0.025668798
2	0x3dcd67e5	0.10029582
3	0x3e640953	0.22269182
4	0xbe7d3fef	-0.2473142
5	0x3d6b3444	0.05742289
6	0xbe38e673	-0.1805666
7	0xbe16062f	-0.14650796
8	0x3e1faf6d	0.15594263
9	0xbd539f7f	-0.05166578
10	0xbd7e6e98	-0.06211719
11	0x3c14b753	0.009076911
12	0xbe873ad7	-0.2641208
13	0x3e4c681f	0.19961594
14	0x3bd7b7bc	0.006583182
15	0xbe7253f0	-0.23664832
16	0x3e3edc52	0.18638733
17	0x3d9e6825	0.07734708
18	0x3d2d6e23	0.042341363
19	0xbdab710a	-0.0837117
20	0xbbd676e5	-0.006544935
21	0xbe870c55	-0.26376596
22	0xbbff2e11	-0.007787474
23	0xbde887e6	-0.113540456
24	0x3db082da	0.08618708
25	0x3d785f93	0.06063802
26	0x3de115b3	0.10990467
27	0xbe9f87e7	-0.31158373
28	0xbdd30c29	-0.10305054
29	0x3d1f10da	0.03883443
30	0xbebc66b8	-0.36797118
31	0xbe2b58d7	-0.16733108
32	0x3e6c095d	0.23050447
33	0xbdba955d	-0.0911052
34	0xbd24e541	-0.040257696
35	0x3e803a1f	0.25044343
36	0xbc3635b4	-0.011121202
37	0xbe6c59fc	-0.23081201
38	0x3e8b6143	0.27222642
39	0xbc94420e	-0.018097904
40	0x3cd54ac2	0.026036624
41	0x3e5f4475	0.21803458
42	0xbc149347	-0.009068317
43	0x3e004f8a	0.12530342
44	0xbd6b6bb2	-0.057475753
45	0xbd0129f3	-0.031534147
46	0x3de4eb48	0.11177689
47	0xbe3488c9	-0.17630304
48	0xbd6438b5	-0.055718143
49	0xbe008221	-0.1254964
50	0x3e870de0	0.26377773
51	0xbe2b0d44	-0.16704279
52	0x3d91e59b	0.07123872
53	0x3b6c6c54	0.003607531
54	0x3d0022d1	0.031283204
55	0x3dc49204	0.09598163
56	0xbcb9d108	-0.022682682
57	0xbeb23ab4	-0.34810412
58	0xbd95d51e	-0.073160395
59	0x3e9ed6e9	0.31023338
60	0x3de2000a	0.11035164
61	0x3d9f2c90	0.077721715
62	0x3e80bb65	0.2514297
63	0xbddd86b3	-0.108167075

pre_processing_batch_norm.0.running_var f4 [64]
0	0x3f776d51	0.9665118
1	0x3eb321ca	0.34986717
2	0x3e93ddfd	0.288803
3	0x3f06e044	0.5268595
4	0x3e8d7de9	0.27635124
5	0x3f633e66	0.8876709
6	0x3e6a46c6	0.2287856
7	0x3f1444ab	0.5791728
8	0x3fa99104	1.324738
9	0x3ef2dc13	0.47433528
10	0x3e9e3342	0.30898482
11	0x3f3f151f	0.74641603
12	0x3e85119a	0.2598999
13	0x3eed7bc3	0.46383485
14	0x3eb4b0e6	0.35291213
15	0x3e9a9b4d	0.3019661
16	0x3f3a4303	0.727585
17	0x3e1537f5	0.14572127
18	0x3ea12117	0.31470558
19	0x3fa63659	1.2985336
20	0x3f1347ad	0.57531244
21	0x3e9eb1fd	0.3099517
22	0x3e3f7473	0.18696766
23	0x3e3aa86a	0.18228307
24	0x3f56646d	0.8374699
25	0x3ee1ef1e	0.44127744
26	0x3f296316	0.6616682
27	0x3f2dd8a3	0.67908686
28	0x3e1ad105	0.15118797
29	0x3f116de2	0.5680829
30	0x3ecce91e	0.40021604
31	0x3f811d4c	1.0087066
32	0x3f00de5f	0.5033931
33	0x3ee10a71	0.4395328
34	0x3f0418c8	0.51600313
35	0x3e50e977	0.2040156
36	0x3e931cd5	0.28732935
37	0x3e8ef5ec	0.27921999
38	0x3f740ec1	0.9533501
39	0x3e44c4d4	0.19215709
40	0x3ee2d889	0.44305828
41	0x3f0aec89	0.54267174
42	0x3ea14872	0.31500584
43	0x3f2eeb0e	0.68327415
44	0x3e8195dc	0.25309646
45	0x3f07df09	0.530747
46	0x3eb02f5c	0.34411132
47	0x3e9564f5	0.29178587
48	0x3ed1edd1	0.41001752
49	0x3ed73de4	0.42039406
50	0x3f58072e	0.84385955
51	0x3f158cb3	0.58417815
52	0x3f56a5f6	0.83846986
53	0x3ed6ce67	0.41954347
54	0x3f00d8cc	0.50330806
55	0x3de46268	0.11151582
56	0x3e873c68	0.26413274
57	0x3e53a031	0.20666577
58	0x3f0dfe71	0.5546637
59	0x3f2dc24c	0.678746
60	0x3f760b00	0.96110535
61	0x3e7d934c	0.2476322
62	0x3eaa0b4d	0.33211747
63	0x3ea2b226	0.3177654

pre_processing_batch_norm.1.weight f4 [64]
0	0x3f5c56b5	0.86069804
1	0x3f7bfb02	0.9842988
2	0x3f766932	0.96254265
3	0x3f7c4a9f	0.9855136
4	0x3f76d711	0.96421915
5	0x3f6a607c	0.91553473
6	0x3f8dbeb7	1.1073827
7	0x3f67695f	0.9039516
8	0x3f8693e5	1.0513884
9	0x3f8605db	1.0470537
10	0x3f63c3a1	0.8897038
11	0x3f832059	1.0244247
12	0x3f6ea92f	0.93226904
13	0x3f815018	1.0102568
14	0x3f780777	0.9688639
15	0x3f89a7e6	1.0754364
16	0x3f58c01d	0.8466814
17	0x3f6f1069	0.93384415
18	0x3f84ba8a	1.0369427
19	0x3f841304	1.0318303
20	0x3f76df48	0.9643445
21	0x3f766d4b	0.9626052
22	0x3f818516	1.011874
23	0x3f7ad37f	0.9797897
24	0x3f60179d	0.8753603
25	0x3f7fdffb	0.9995114
26	0x3f661411	0.8987437
27	0x3f703d83	0.9384386
28	0x3f7c469a	0.9854523
29	0x3f747c38	0.9550204
30	0x3f716c81	0.9430619
31	0x3f5ded10	0.86689854
32	0x3f86eac7	1.0540398
33	0x3f86e42b	1.0538381
34	0x3f68d37a	0.9094769
35	0x3f8c0ca0	1.0941353
36	0x3f720269	0.9453493
37	0x3f863867	1.0485963
38	0x3f658447	0.89654964
39	0x3f78387c	0.9696119
40	0x3f69995d	0.9124964
41	0x3f720c6d	0.9455021
42	0x3f87a46b	1.0597051
43	0x3f6da121	0.9282399
44	0x3f75853f	0.9590644
45	0x3f69cf22	0.91331685
46	0x3f80886f	1.0041636
47	0x3f62c3e7	0.88580173
48	0x3f653331	0.89531237
49	0x3f5b3ae9	0.85636765
50	0x3f6ed2b8	0.9329028
51	0x3f8180b5	1.0117403
52	0x3f7b8281	0.9824601
53	0x3f7446f8	0.9542079
54	0x3f741e13	0.9535839
55	0x3f839f0e	1.0282915
56	0x3f5df62b	0.8670375
57	0x3f819a52	1.012522
58	0x3f67c526	0.905352
59	0x3f83ace9	1.0287143
60	0x3f7d0294	0.9883206
61	0x3f5fee85	0.87473327
62	0x3f7aa7c9	0.9791227
63	0x3f650dd7	0.8947424

pre_processing_batch_norm.1.bias f4 [64]
0	0xbdb819be	-0.08989285
1	0xbd761f36	-0.06008836
2	0xbce287c7	-0.027652634
3	0x3d24fdef	0.040281232
4	0xbd01ea3a	-0.031717516
5	0xbd184f29	-0.037184868
6	0x3cf49a28	0.029858664
7	0xbd6541db	-0.055971008
8	0xbbe70a3a	-0.0070507796
9	0xbd46072b	-0.04834668
10	0xbe0bb7ec	-0.1364438
11	0xbc4ba966	-0.012430524
12	0xbd14de73	-0.036344957
13	0xbcc00193	-0.02343825
14	0xb9d20a12	-0.00040061824
15	0x3c15069c	0.009095814
16	0xbd87e738	-0.06635898
17	0xbc0c10c1	-0.008548916
18	0xbd44b0b0	-0.048020065
19	0xbd05b2f9	-0.032641385
20	0xb9d890be	-0.00041306572
21	0x3d422a84	0.047403827
22	0xbb5a34dc	-0.0033295667
23	0xbc452e6d	-0.012034995
24	0xbdbbd492	-0.09171404
25	0xbb92efee	-0.0044841683
26	0xbd9098ee	-0.07060419
27	0xbdd0e559	-0.101999946
28	0xbc86fe7a	-0.016478766
29	0xbcd57a94	-0.026059426
30	0xbd0998a8	-0.03359285
31	0xbdec0675	-0.11524669
32	0x3cbb3ecf	0.022857098
33	0x3dcbea71	0.099568255
34	0x3cf39b9f	0.029737292
35	0xbd0f2fee	-0.03495782
36	0xbd8cdf97	-0.06878584
37	0xbe046e4d	-0.12932701
38	0x3b505ecc	0.0031794785
39	0x3d0d0e10	0.03443724
40	0xbc9a7490	-0.01885441
41	0xbd37b64b	-0.044851582
42	0x3d4f5a4f	0.050623234
43	0x3b100902	0.0021978025
44	0xbc3b8561	-0.011445374
45	0xbcc8e168	-0.024521545
46	0xbd9bca1c	-0.07606909
47	0xbdac8ba3	-0.08425071
48	0xbd67f881	-0.056633476
49	0xbd29405a	-0.041321136
50	0xbd587cb8	-0.052853316
51	0xbcbac3c0	-0.022798419
52	0xbdc48370	-0.09595382
53	0xbd85740c	-0.06516275
54	0xbcd53b68	-0.026029304
55	0x3bb36b21	0.0054754172
56	0xbd6ed1ce	-0.058305554
57	0xbddc000f	-0.10742199
58	0xbda16646	-0.07880835
59	0xbc9e4827	-0.019321514
60	0x3d1a1118	0.037613958
61	0xbdce77d4	-0.10081449
62	0xbdb97a27	-0.09056502
63	0xbc862372	-0.016374324

pre_processing_batch_norm.1.running_mean f4 [64]
0	0x3dcaa547	0.098948054
1	0xbe616457	-0.22010933
2	0xbd4afdfb	-0.04955862
3	0x3eede9fd	0.4646758
4	0xbe782530	-0.24232936
5	0xbee8228c	-0.45338857
6	0x3f8f54be	1.1197736
7	0xbf373997	-0.7157225
8	0x3eb07f0f	0.34471938
9	0x3f077f8d	0.52929
10	0x3f7cc839	0.98743016
11	0x3f3c9957	0.7367148
12	0xbf74dddf	-0.9565105
13	0x3eab771a	0.33489305
14	0xbee99809	-0.45623806
15	0x3f8538ee	1.0407999
16	0xbead9898	-0.33905482
17	0x3e1b5178	0.15167797
18	0x3ee84362	0.4536391
19	0x3e7022c6	0.23450765
20	0xbf3dcb40	-0.7413826
21	0xbdc7d7d1	-0.097579606
22	0x3d8325df	0.06403708
23	0x3f98f996	1.1951168
24	0xbec7bd55	-0.39011636
25	0x3ec96814	0.39337218
26	0x3f522e4c	0.82101893
27	0x3f1f8840	0.62317276
28	0xbdea0055	-0.114258446
29	0x3e92cecf	0.28673407
30	0x3e971adb	0.29512677
31	0xbe54e236	-0.20789418
32	0x3f36fb89	0.7147756
33	0x3f13121c	0.5744951
34	0x3f125d8c	0.5717399
35	0x3f83e774	1.0305009
36	0x3e86041c	0.2617501
37	0x3e9cb320	0.30605412
38	0x3e642409	0.22279371
39	0x3e2287f1	0.1587217
40	0xbf4c91a3	-0.79909724
41	0x3f5a4ddd	0.8527506
42	0xbbda0f7b	-0.0066546774
43	0xbf76c1ab	-0.96389264
44	0xbf865f51	-1.0497838
45	0xbf458985	-0.77162963
46	0x3f5dc72e	0.8663205
47	0xbee6e872	-0.45099217
48	0xbf89ff38	-1.0781012
49	0xbf4b46ba	-0.79404795
50	0x3f656e3f	0.8962135
51	0x3ef562c1	0.47926906
52	0x3f1e66c8	0.6187558
53	0x3e94c34b	0.29055247
54	0xbc96242e	-0.018327799
55	0x3f282fc1	0.65697867
56	0xbe39908e	-0.1812155
57	0x3e861640	0.2618885
58	0x3ef5c1b2	0.4799934
59	0x3f8b17d8	1.0866652
60	0x3f15b083	0.5847246
61	0xbf2a7c6b	-0.66596097
62	0x3f1e265d	0.6177729
63	0xbf5b5311	-0.85673624

pre_processing_batch_norm.1.running_var f4 [64]
0	0x3f594688	0.8487325
1	0x3eea6d30	0.45786428
2	0x3f3046aa	0.68857825
3	0x3f3f3dba	0.7470356
4	0x3e5feeca	0.21868435
5	0x3f2f7c93	0.6854946
6	0x3fad8851	1.3557225
7	0x3f15b97e	0.58486164
8	0x3f141159	0.5783897
9	0x3f1d3060	0.6140194
10	0x3fdcdd00	1.7254944
11	0x3f802058	1.000987
12	0x3f78a295	0.9712308
13	0x3f2a016f	0.6640844
14	0x3ef07db1	0.46970895
15	0x3fcbbefc	1.5917659
16	0x3f872e24	1.0560956
17	0x3efb947c	0.49136722
18	0x3efbcbca	0.49178916
19	0x3f6bab10	0.92057896
20	0x3f23d760	0.6400051
21	0x3f1196e4	0.56870866
22	0x3f006b2b	0.50163525
23	0x4000d2ee	2.0128741
24	0x3f8361eb	1.0264257
25	0x3f7e58c5	0.993542
26	0x3f8d5205	1.1040655
27	0x3f6fb925	0.93641883
28	0x3f36fa68	0.7147584
29	0x3f26a579	0.6509624
30	0x3fbe71de	1.48785
31	0x3f21ea71	0.63248354
32	0x3fc72b97	1.5560178
33	0x3f02366e	0.50864303
34	0x3f335c44	0.7006266
35	0x3fefc43b	1.873176
36	0x3eabf3c7	0.33584425
37	0x3fdbd7d7	1.7175244
38	0x3fa48647	1.2853478
39	0x3f110a5a	0.5665642
40	0x3f2b257d	0.6685408
41	0x401640e7	2.3477113
42	0x3f7f3dfb	0.9970395
43	0x3f49134a	0.7854506
44	0x3f4dc562	0.8037931
45	0x3f924b2c	1.1429191
46	0x3fac15e9	1.3444186
47	0x3f977749	1.1833278
48	0x3f9a39c0	1.2048874
49	0x3f883421	1.0640908
50	0x3fc86668	1.5656252
51	0x3ec66b7f	0.38753888
52	0x3f2bb88b	0.67078465
53	0x3f4215bf	0.7581443
54	0x3f3ec79f	0.7452335
55	0x3f823fae	1.0175683
56	0x3f03ad54	0.5143635
57	0x3f060d7c	0.52364326
58	0x3f8a77c7	1.0817803
59	0x3f229703	0.63511676
60	0x3f8dbf23	1.1073955
61	0x3f169efc	0.5883634
62	0x3f960629	1.172063
63	0x3fa2cc49	1.2718593

pre_processing_batch_norm.2.weight f4 [64]
0	0x3f7cd0a0	0.98755836
1	0x3f5a99f3	0.8539116
2	0x3f793da9	0.9735971
3	0x3f83035d	1.0235401
4	0x3f816345	1.010842
5	0x3f76d144	0.96413064
6	0x3f836d45	1.0267721
7	0x3f82b4b5	1.0211397
8	0x3f6834fd	0.90705854
9	0x3f6e0271	0.92972475
10	0x3f662826	0.8990501
11	0x3f835176	1.0259235
12	0x3f89ac95	1.0755793
13	0x3f896ca8	1.0736284
14	0x3f87e92e	1.0618036
15	0x3f73217c	0.9497297
16	0x3f8047dc	1.002193
17	0x3f685cdc	0.9076669
18	0x3f7c3036	0.98511064
19	0x3f6f1501	0.93391424
20	0x3f764b5e	0.9620875
21	0x3f8233b7	1.0172032
22	0x3f817e7f	1.0116729
23	0x3f6789c0	0.90444565
24	0x3f78130c	0.96904063
25	0x3f684cfe	0.9074248
26	0x3f80d85d	1.0066029
27	0x3f73369a	0.9500519
28	0x3f7c199f	0.98476595
29	0x3f62ecbd	0.88642484
30	0x3f6c23e8	0.9224229
31	0x3f870151	1.0547277
32	0x3f807b97	1.0037717
33	0x3f67dd79	0.90572315
34	0x3f67963a	0.904636
35	0x3f667981	0.9002915
36	0x3f64b736	0.8934206
37	0x3f6e2725	0.9302848
38	0x3f69b9c0	0.91299057
39	0x3f5e8933	0.869281
40	0x3f69095d	0.9102991
41	0x3f5a592e	0.8529233
42	0x3f844941	1.0334855
43	0x3f6fa52d	0.93611413
44	0x3f5ebcc8	0.8700681
45	0x3f7ef8da	0.9959847
46	0x3f646a7c	0.8922498
47	0x3f6323f1	0.8872672
48	0x3f665a46	0.89981496
49	0x3f884989	1.0647441
50	0x3f80da59	1.0066634
51	0x3f5eda46	0.8705181
52	0x3f71cfbc	0.944576
53	0x3f8590b0	1.043478
54	0x3f72628e	0.9468163
55	0x3f87babb	1.0603861
56	0x3f72711a	0.9470383
57	0x3f7427e3	0.9537336
58	0x3f88827c	1.0664821
59	0x3f81a487	1.0128335
60	0x3f66342c	0.8992336
61	0x3f61d975	0.8822244
62	0x3f6b2d45	0.9186595
63	0x3f8313e5	1.0240446

pre_processing_batch_norm.2.bias f4 [64]
0	0xbd6e85ab	-0.058232944
1	0xbd729b41	-0.059230093
2	0xbccb35b6	-0.024805885
3	0x3c81ec83	0.015859848
4	0x3d1bc0da	0.038025714
5	0x3c499c9f	0.012305408
6	0xbd494a98	-0.049143404
7	0x3d389e06	0.045072578
8	0xbce623d4	-0.028093256
9	0xbd8f0a61	-0.069844015
10	0x3b2a7cb4	0.002601427
11	0xbc616842	-0.013757767
12	0xbda502b9	-0.0805716
13	0x3d9d01a5	0.07666329
14	0xbd82f01d	-0.06393454
15	0xbd8129a2	-0.06306769
16	0x3d95a80c	0.07307443
17	0xbde15653	-0.11002793
18	0xbd80f6f4	-0.062971026
19	0xbd353ba5	-0.044246335
20	0x3d0f3bbf	0.034969088
21	0xbd5ab6b6	-0.053396903
22	0x3c97f927	0.018551422
23	0xbc06d842	-0.008230271
24	0xbc4a361d	-0.012342003
25	0xbe002d5c	-0.12517303
26	0xbd3d05b6	-0.046148024
27	0x3ccea5ec	0.025225602
28	0xbb1bf862	-0.002379917
29	0xbdb01b89	-0.08599002
30	0xbd21d556	-0.039510094
31	0xbd9e176e	-0.077193126
32	0xbb862b7b	-0.0040945387
33	0xbc319569	-0.010838845
34	0xbdad742c	-0.08469424
35	0xbd326ee6	-0.043562792
36	0xbd2c7aef	-0.042109426
37	0xbd886d97	-0.066615276
38	0xbc8ad2a6	-0.016946148
39	0xbd96d989	-0.0736571
40	0xbd4414a2	-0.04787124
41	0xbdf6ae1d	-0.12044928
42	0x3cb3bd5d	0.021940881
43	0xbd6b86b2	-0.057501502
44	0xbe072655	-0.13198216
45	0xbdf23b5a	-0.11827727
46	0x3b8caf49	0.0042933566
47	0xbd37de74	-0.044889882
48	0xbacd86a7	-0.0015680388
49	0x3d28384a	0.041069306
50	0xbdafc55c	-0.08582565
51	0xbd87a520	-0.06623292
52	0xbdccbe59	-0.099972434
53	0xbd31f800	-0.0434494
54	0xbdb0a76e	-0.08625685
55	0x3cb3dc73	0.021955704
56	0xbcc117fe	-0.02357101
57	0xbd9a02f2	-0.07520093
58	0x3ca3e213	0.020005262
59	0xbe091506	-0.13386926
60	0xbd9850f3	-0.07437315
61	0x3ce125e4	0.027483888
62	0xbdf0b57b	-0.11753365
63	0xbc971436	-0.018442255
