checkpoints/checkpoints_homogeneous_biomarker_vessel_graph/DCP_model_1_BVD_okix2w9w.pt (torch, 315212 bytes, 56 tensors)

pre_processing_lin_layers.0.weight f4 [64, 15]
0.31850284 0.08056765 -0.004499963 0.3728353 0.2681212 0.018047635 -0.002778449 0.05321522
0.10851981 -0.0482156 0.0013296022 -0.36222106 -0.29607573 -0.15910752 -0.14294592 -0.22308698
-0.25901198 0.012980451 -0.19369514 -0.11436048 0.07854625 0.13940349 0.027207483 0.13043594
0.04530284 0.24100447 0.19373582 -0.074822135 0.22465609 0.028832661 0.07259612 0.28616342
-0.064782985 0.18336155 0.2863574 0.058693066 -0.17033197 0.14917858 -0.16886482 -0.15392233
-0.004142219 -0.32247663 0.0044244295 -0.17400758 -0.24287023 0.23376489 0.1798554 -0.127688
-0.05132114 0.34820476 0.1804473 0.2507438 0.30528763 0.3483933 -0.012236444 -0.008829724
-0.10333425 -0.0825863 -0.08081608 0.13116433 0.03587141 0.10431948 0.08114324 0.21196799
0.29037523 0.05719309 0.11874018 0.19194183 -0.04274338 -0.23684672 -0.098264486 0.07268583
0.020447293 0.12331125 0.026189547 0.3385736 0.22829944 0.15353441 0.20083612 0.088562116
-0.15372363 0.10879756 0.09354639 -0.18818705 -0.27780744 -0.19523627 -0.009998484 -0.051428135
-0.010421605 -0.088004425 0.17038842 0.6439966 -0.17252228 0.09577183 0.06420627 -0.20607351
-0.14942117 0.17552176 0.306306 -0.108044066 0.15657142 -0.1877745 -0.14540254 0.051337462
0.05352413 0.22535104 0.30132434 -0.038490508 0.31175053 0.26560813 -0.11424932 0.0086378865
-0.0035762913 -0.038794097 -0.049901195 0.08087836 0.14774305 0.019344361 -0.12065877 0.161739
0.21198443 0.46290874 -0.071129814 0.052086692 -0.09170658 0.33856043 0.22701263 -0.144118
-0.5976602 -0.084579945 -0.22559476 0.065281466 0.071253985 -0.43992484 0.16302897 0.10288782
0.2858904 -0.11668606 0.11127935 0.22091205 0.10579599 0.066218816 0.3603276 0.119812384
-0.23317246 -0.1333802 -0.036598578 -0.08748699 -0.006915426 -0.022340428 -0.22991724 -0.13338272
-0.038448296 0.0713348 0.24742776 0.025277281 -0.14160398 0.16353145 0.04611321 -0.2208306
0.20713438 0.14118142 0.14034784 0.13353139 0.37506455 0.17507932 -0.2479444 0.2347555
0.12731631 -0.10409451 -0.06370407 0.50817937 -0.15080793 -0.45864275 0.02383686 0.10260176
-0.14654185 0.11827117 0.04786561 -0.21061553 0.10895198 0.2872252 -0.09830406 0.32611704
0.27934414 -0.09895883 0.035691444 0.00016135791 -0.20608434 -0.06272144 -0.1859241 0.053806566
0.1963626 0.2680537 -0.083828926 0.2867534 -0.063796125 0.4197019 0.081749044 0.27886757
0.17888623 0.22244641 0.025823748 -0.0004022214 -0.17016108 -0.09542155 -0.2237625 -0.12373266
-0.15889847 -0.5200563 0.1045564 -0.16393842 0.11223461 0.21055126 0.22136407 0.119760625
0.10499321 0.08345916 0.22653565 -0.00821213 -0.11340674 0.021912228 0.19115965 -0.18858679
-0.56093323 -0.15779379 0.04933768 0.08821684 -0.23455028 -0.21497275 -0.08700247 0.09590104
-0.09072086 0.12029458 -0.1314287 -0.025070839 -0.24099207 -0.17852141 0.028931309 -0.14639725
-0.34534642 -0.081487186 -0.22780639 -0.4289323 -0.12461324 -0.041441184 0.35046038 -0.30126607
-0.3246905 -0.3166063 0.08056933 0.30723533 0.08254988 0.06985112 0.021389466 0.123103894
00000000: ce12 a33e a700 a53d 6d74 93bb 45e4 be3e
00000010: 2f47 893e a2d8 933c a416 36bb 34f8 593d
00000020: a23f de3d b97d 45bd 0c46 ae3a 0a75 b9be
00000030: 3d97 97be 15ed 22be 6a60 12be ea70 64be
00000040: 389d 84be f5ab 543c 0558 46be d435 eabd
00000050: dbdc a03d cabf 0e3e 3ae2 de3c 0091 053e
00000060: 798f 393d e0c9 763e af62 463e 593c 99bd
00000070: 3f0c 663e 7932 ec3c 46ad 943d 0384 923e
00000080: f1ac 84bd 21c3 3b3e 709d 923e 2468 703d
00000090: 816b 2ebe 45c2 183e e6ea 2cbe d19d 1dbe
000000a0: 74bb 87bb a81b a5be cefa 903b 0b2f 32be
000000b0: f9b2 78be 1060 6f3e 042c 383e a5c0 02be
000000c0: 1e36 52bd e547 b23e 2dc7 383e 7e61 803e
000000d0: a94e 9c3e 9b60 b23e 5e7b 48bc 8caa 10bc
000000e0: e8a0 d3bd 0223 a9bd e782 a5bd f14f 063e
000000f0: e6ed 123d 74a5 d53d 6d2e a63d 230e 593e
00000100: 10ac 943e 4d43 6a3d 0d2e f33d 668c 443e
00000110: af13 2fbd f287 72be e43e c9bd 4fdc 943d
00000120: 1581 a73c 9c8a fc3d 768b d63c 8559 ad3e
00000130: 54c7 693e 2038 1d3e fca7 4d3e 0e60 b53d
00000140: ba69 1dbe 41d1 de3d 4095 bf3d 1bb4 40be
00000150: c73c 8ebe 04ec 47be aed0 23bc 4fa6 52bd
00000160: 61bf 2abc aa3b b4bd 4d7a 2e3e f6dc 243f
00000170: aea9 30be 0524 c43d 947e 833d ef04 53be
00000180: dd01 19be fabb 333e 24d4 9c3e 3546 ddbd
00000190: 4254 203e f547 40be 67e4 14be 3b47 523d
000001a0: 1e3c 5b3d 6cc2 663e 2f47 9a3e 39a8 1dbd
000001b0: c49d 9f3e cafd 873e 8cfb e9bd ec85 0d3c
000001c0: 3660 6abb 8fe6 1ebd 3265 4cbd 8ea3 a53d
000001d0: f449 173e 1178 9e3c f21b f7bd e99e 253e
000001e0: 7212 593e 6002 ed3e 82ac 91bd db58 553d
000001f0: a9d0 bbbd cb57 ad3e 0076 683e ab93 13be
00000200: 4200 19bf 4038 adbd 5002 67be 4ab2 853d
00000210: 9ced 913d d43d e1be 11f1 263e d9b6 d23d
00000220: 3a60 923e 1af9 eebd 6ee6 e33d c536 623e
00000230: 91ab d83d bb9d 873d dc7c b83e 3260 f53d
00000240: c3c4 6ebe d294 08be 64e8 15bd 612c b3bd
00000250: cc9a e2bb 4603 b7bc 6d6f 6bbe 7b95 08be
00000260: f67b 1dbd fb17 923d b45d 7d3e 4d12 cf3c
00000270: a200 11be ca74 273e 35e1 3c3d 6b21 62be
00000280: 091b 543e dd91 103e 58b7 0f3e 74bc 083e
00000290: 7608 c03e fe47 333e 23e5 7dbe bf63 703e
000002a0: 355f 023e 812f d5bd 4877 82bd 0b18 023f
000002b0: 656d 1abe 39d3 eabe 8545 c33c df20 d23d
000002c0: 110f 16be 2838 f23d bb0e 443d 99ab 57be
000002d0: 3722 df3d 2e0f 933e a453 c9bd d0f8 a63e
000002e0: 3206 8f3e edaa cabd 3131 123d 2f32 2939
000002f0: c607 53be 1974 80bd e362 3ebe 4664 5c3d
00000300: 4713 493e 563e 893e 80ae abbd 57d1 923e
00000310: 8ba7 82bd 2be3 d63e 0b6c a73d bbc7 8e3e
00000320: f42d 373e fec8 633e 538c d33c 3ee1 d2b9
00000330: b53e 2ebe 606c c3bd ff21 65be 8d67 fdbd
00000340: 48b6 22be 6922 05bf aa21 d63d 79df 27be
00000350: 42db e53d c09a 573e 43ad 623e 0f45 f53d
00000360: ae06 d73d a3ec aa3d f6f8 673e 2b8c 06bc
00000370: cb41 e8bd 4681 b33c 5bbf 433e e51c 41be
00000380: 5299 0fbf b294 21be 4f16 4a3d 08ab b43d
00000390: f32d 70be d121 5cbe 5a2e b2bd c467 c43d
000003a0: dccb b9bd 015d f63d 3f95 06be 5c61 cdbc
000003b0: a0c6 76be 51ce 36be 5a01 ed3c 29e9 15be
000003c0: 3fd1 b0be c1e2 a6bd 1446 69be 049d dbbe
000003d0: 3a35 ffbd 3bbe 29bd 8b6f b33e 8c3f 9abe
000003e0: d53d a6be 391a a2be 8801 a53d f34d 9d3e
000003f0: e90f a93d 1b0e 8f3d f638 af3c e51d fc3d

pre_processing_lin_layers.0.bias f4 [64]
-0.09867094 0.05864699 0.1386307 0.067981884 -0.15201703 0.1115473 -0.19341327 -0.115491055
0.1250085 -0.061258458 -0.012551851 -0.0720338 -0.18987425 0.19433278 0.104583345 -0.10427165
0.1744491 0.079886556 0.010234712 -0.033275176 0.037275225 -0.21653193 -0.00436224 0.008853305
0.14212707 0.09355473 0.1624783 -0.17319377 -0.10496378 0.09773766 -0.18093647 -0.144972
0.15062141 -0.13761805 -0.09704391 0.14570895 -0.06573883 -0.09708812 0.20421189 0.009632785
-0.025644222 0.1278708 -0.07789958 0.19630915 -0.11247233 -0.018917598 0.13066046 -0.19022016
-0.0075346883 -0.04589651 0.12472776 -0.11736307 0.045772064 -0.041333776 0.053230286 0.041381557
-0.08200851 -0.17743367 -0.07991742 0.23590335 0.09111123 0.18062966 0.10921672 -0.051731657
00000000: fd13 cabd d437 703d 35f5 0d3e 163a 8b3d
00000010: 5aaa 1bbe e972 e43d 210e 46be 9386 ecbd
00000020: 3a02 003e 26ea 7abd 47a6 4dbc 7586 93bd
00000030: 656e 42be 2cff 463e cb2f d63d 608c d5bd
00000040: c9a2 323e 909b a33d 7eaf 273c 8d4b 08bd
00000050: e8ad 183d 8cba 5dbe 1ff1 8ebb 740d 113c
00000060: c289 113e 9f99 bf3d b660 263e b559 31be
00000070: 40f7 d6bd af2a c83d 6947 39be 8a73 14be
00000080: 803c 1a3e bfeb 0cbe f5be c6bd ba34 153e
00000090: 14a2 86bd 23d6 c6bd ec1c 513e d4d2 1d3c
000000a0: d513 d2bc 90f0 023e d189 9fbd 4405 493e
000000b0: e557 e6bd 14f9 9abc dbcb 053e 13c9 42be
000000c0: 8ce5 f6bb fbfd 3bbd 4571 ff3d 0d5c f0bd
000000d0: 7d7b 3b3d 9b4d 29bd 0008 5a3d b57f 293d
000000e0: 14f4 a7bd 2cb1 35be bfab a3bd a690 713e
000000f0: 8698 ba3d fbf6 383e 04ad df3d 93e4 53bd

pre_processing_lin_layers.1.weight f4 [64, 64]
0.18358308 -0.056719366 -0.022911197 0.19924471 0.25369063 -0.101847306 0.1930375 0.18500565
0.004650317 0.2248829 0.08356102 -0.06808551 0.2248323 0.20556103 0.21429582 -0.13956182
-0.070181064 0.26525125 0.14330159 0.077168226 -0.07928125 -0.132099 -0.11407735 0.08998068
-0.0001799743 -0.054439068 -0.1839612 0.045236774 0.06068205 -0.07735961 0.09956645 0.17984483
0.15515068 0.1099292 0.12545161 0.00379628 0.09813093 -0.019826788 0.041486483 -0.10898833
0.190762 -0.2419726 0.045401365 0.1099612 -0.23169434 -0.07761104 0.23899709 0.061365947
0.016276872 0.14664987 0.0498618 -0.1869297 -0.091326095 0.08606477 -0.120846644 -0.06480365
-0.15942633 0.2082843 0.059443332 -0.1349496 -0.1010112 0.015938815 -0.008969201 -0.18834165
0.020116549 0.1855754 0.18710427 -0.18118425 -0.098898746 0.15334703 0.19040148 -0.11421996
-0.18005085 -0.18809031 0.009571855 0.0492738 -0.11312021 0.028910097 0.109006666 0.012134502
0.01586951 -0.2387895 0.21062683 0.21007702 0.13119021 0.16310935 0.073625356 -0.04434461
-0.014720547 0.2048923 0.15701263 -0.034940768 -0.101096645 -0.029056584 -0.029858869 0.008053109
0.070968464 -0.087234326 0.048113354 0.09110754 0.03454757 0.031982575 -0.12536159 -0.114869304
-0.08278271 0.10203815 0.08233061 0.04828338 0.19499128 0.17818952 -0.10260898 -0.013872271
-0.023727804 -0.092894025 -0.16978799 0.07398567 -0.14771236 -0.16161369 0.20885389 0.08393874
0.13062984 -0.11580495 -0.17608164 0.1479279 0.072337516 0.1409424 -0.24601787 0.14164151
-0.0038006909 0.10220116 -0.06404503 -0.15314488 -0.22921467 0.1239907 -0.07412018 -0.14902912
0.16014771 -0.2707412 -0.2020472 0.07184691 -0.049781885 -0.07940074 -0.19117375 -0.16112378
0.042024024 -0.099435374 0.11668266 -0.30429104 -0.10980504 -0.020285426 -0.10311105 -0.15747803
-0.12736477 0.12049492 0.08250398 -0.092755355 -0.05287999 -0.09825741 -0.08496955 -0.060099702
-0.07279849 0.011745297 -0.021795228 -0.029260078 -0.13974306 0.20871669 0.07788477 0.15864693
0.16298185 0.21545492 -0.20044975 -0.08156632 0.10849716 -0.044192795 -0.1829822 -0.0344912
0.028198209 -0.11437244 -0.076258965 0.2703853 0.15456803 -0.2534356 0.20301028 0.149122
0.045554493 -0.07460404 -0.23835942 -0.22361279 0.089282654 -0.052563306 -0.10906102 0.20779023
-0.11967547 0.20694348 -0.02197954 -0.13086814 0.04017879 -0.07086136 0.031812698 -0.05452963
-0.1597287 -0.20063682 0.0053944634 0.11715536 0.002877102 -0.3232704 -0.14133936 0.07308454
-0.0068717147 0.18702017 -0.050126046 -0.15586007 0.1945233 0.1118361 0.17641278 0.14977707
-0.02752387 0.07705675 0.07821746 -0.13354158 -0.028479055 0.09722488 0.101369955 0.018188855
-0.25918624 0.0034620604 -0.32786548 0.11518828 -0.21772724 0.079161055 -0.15145043 0.17200255
-0.1554614 -0.29976678 0.070461534 -0.32299137 -0.20016988 0.051997997 -0.10508838 -0.09273327
0.011246109 -0.17111282 0.12429112 0.09410606 -0.011961109 -0.09612349 -0.16328962 0.14879896
-0.002091897 0.03820439 0.159607 0.062265016 0.15089592 0.19224726 0.21449025 -0.006413534
00000000: 34fd 3b3e 9152 68bd 43b0 bbbc ce06 4c3e
00000010: bde3 813e 5295 d0bd 9fab 453e 1f72 3d3e
00000020: b061 983b b447 663e 0a22 ab3d 6a70 8bbd
00000030: 703a 663e 977e 523e 5d70 5b3e 4be9 0ebe
00000040: 17bb 8fbd 03cf 873e a7bd 123e 600a 9e3d
00000050: 355e a2bd f644 07be 63a1 e9bd ca47 b83d
00000060: 7cb7 3cb9 80fb 5ebd 5360 3cbe 324a 393d
00000070: be8d 783d b76e 9ebd 7fe9 cb3d 3e29 383e
00000080: d2df 1e3e 8f22 e13d 6376 003e 02cb 783b
00000090: def8 c83d ca6b a2bc bbed 293d 4635 dfbd
000000a0: 1d57 433e aac7 77be c8f6 393d 5633 e13d
000000b0: 4841 6dbe 89f2 9ebd a7bb 743e dc5a 7b3d
000000c0: 1357 853c 622b 163e e33b 4c3d 806a 3fbe
000000d0: 2d09 bbbd ba42 b03d 727e f7bd c7b7 84bd
000000e0: a840 23be 7b48 553e da7a 733d 3a30 0abe
000000f0: f6de cebd 1e92 823c 8ef3 12bc a2dc 40be
00000100: 76cb a43c 7a07 3e3e 4398 3f3e 5d88 39be
00000110: 6d8b cabd 0107 1d3e 9bf8 423e 28ec e9bd
00000120: 405f 38be bf9a 40be 45d3 1c3c 53d3 493d
00000130: 92ab e7bd ded4 ec3c e33e df3d cacf 463c
00000140: c600 823c 3c85 74be 8fae 573e 6e1e 573e
00000150: ba56 063e 2306 273e e4c8 963d b2a2 35bd
00000160: 732e 71bc 49cf 513e ebc7 203e 0d1e 0fbd
00000170: c20b cfbd 1308 eebc 969a f4bc 30f1 033c
00000180: ea57 913d e9a7 b2bd 8212 453d 9796 ba3d
00000190: c181 0d3d 2900 033d ca5e 00be 9940 ebbd
000001a0: fb89 a9bd 61f9 d03d f39c a83d cbc4 453d
000001b0: cbab 473e 5077 363e a824 d2bd 8648 63bc
000001c0: d060 c2bc 393f bebd e7dc 2dbe cd85 973d
000001d0: e941 17be 0f7e 25be cbdd 553e 13e8 ab3d
000001e0: d4c3 053e 252b edbd bf4e 34be 697a 173e
000001f0: b125 943d 3453 103e 1cec 7bbe 790a 113e
00000200: 0315 79bb d74e d13d 0a2a 83bd 03d2 1cbe
00000210: 40b7 6abe d6ee fd3d 52cc 97bd 179b 18be
00000220: c3fd 233e 979e 8abe 76e5 4ebe 7924 933d
00000230: 17e8 4bbd db9c a2bd 0dc3 43be a2fd 24be
00000240: 6221 2c3d c6a4 cbbd 52f7 ee3d 09cc 9bbe
00000250: 77e1 e0bd 9f2d a6bc e32b d3bd ec41 21be
00000260: e96b 02be 0ac6 f63d d9f7 a83d 85f6 bdbd
00000270: b098 58bd 2e3b c9bd 8404 aebd 1b2b 76bd
00000280: 6017 95bd 596f 403c e88b b2bc d5b2 efbc
00000290: ce18 0fbe d4b9 553e 0d82 9f3d 5774 223e
000002a0: b7e4 263e 37a0 5c3e b342 4dbe 3e0c a7bd
000002b0: c233 de3d 8103 35bd b05f 3bbe a546 0dbd
000002c0: eeff e63c 193c eabd a92d 9cbd f16f 8a3e
000002d0: 1547 1e3e 50c2 81be ede1 4f3e 70b3 183e
000002e0: 5997 3a3d 01ca 98bd 7e14 74be c0fa 64be
000002f0: d3d9 b63d 9f4c 57bd 625b dfbd f6c6 543e
00000300: 6a18 f5bd fee8 533e 700e b4bc 4c02 06be
00000310: 8492 243d c31f 91bd 084e 023d 765a 5fbd
00000320: ec8f 23be bd73 4dbe 0ac4 b03b 26ef ef3d
00000330: c38d 3c3b b383 a5be 44bb 10be 59ad 953d
00000340: 1f2c e1bb 3782 3f3e f850 4dbd c899 1fbe
00000350: 1e31 473e 530a e53d 8da5 343e 295f 193e
00000360: bd79 e1bc eecf 9d3d 7a30 a03d 20bf 08be
00000370: e84c e9bc d61d c73d 0d9b cf3d cb00 953c
00000380: 0fb4 84be bce3 623b fcdd a7be d5e7 eb3d
00000390: e4f3 5ebe 311f a23d d215 1bbe 7021 303e
000003a0: 4631 1fbe 087b 99be 234e 903d 205f a5be
000003b0: 55f9 4cbe dafb 543d 9438 d7bd f1ea bdbd
000003c0: 9a41 383c 3338 2fbe 588c fe3d aeba c03d
000003d0: 87f8 43bc 64dc c4bd 6535 27be c15e 183e
000003e0: 3518 09bb 357c 1c3d 0470 233e 9a09 7f3d
000003f0: 7684 1a3e 77dc 443e 55a3 5b3e 9f28 d2bb

pre_processing_lin_layers.1.bias f4 [64]
0.12866679 -0.043295808 -0.036630128 -0.12799035 -0.038188104 0.019691747 0.039802324 0.015398293
0.0044623003 0.03603673 0.021981513 0.09864933 0.013799952 -0.05002439 -0.0116883665 0.05739327
-0.08619621 -0.011946507 0.05268427 -0.06790351 0.089704394 -0.068038836 0.10949412 0.12189666
0.053372357 0.021532783 -0.063116826 -0.073741116 0.07805945 -0.06341715 0.1443107 -0.12816246
-0.039168224 -0.030465538 0.037291884 0.07081405 -0.106723405 -0.020847065 0.039672554 0.02070693
-0.09704233 0.12654987 -0.07645615 0.13629355 -0.036965404 -0.06047021 0.14483477 -0.056222904
-0.009252178 -0.07112631 -0.092387855 -0.005002178 -0.008200032 0.17038576 0.14234066 -0.08249863
0.09760609 -0.06687313 -0.08686267 0.0644601 0.08505686 -0.015512422 0.038565706 -0.06748076
00000000: 3ac1 033e f256 31bd 7909 16bd e70f 03be
00000010: 216b 1cbd 9650 a13c c307 233d 1f49 7c3c
00000020: 7d38 923b 409b 133d 9312 b43c a908 ca3d
00000030: 3219 623c 60e6 4cbd 9080 3fbc 3515 6b3d
00000040: a387 b0bd 48bb 43bc 76cb 573d ff10 8bbd
00000050: f0b6 b73d f257 8bbd 743e e03d f5a4 f93d
00000060: f99c 5a3d 8565 b03c 6543 81bd 9505 97bd
00000070: a2dd 9f3d dae0 81bd 2fc6 133e 053d 03be
00000080: dc6e 20bd dd92 f9bc 60bf 183d f506 913d
00000090: cd91 dabd 77c7 aabc b07f 223d 94a1 a93c
000000a0: 21be c6bd 4a96 013e 0b95 9cbd 8990 0b3e
000000b0: 0969 17bd 9caf 77bd 914f 143e fd49 66bd
000000c0: 7296 17bc acaa 91bd d835 bdbd 4fe9 a3bb
000000d0: 6d59 06bc 9b79 2e3e c0c1 113e 0bf5 a8bd
000000e0: b4e5 c73d c8f4 88bd 0ee5 b1bd a803 843d
000000f0: 4b32 ae3d d027 7ebc 13f7 1d3d 5a33 8abd

pre_processing_lin_layers.2.weight f4 [64, 64]
0.108771175 -0.15389226 -0.21941817 0.07701833 -0.047857586 0.206111 -0.011354363 -0.103027105
-0.049795862 -0.0101411445 -0.039344095 -0.15266125 0.07776629 -0.014676542 -0.19939394 0.26891097
-0.06830036 -0.0026789997 -0.026787505 -0.10403654 -0.17084551 0.094535425 0.18031605 -0.1356331
-0.01672449 -0.18611316 -0.07296546 -0.008502739 -0.13245504 0.048492968 0.08461781 0.19084887
0.06800583 0.15561892 0.042934895 0.2177776 -0.21399982 0.00950139 -0.112226844 -0.2454768
-0.27453747 0.0838348 -0.020415448 0.042744387 -0.12376152 0.115133926 -0.21402329 -0.22633374
0.15571639 -0.24936682 0.10679859 -0.2149162 -0.18024191 -0.07992841 -0.18058544 -0.40637118
-0.019438783 -0.20882969 0.19932286 -0.080215134 -0.053432807 0.110252656 -0.037690867 0.21866718
0.014566263 0.14628519 0.17539534 -0.100708626 0.25439894 -0.04350059 -0.09908806 -0.18144086
-0.0053530857 0.20545089 -0.13816656 -0.24648964 0.105232455 -0.028253863 -0.07933221 0.22114591
0.047256112 0.018988933 0.012532198 0.01234652 0.1241374 0.12149648 -0.049915086 -0.15934911
-0.18311736 0.22469006 0.15250193 0.012570647 -0.21808735 -0.030158665 0.12415914 0.007300266
-0.1735119 0.11560317 0.0540895 0.0041452306 -0.089634724 -0.12651965 -0.15613233 -0.32566944
-0.21920018 -0.04508167 0.16759673 -0.26032013 0.0272684 -0.18381402 -0.06757734 -0.07668805
0.13311872 -0.0068249893 -0.08111664 -0.12056565 -0.24536636 -0.10294015 -0.09256808 -0.13788609
-0.14631839 -0.11920408 -0.04911515 0.2553324 -0.07145164 -0.17215754 -0.18856803 0.25188154
-0.08696928 -0.16921768 -0.09566753 -0.16792163 0.13886502 0.16826923 0.19052266 -0.18811801
-0.12780875 -0.13565199 0.02812388 -0.028935116 0.1167483 -0.034483626 -0.13824692 0.21612622
0.2006556 -0.22166355 0.080107406 -0.039740413 -0.18563174 0.08123782 0.015407789 0.25864017
-0.08108168 0.103114605 0.17383334 -0.061930228 -0.00917201 0.22648162 -0.08156176 -0.12162691
0.14231698 -0.14439209 0.15764259 0.2564388 0.07768144 0.15716356 0.22501913 0.13040337
-0.005438738 0.20862214 -0.023964686 -0.1915218 -0.0010211655 0.1235011 0.012541704 -0.11137981
0.10207814 -0.11021049 -0.036607657 0.13698418 -0.046014678 0.24340945 -0.1596848 -0.11074001
0.0049033244 -0.12638853 -0.19481426 -0.059908967 0.15856522 -0.19440176 0.17505285 -0.01870145
-0.03010505 -0.13098924 -0.11141728 0.039344016 0.05835633 0.08730534 0.05052672 -0.3521358
-0.022450441 -0.033135332 -0.13403286 0.1423476 0.1694623 -0.08126479 -0.042471375 0.095040254
-0.15407883 0.17776412 -0.12239168 -0.05278326 -0.06799834 -0.15191963 -0.029235126 -0.04301383
0.11269182 -0.13978402 -0.017449854 0.11480407 0.25275975 -0.18297745 -0.15208237 -0.15934256
0.22879879 -0.2259692 -0.018536996 -0.05572512 -0.1011134 0.09802675 0.03789216 0.11888882
-0.031623054 0.2058361 0.24583386 -0.22450368 -0.26961067 -0.0909628 0.14707333 0.005829904
0.130086 -0.2668376 -0.0046005296 0.057277147 0.12328406 -0.026040412 -0.1317583 0.020418238
0.05868777 -0.2144525 -0.03769844 -0.0269735 0.16259526 -0.07463126 0.172361 -0.048179913
00000000: 6cc3 de3d ef95 1dbe 28af 60be c9bb 9d3d
00000010: 5106 44bd c30e 533e a607 3abc e0ff d2bd
00000020: bff6 4bbd 0b27 26bc 4627 21bd 3b53 1cbe
00000030: ef43 9f3d e175 70bc ed2d 4cbe b3ae 893e
00000040: 0fe1 8bbd 2892 2fbb 7871 dbbc 1c11 d5bd
00000050: 20f2 2ebe ca9b c13d c5a4 383e 67e3 0abe
00000060: cc01 89bc 7394 3ebe ea6e 95bd 124f 0bbc
00000070: 4ba2 07be 90a0 463d 1a4c ad3d e36d 433e
00000080: a446 8b3d 915a 1f3e 80dc 2f3d 1701 5f3e
00000090: c522 5bbe b8ab 1b3c 30d7 e5bd 455e 7bbe
000000a0: 2d90 8cbe 94b1 ab3d 4c3e a7bc bd14 2f3d
000000b0: ae76 fdbd 56cb eb3d ec28 5bbe 08c4 67be
000000c0: 1e74 1f3e 045a 7fbe 38b9 da3d fe12 5cbe
000000d0: 5691 38be 82b1 a3bd 64eb 38be e20f d0be
000000e0: 153e 9fbc 73d7 55be 4b1b 4c3e d547 a4bd
000000f0: 5cdc 5abd 25cc e13d bd61 1abd 4aea 5f3e
00000100: 56a7 6e3c c9cb 153e d69a 333e 5340 cebd
00000110: 9440 823e ad2d 32bd aeee cabd a2cb 39be
00000120: f068 afbb b861 523e 897b 0dbe c867 7cbe
00000130: 1d84 d73d a574 e7bc ed78 a2bd 1374 623e
00000140: a08f 413d ae8e 9b3c d953 4d3c 0f49 4a3c
00000150: c03b fe3d 26d3 f83d c373 4cbd 6a2c 23be
00000160: 1e83 3bbe 2715 663e 7729 1c3e 1df5 4d3c
00000170: 4a52 5fbe 4e0f f7bc 2647 fe3d 1237 ef3b
00000180: 1aad 31be 5bc1 ec3d f48c 5d3d b7d4 873b
00000190: 6992 b7bd 5e8e 01be 27e1 1fbe 25be a6be
000001a0: 0376 60be 8fa7 38bd 7a9e 2b3e ae48 85be
000001b0: fb61 df3c be39 3cbe fd65 8abd a00e 9dbd
000001c0: 4650 083e 29a4 dfbb 7b20 a6bd 20eb f6bd
000001d0: 5241 7bbe 49d2 d2bd 5594 bdbd 0332 0dbe
000001e0: 7dd4 15be 4521 f4bd f82c 49bd eeba 823e
000001f0: 3d55 92bd 114a 30be fa17 41be 9ef6 803e
00000200: f31c b2bd 6647 2dbe 57ed c3bd a6f3 2bbe
00000210: a232 0e3e c54e 2c3e 5f18 433e 02a2 40be
00000220: 4ce0 02be 5be8 0abe 0d64 e63c 5609 edbc
00000230: bc19 ef3d b43e 0dbd 9a90 0dbe 3150 5d3e
00000240: a978 4d3e c5fb 62be 5a0f a43d d8c6 22bd
00000250: 3f16 3ebe 0460 a63d f370 7c3c 7c6c 843e
00000260: 270e a6bd c02d d33d 5e01 323e 8daa 7dbd
00000270: 3346 16bc ccea 673e da09 a7bd 8817 f9bd
00000280: 8bbb 113e 85db 13be 0f6d 213e f24b 833e
00000290: 7217 9f3d 7cef 203e 6a6b 663e 7688 053e
000002a0: 7137 b2bb 0ba1 553e 9751 c4bc 4a1e 44be
000002b0: a1d8 85ba 25ee fc3d b87b 4d3c 191b e4bd
000002c0: 580e d13d 0ab6 e1bd e9f1 15bd 9545 0c3e
000002d0: e379 3cbd 5440 793e 6a84 23be a9cb e2bd
000002e0: 11ac a03b ff6b 01be 647d 47be 1b63 75bd
000002f0: ec5e 223e 4111 47be 0e41 333e c933 99bc
00000300: de9e f6bc 0b22 06be be2e e4bd 3127 213d
00000310: 0c07 6f3d 24cd b23d 1bf5 4e3d 254b b4be
00000320: fde9 b7bc eab8 07bd e93f 09be 92c3 113e
00000330: 8687 2d3e 276e a6bd 77f6 2dbd 77a4 c23d
00000340: d7c6 1dbe cc07 363e 7da8 fabd 4233 58bd
00000350: b742 8bbd d290 1bbe 817e efbc 452f 30bd
00000360: f8ca e63d 8b23 0fbe fff2 8ebc 651e eb3d
00000370: ba69 813e 715e 3bbe 7bbb 1bbe b22a 23be
00000380: 3b4a 6a3e 7864 67be e6da 97bc 0640 64bd
00000390: 8b14 cfbd 40c2 c83d cf34 1b3d fb7b f33d
000003a0: 2d87 01bd b3c6 523e dfbb 7b3e 4be4 65be
000003b0: 690a 8abe b44a babd 649a 163e c808 bf3b
000003c0: 4435 053e f09e 88be 0ac0 96bb 719b 6a3d
000003d0: 5a7c fc3d b452 d5bc a6eb 06be 2644 a73c
000003e0: 9662 703d 7099 5bbe ae69 1abd 88f7 dcbc
000003f0: 5f7f 263e 46d8 98bd 677f 303e 4d58 45bd

pre_processing_lin_layers.2.bias f4 [64]
-0.041402943 -0.054304235 0.050570223 -0.08024789 0.0610086 0.01946116 0.01731067 -0.08309538
-0.030478967 -0.12762085 -0.012562511 0.037173133 -0.052727155 -0.029279163 -0.12612328 0.12499007
-0.08833343 0.08495072 -0.11675299 0.07194963 -0.032840755 0.0554261 0.105635576 0.07427682
0.031794775 -0.11221827 -0.07285623 -0.023575721 -0.05298037 0.064829476 0.10110291 -0.064802945
0.010034453 -0.11900595 0.061294757 -0.009807437 0.029640924 -0.09719475 0.0067094513 -0.0648378
0.11208784 -0.08008051 -0.12219578 0.10446335 -0.044171594 -0.090681314 0.07355303 -0.065488234
-0.08645884 0.05729968 -0.013810205 -8.1102145e-05 0.081168845 0.13268661 -0.06628297 0.027819425
-0.06931678 0.029914202 0.023146521 -0.019679891 -0.024382249 0.08914321 0.09448617 -0.05355422
00000000: 2296 29bd 1e6e 5ebd b922 4f3d 0159 a4bd
00000010: 27e4 793d 036d 9f3c 1bcf 8d3c e92d aabd
00000020: 07af f9bc 0aaf 02be fdd2 4dbc db42 183d
00000030: 6ef8 57bd dbda efbc 7626 01be cbfa ff3d
00000040: 28e8 b4bd a5fa ad3d 311c efbd 545a 933d
00000050: 0784 06bd 7a06 633d 7757 d83d 721e 983d
00000060: 3d3b 023d b1d2 e5bd a635 95bd df21 c1bc
00000070: f201 59bd 51c5 843d 0b0f cf3d 68b7 84bd
00000080: 8c67 243c 64b9 f3bd 3610 7b3d 5faf 20bc
00000090: 86d1 f23c 0b0e c7bd f5da db3b aec9 84bd
000000a0: 4f8e e53d 4001 a4bd c841 fabd e1f0 d53d
000000b0: 46ed 34bd 20b7 b9bd f9a2 963d b21e 86bd
000000c0: 5511 b1bd 12b3 6a3d 3344 62bc 6215 aab8
000000d0: da3b a63d 00df 073e 5ebf 87bd 90e5 e33c
000000e0: f5f5 8dbd a10e f53c c69d bd3c b937 a1bc
000000f0: 48bd c7bc b790 b63d f781 c13d ab5b 5bbd

pre_processing_lin_layers.3.weight f4 [64, 64]
-0.1017094 -0.22480309 -0.025207492 -0.19187349 0.26143092 0.17472094 0.072672 0.042901106
0.12091679 0.17217845 0.13572107 0.20022462 0.13982165 -0.19692916 -0.026444009 -0.009347154
-0.23685163 -0.32818687 -0.0911315 -0.2453764 0.1530606 0.10064597 0.18995261 0.16388197
-0.08476748 0.14968142 0.04328189 0.23588082 -0.03763368 -0.11313825 0.07917765 -0.06702741
-0.15650883 0.08142203 -0.19714344 0.13176876 0.0807602 0.09328599 -0.1129423 0.15035881
0.17378806 -0.1269567 -0.09350469 0.14916109 -0.011255317 0.20762801 -0.15558416 -0.25182027
-0.06927728 0.15772505 0.003568697 0.15812652 -0.04599843 -0.026145795 0.016901698 -0.049898658
-0.036591314 -0.11007989 0.12422977 -0.20210901 0.1874755 -0.10494719 0.025043797 0.103260115
0.10449443 -0.076147996 0.053889334 0.047846906 -0.24499507 -0.28402567 -0.13554259 -0.115992226
-0.20118673 -0.05183007 -0.021789122 0.12526734 -0.09479162 0.002392029 -0.24837112 0.14651908
-0.026960913 0.18029307 0.22879073 -0.08411194 0.0021417073 -0.005313997 0.18060954 -0.147382
-0.09731704 -0.1790922 -0.16193126 -0.120704904 0.08444188 0.050149314 -0.11748605 -0.17048334
-0.10501144 -0.14451848 0.10096367 -0.11319246 -0.06628262 -0.2877715 0.18243268 0.044616137
-0.13754296 0.29206014 0.16276948 -0.06605962 -0.015483194 0.13146818 0.041146014 -0.12987496
0.15464905 0.06343711 -0.18358941 -0.17729999 0.06388772 -0.12500371 -0.07420926 0.13902745
-0.2149355 0.10644267 -0.102839634 -0.22813119 -0.08087072 -0.008106399 -0.2479915 -0.26187387
-0.26148793 -0.19572547 -0.009187296 -0.080146916 0.013873909 -0.0392531 -0.15669957 -0.13320602
0.092343256 -0.17812206 -0.1600934 -0.08233087 -0.13705097 -0.23196182 -0.05208752 0.17440376
-0.1416097 0.11337191 -0.25918669 -0.15329595 -0.015985776 -0.033985827 -0.052551072 0.13169406
0.13326816 -0.12438436 0.084854 -0.058101263 0.032909043 0.118108295 -0.15079579 0.12080446
-0.043435495 0.05960151 0.062240697 0.070461385 -0.04167542 0.10619927 0.079027824 -0.11257767
-0.046000615 -0.08084762 -0.059090152 0.17873178 0.06665633 0.06858911 0.06040438 0.08104274
0.16194479 -0.019967081 -0.17179626 -0.09731522 0.10578758 0.0070103407 -0.23713017 -0.1249543
-0.20111988 -0.2345109 -0.1945182 0.10305325 0.07685319 0.049598396 -0.18323891 -0.051156074
-0.11380569 -0.039419614 -0.20726444 -0.22375624 0.15973511 0.052165926 0.07616403 0.18050566
-0.036783732 0.23928548 0.30571306 -0.20605782 0.1980183 -0.06995773 0.30024227 0.124412626
-0.13530682 -0.056480747 -0.004899671 0.09043066 0.09163538 -0.1745238 -0.15689705 0.09039515
0.16848817 -0.061249584 -0.1471761 -0.033451322 -0.05289862 0.058405768 -0.09993237 0.0629596
0.14761825 -0.22224747 -0.113287605 -0.2183792 0.19290945 0.16609848 0.10151482 0.1635993
0.2736535 -0.16447257 0.05626491 -0.093774915 0.008501069 -0.22040258 -0.12820716 -0.037935663
0.07488855 -0.25244775 -0.02660137 -0.13357303 -0.046831395 0.20498383 -0.1208264 0.10775361
-0.11666842 -0.13910188 -0.06481409 -0.14442031 0.24754177 0.16992955 0.21149336 0.16288638
00000000: 054d d0bd c832 66be f17f cebc 7c7a 44be
00000010: 46da 853e 0cea 323e 0fd5 943d 12b9 2f3d
00000020: 39a3 f73d 8c4f 303e 77fa 0a3e af07 4d3e
00000030: 682d 0f3e cca7 49be 1ba1 d8bc ce24 19bc
00000040: 3c89 72be 1c08 a8be 27a3 babd f343 7bbe
00000050: ebbb 1c3e 791f ce3d f082 423e add0 273e
00000060: 939a adbd 1646 193e 5a48 313d be8a 713e
00000070: c625 1abd 07b5 e7bd e427 a23d ab45 89bd
00000080: da43 20be 98c0 a63d f8df 49be 64ee 063e
00000090: 9b65 a53d ba0c bf3d 4b4e e7bd a9f7 193e
000000a0: 7ff5 313e f000 02be 637f bfbd afbd 183e
000000b0: 3968 38bc 709c 543e 7451 1fbe 96ee 80be
000000c0: 3fe1 8dbd ad82 213e cde0 693b ebeb 213e
000000d0: da68 3cbd b52f d6bc 6e75 8a3c 8962 4cbd
000000e0: c6e0 15bd 9171 e1bd 2d6c fe3d aaf5 4ebe
000000f0: 94f9 3f3e 8dee d6bd a628 cd3c 0a7a d33d
00000100: 2d01 d63d 7bf3 9bbd 10bb 5c3d 1efb 433d
00000110: fddf 7abe d06b 91be adcb 0abe 558d edbd
00000120: e503 4ebe c44b 54bd 1a7f b2bc 1546 003e
00000130: 1c22 c2bd 96c3 1c3b 0055 7ebe 1909 163e
00000140: 22dd dcbc bf9e 383e 1e48 6a3e e142 acbd
00000150: e35b 0c3b 0a21 aebb b5f1 383e 4feb 16be
00000160: 284e c7bd f263 37be 4fd1 25be 2234 f7bd
00000170: ddef ac3d 5e69 4d3d 879c f0bd 2f93 2ebe
00000180: 3d10 d7bd a7fc 13be 0ac6 ce3d 73d1 e7bd
00000190: 2fbf 87bd c956 93be a2cf 3a3e 69bf 363d
000001a0: 10d8 0cbe e888 953e 0bad 263e 444a 87bd
000001b0: 39ad 7dbc 989f 063e b988 283d f1fd 04be
000001c0: 525c 1e3e 51eb 813d ddfe 3bbe 218e 35be
000001d0: 91d7 823d f900 00be 06fb 97bd 365d 0e3e
000001e0: 0d18 5cbe 9dfe d93d 969d d2bd 399b 69be
000001f0: 8c9f a5bd b4d0 04bc 7cf1 7dbe 5514 86be
00000200: bfe1 85be 426c 48be 5086 16bc 1124 a4bd
00000210: 644f 633c dcc7 20bd da75 20be 2967 08be
00000220: 761e bd3d a165 36be 86ef 23be 169d a8bd
00000230: 1757 0cbe 6687 6dbe b959 55bd e696 323e
00000240: 2202 11be 882f e83d 1eb4 84be 9df9 1cbe
00000250: 9af4 82bc b934 0bbd cb3f 57bd cfda 063e
00000260: 7377 083e 3abd febd efc7 ad3d 97fb 6dbd
00000270: a2cb 063d c3e2 f13d 366a 1abe 5468 f73d
00000280: 6be9 31bd b720 743d 1af0 7e3d 0f4e 903d
00000290: d8b3 2abd 017f d93d 57d9 a13d 1f8f e6bd
000002a0: 246b 3cbd 7093 a5bd 8408 72bd 7705 373e
000002b0: 1d83 883d 7378 8c3d 956a 773d bcf9 a53d
000002c0: dbd4 253e 0192 a3bc 5ceb 2fbe 344d c7bd
000002d0: 29a7 d83d 00b7 e53b 40d2 72be 0ae8 ffbd
000002e0: 5ff2 4dbe a023 70be c72f 47be 950d d33d
000002f0: 3565 9d3d b027 4b3d fba2 3bbe 0889 51bd
00000300: f512 e9bd 7676 21bd 213d 54be 5b20 65be
00000310: 9a91 233e f0ab 553d e3fb 9b3d 7ad6 383e
00000320: 8aaa 16bd 4107 753e 6c86 9c3e d200 53be
00000330: 4fc5 4a3e 0046 8fbd 5bb9 993e 0ccc fe3d
00000340: df8d 0abe 5b58 67bd 6b8d a0bb b633 b93d
00000350: 55ab bb3d 5eb6 32be 9fa9 20be 1821 b93d
00000360: 2a88 2c3e d8e0 7abd 55b5 16be 4104 09bd
00000370: 39ac 58bd e33a 6f3d 58a9 ccbd f6f0 803d
00000380: 3d29 173e d794 63be 5503 e8bd cc9e 5fbe
00000390: 0e8a 453e b815 2a3e 00e7 cf3d 9386 273e
000003a0: 501c 8c3e 7f6b 28be 0976 663d 100d c0bd
000003b0: 1148 0b3c 37b1 61be bd48 03be 6d62 1bbd
000003c0: 2b5f 993d d540 81be 1eeb d9bc 5ec7 08be
000003d0: 47d2 3fbd 48e7 513e d573 f7bd edad dc3d
000003e0: daef eebd b970 0ebe 40bd 84bd ebe2 13be
000003f0: 977b 7d3e 0302 2e3e b791 583e b0cb 263e

pre_processing_lin_layers.3.bias f4 [64]
0.08242559 0.046477053 0.024190435 -0.054165762 0.08462382 -0.037311997 0.049426455 0.022002304
-0.00603562 -0.07844334 -0.019842897 -0.022366432 0.010297763 -0.11797789 0.023389192 -0.040575475
-0.061299883 0.08752748 -0.1327046 -0.078664385 -0.011694425 -0.050898768 0.06484747 -0.1503372
-0.054436296 -0.122153476 0.11972036 0.028482934 -0.036170386 -0.10390966 0.12580375 -0.09786656
-0.050361257 0.065470114 0.042407796 -0.06152252 -0.034070034 -0.034642134 -0.08674583 -0.055286534
0.058261413 -0.025171934 0.032699108 -0.07325104 0.015478909 0.16032425 0.13491166 -0.07368504
-0.053569715 0.08751307 -0.019979471 0.004357702 -0.18420081 -0.038991936 -0.00047601998 0.09680674
0.041259184 -0.12788324 -0.013798745 -0.016696416 0.044905923 -0.018731685 -0.107954 -0.06411684
00000000: bfce a83d b95e 3e3d 052b c63c ebdc 5dbd
00000010: 414f ad3d 77d4 18bd 6573 4a3d 2d3e b43c
00000020: 73c6 c5bb e7a6 a0bd 928d a2bc cf39 b7bc
00000030: f3b7 283c 649e f1bd b19a bf3c 7832 26bd
00000040: 9615 7bbd 9c41 b33d b7e3 07be cb1a a1bd
00000050: f999 3fbc 3a7b 50bd c0ce 843d fff1 19be
00000060: 98f8 5ebd 9a2b fabd f32f f53d 0b55 e93c
00000070: 6627 14bd 96ce d4bd b3d2 003e 436e c8bd
00000080: 9b47 4ebd 3215 863d ccb3 2d3d 0aff 7bbd
00000090: 058d 0bbd e9e4 0dbd cca7 b1bd 2274 62bd
000000a0: 85a3 6e3d 5f35 cebc 80ef 053d a404 96bd
000000b0: 409b 7d3c 0a2c 243e 4826 0a3e 2fe8 96bd
000000c0: eb6b 5bbd 0d3a b33d fdab a3bc 0ecb 8e3b
000000d0: 239f 3cbe 02b6 1fbd 5292 f9b9 9d42 c63d
000000e0: 64ff 283d d3f3 02be 2214 62bc ecc6 88bc
000000f0: 46ef 373d 3173 99bc fd16 ddbd b14f 83bd

pre_processing_batch_norm.0.weight f4 [64]
0.7048444 0.75776273 0.891389 0.9656268 0.773793 0.9308059 0.83062375 0.6374803
1.4488839 0.87355375 0.67674536 0.85823613 0.76955736 0.93642104 0.9856551 0.660972
0.54825747 0.61513424 1.0065117 0.9916766 0.97737217 0.9597659 0.6451124 0.7210076
0.8255454 0.8272014 0.98317003 1.0340918 1.0464679 0.7735128 0.7406247 0.60510266
0.94380575 1.0227901 0.96863407 0.828039 0.68142414 0.6479961 1.0011672 0.8074255
0.95404285 1.1416887 1.060862 1.0360056 0.88654655 0.6641469 0.9611915 0.6942011
0.79729974 0.86699754 1.1893568 0.8102203 0.9592627 0.68717873 0.92332625 0.76831365
0.7902027 0.85533065 0.74075586 0.89289916 0.55374897 0.7429549 0.76479703 1.0052588
00000000: af70 343f bdfc 413f 1232 643f 5133 773f
00000010: 4c17 463f 4c49 6e3f c2a3 543f e931 233f
00000020: 0775 b93f 38a1 5f3f 2f3f 2d3f 5db5 5b3f
00000030: b601 453f 4ab9 6f3f e553 7c3f 7635 293f
00000040: 9a5a 0c3f 7079 1d3f 60d5 803f 85de 7d3f
00000050: 1035 7a3f 38b3 753f 1626 253f f493 383f
00000060: f156 533f 79c3 533f 08b1 7b3f 1f5d 843f
00000070: a9f2 853f ef04 463f 9599 3d3f 02e8 1a3f
00000080: 419d 713f c9ea 823f 67f8 773f 5dfa 533f
00000090: d071 2e3f 13e3 253f 3f26 803f 70b3 4e3f
000000a0: 273c 743f db22 923f 53ca 873f d59b 843f
000000b0: b7f4 623f 8805 2a3f a510 763f 2ab7 313f
000000c0: d61b 4c3f 8df3 5d3f d83c 983f 996a 4f3f
000000d0: 3e92 753f f2ea 2f3f 1c5f 6c3f 34b0 443f
000000e0: b94a 4a3f f3f6 5a3f 2da2 3d3f 0a95 643f
000000f0: 7ec2 0d3f 4b32 3e3f bdc9 433f 52ac 803f

pre_processing_batch_norm.0.bias f4 [64]
0.3626079 -0.0072665894 0.22696868 0.15768798 0.17704222 0.027093701 0.084568486 -0.10142042
0.22739124 0.19076186 0.036085546 -0.037146598 0.31902674 0.36571807 0.15538 -0.13971892
0.113893114 -0.27419803 -0.094473906 -0.002997094 -0.077252746 0.13661593 0.09306615 -0.026001092
0.18829411 -0.08785567 0.11518343 0.7702916 0.10392202 -0.18416165 -0.12379086 -0.021272741
0.1383111 0.13531919 0.24765491 -0.13110232 0.15453458 -0.047533777 0.15683919 0.11399474
0.032985188 -0.11489253 0.0834008 0.4344608 0.052953906 -0.22286958 0.14387727 0.1849842
-0.09785757 0.1656224 0.09417048 -0.22430463 0.11903541 -0.063331336 0.26744464 0.072821185
0.1930193 0.14083488 -0.18237582 -0.22492999 0.1742878 -0.1221814 -0.032248884 0.08637567
00000000: bea7 b93e 921c eebb 7a6a 683e f578 213e
00000010: 8e4a 353e 9cf3 dd3c 3e32 ad3d 82b5 cfbd
00000020: 40d9 683e 1457 433e 70ce 133d 0827 18bd
00000030: 7957 a33e 663f bb3e ef1b 1f3e 7a12 0fbe
00000040: cb40 e93d af63 8cbe 897b c1bd e56a 44bb
00000050: b036 9ebd 0ce5 0b3e 7799 be3d 3e00 d5bc
00000060: 2cd0 403e aced b3bd 4ae5 eb3d d531 453f
00000070: 11d5 d43d df94 3cbe 1086 fdbd 2c44 aebc
00000080: 6da1 0d3e 1d91 0a3e 4099 7d3e b03f 06be
00000090: 503e 1e3e c7b2 42bd 749a 203e 1376 e93d
000000a0: 7a1b 073d c64c ebbd 0ace aa3d a571 de3e
000000b0: 32e6 583d ec37 64be 9054 133e 806c 3d3e
000000c0: 8d69 c8bd eb98 293e 74dc c03d 1db0 65be
000000d0: d6c8 f33d dcb3 81bd 81ee 883e 4623 953d
000000e0: daa6 453e 0537 103e bac0 3abe 0c54 66be
000000f0: 8078 323e 3e3a fabd 6817 04bd bae5 b03d

pre_processing_batch_norm.0.running_mean f4 [64]
-0.101410314 0.061527573 0.1365802 0.06807043 -0.15137458 0.10969938 -0.19466344 -0.11701515
0.12024624 -0.061141733 -0.00989214 -0.07378144 -0.19013548 0.19276561 0.10523772 -0.10450112
0.17625147 0.08182314 0.010068247 -0.03377673 0.039383195 -0.21714848 -0.0037599525 0.009569779
0.14311309 0.0925424 0.16226876 -0.17464004 -0.10435837 0.09839573 -0.18115115 -0.14639258
0.14942203 -0.13738093 -0.09731722 0.14955077 -0.06556857 -0.100979835 0.20263194 0.010133047
-0.027092533 0.12260049 -0.07391956 0.19379582 -0.11304587 -0.019220937 0.13204318 -0.18995833
-0.0053550135 -0.047733378 0.12631501 -0.11988829 0.04470318 -0.039392926 0.051535036 0.04117244
-0.08437889 -0.17742595 -0.0804043 0.23671328 0.09071023 0.18228142 0.11091718 -0.05465163
00000000: 36b0 cfbd 5604 7c3d aedb 0b3e 8268 8b3d
00000010: f001 1bbe 12aa e03d da55 47be a4a5 efbd
00000020: a943 f63d c16f 7abd a412 22bc b91a 97bd
00000030: e0b2 42be 5964 453e e086 d73d af04 d6bd
00000040: 447b 343e e492 a73d 4af5 243c 7859 0abd
00000050: 4650 213d 2c5c 5ebe 8969 76bb 90ca 1c3c
00000060: 3d8c 123e df86 bd3d c829 263e d7d4 32be
00000070: d7b9 d5bd b383 c93d b07f 39be f0e7 15be
00000080: 1702 193e 96ad 0cbe 404e c7bd d623 193e
00000090: d048 86bd 84ce cebd bf7e 4f3e 1405 263c
000000a0: 29f1 ddbc f715 fb3d 2363 97bd 6972 463e
000000b0: 9884 e7bd 3a75 9dbc 5436 073e 7084 42be
000000c0: 1c79 afbb 1384 43bd b958 013e fe87 f5bd
000000d0: af1a 373d 7a5a 21bd 6716 533d 6fa4 283d
000000e0: d7ce acbd 26af 35be 02ab a4bd f764 723e
000000f0: 49c6 b93d fba7 3a3e 8c28 e33d 63da 5fbd

pre_processing_batch_norm.0.running_var f4 [64]
1.2938825 0.68516695 0.64561844 1.6083518 0.90029746 1.0079073 1.4298416 1.1633586
1.1505853 1.193476 0.5786633 0.571293 0.936794 0.8195433 0.5425106 0.35716072
1.3796836 1.3589154 0.36582485 0.8481374 0.416627 0.51757866 0.8821591 0.6464092
0.54650563 1.7755592 0.48420206 0.969183 1.3214722 1.2549459 0.5289507 1.3397038
0.644327 0.65992886 0.8205958 1.1602005 0.5648115 1.1025193 1.1567004 0.9724321
1.3647414 1.3470223 1.6649171 1.1648749 0.6368977 1.9488777 1.3995703 0.7937185
1.0760646 1.9414973 1.8220361 1.3130853 0.7911388 0.74964035 0.3781334 0.46706867
0.46113262 0.7298828 1.087619 0.68636966 0.6849629 0.9858732 1.1390133 1.3220422
00000000: f19d a53f 1a67 2f3f 4047 253f 79de cd3f
00000010: e579 663f 1b03 813f 0d05 b73f efe8 943f
00000020: 6146 933f d2c3 983f 4723 143f 4240 123f
00000030: bbd1 6f3f 97cd 513f fae1 0a3f c5dd b63e
00000040: 7999 b03f f1f0 ad3f 654d bb3e 881f 593f
00000050: 2250 d53e 0980 043f 2ed5 613f 137b 253f
00000060: cbe7 0b3f 8645 e33f 55e9 f73e 611c 783f
00000070: 0026 a93f 11a2 a03f 5069 073f 6a7b ab3f
00000080: 9df2 243f 19f1 283f 9112 523f 7381 943f
00000090: 7d97 103f 5a1f 8d3f c20e 943f 4ff1 783f
000000a0: d9af ae3f 3a6b ac3f 011c d53f 9f1a 953f
000000b0: ba0b 233f d374 f93f 1f25 b33f 2331 4b3f
000000c0: 7cbc 893f fc82 f83f 7b38 e93f 2e13 a83f
000000d0: 1388 4a3f 6ee8 3f3f b39a c13e a023 ef3e
000000e0: 9319 ec3e 99d9 3a3f 1937 8b3f ecb5 2f3f
000000f0: bb59 2f3f 3062 7c3f 30cb 913f ae38 a93f

pre_processing_batch_norm.1.weight f4 [64]
0.74197656 0.9573169 0.75117487 0.9209304 0.27796295 0.6404504 0.6996243 1.0467114
0.90971303 0.93808854 0.6869912 0.8431327 0.6787256 0.7576903 0.96468824 0.7064766
0.73859155 0.9192053 0.68343127 0.653643 0.90177435 0.72087544 0.90232545 0.65372276
0.81511337 0.995268 0.9147051 0.7130405 1.0509386 0.7620179 0.8999185 0.74220663
0.7736463 0.9286465 0.742672 0.818239 0.9694452 0.74580383 0.97652537 0.70374787
0.9693954 0.9522817 0.8288248 0.84724194 0.741725 0.9297997 0.89929354 0.821129
1.0923351 0.9519179 0.8147727 0.946389 0.81056046 0.95467305 0.94358265 1.0157293
1.1058397 0.80909187 0.7425055 1.0277956 0.9779458 0.7148332 0.9838922 0.9648736
00000000: 2df2 3d3f b812 753f ff4c 403f 18c2 6b3f
00000010: 2951 8e3e 8ff4 233f 941a 333f a4fa 853f
00000020: f4e2 683f 9226 703f a8de 2f3f 8bd7 573f
00000030: f6c0 2d3f fef7 413f cff5 763f a7db 343f
00000040: 5614 3d3f 0a51 6b3f 5af5 2e3f 2655 273f
00000050: afda 663f 4b8b 383f cdfe 663f 605a 273f
00000060: 45ab 503f e2c9 7e3f 1d2a 6a3f d289 363f
00000070: 2885 863f 9b13 433f 0f61 663f 4101 3e3f
00000080: af0d 463f c7bb 6d3f c11f 3e3f 1c78 513f
00000090: 902d 783f 00ed 3e3f 91fd 793f d228 343f
000000a0: 4c2a 783f bcc8 733f dd2d 543f d9e4 583f
000000b0: b1e1 3d3f 5a07 6e3f 1a38 663f 8335 523f
000000c0: a3d1 8b3f e4b0 733f f294 503f 8d46 723f
000000d0: e480 4f3f 7465 743f a28e 713f 6b03 823f
000000e0: 288c 8d3f a520 4f3f d714 3e3f ce8e 833f
000000f0: a85a 7a3f 4fff 363f 5ce0 7b3f f501 773f

pre_processing_batch_norm.1.bias f4 [64]
0.2370048 0.07221108 -0.010117377 0.101410195 0.26823097 -0.08712615 0.13163766 0.07512048
0.087861836 0.16706696 0.03661878 0.1772331 -0.07841815 -0.1450242 0.041751117 0.091103
0.1476303 0.019903224 -0.0012783274 -0.18952116 0.13238542 -0.11072997 0.08940056 0.17806834
0.05884705 0.19257104 0.17917348 -0.210561 0.16390063 0.18780535 0.084434204 0.20104381
0.04044503 -0.26547936 0.13839535 0.26474735 -0.05565195 -0.14893116 0.09889595 0.0017053804
0.027074888 0.09656009 -0.104742736 0.20358932 0.025954466 -0.044254746 0.05179305 0.08546912
0.086100794 0.11128976 -0.13709833 -0.021738278 -0.19791521 0.25772405 0.3076952 -0.1370971
0.076136075 0.00714287 -0.1776406 0.11215961 0.27313325 -0.13231683 0.09138471 0.04374557
00000000: 63b1 723e 67e3 933d 5bc3 25bc 26b0 cf3d
00000010: 9255 893e 326f b2bd 06cc 063e c4d8 993d
00000020: e8f0 b33d 9a13 2b3e 93fd 153d 987c 353e
00000030: b299 a0bd 3981 14be 3803 2b3d 3694 ba3d
00000040: 662c 173e 160c a33c 8d8d a7ba d611 42be
00000050: 0b90 073e 65c6 e2bd a417 b73d 8c57 363e
00000060: 9b09 713d 5831 453e 4179 373e 4e9d 57be
00000070: 91d5 273e 0c50 403e d7eb ac3d 6ede 4d3e
00000080: b0a9 253d e9ec 87be 83b7 0d3e f78c 873e
00000090: 4df3 63bd 6981 18be f689 ca3d 1287 df3a
000000a0: 28cc dd3c 4cc1 c53d 5c83 d6bd b879 503e
000000b0: 769e d43c 7744 35bd f324 543d 6f0a af3d
000000c0: 9d55 b03d e3eb e33d 8163 0cbe 7914 b2bc
000000d0: 49aa 4abe 68f4 833e 3a8a 9d3e 2f63 0cbe
000000e0: 3bed 9b3d bd0e ea3b 6be7 35be f0b3 e53d
000000f0: 1fd8 8b3e 107e 07be e827 bb3d 8e2e 333d

pre_processing_batch_norm.1.running_mean f4 [64]
0.7362914 -0.0025785684 -0.3387277 -1.0609099 -0.13246582 0.25351065 0.27868703 0.3876158
0.59716195 -0.86126745 0.22715275 1.1137079 0.76200753 -0.3848989 -0.5406816 0.54909307
0.28166467 -0.13197401 0.7330974 -0.7270852 0.19639279 -0.6070739 -1.2475598 0.551418
-0.22256885 0.6755916 0.5963054 -0.43300977 0.41445062 0.768426 0.56005365 0.67031837
-0.3369143 -0.26114458 0.30557135 1.1074036 -0.38353902 0.58193564 0.5118636 -0.52617246
-0.30288318 0.6461901 -0.067232706 -0.20183097 -0.4260206 -0.3584744 0.72925633 -1.1753857
-0.03824558 0.006241608 0.056287427 -0.2151599 -0.40177572 1.0743638 0.6047296 0.02655626
-0.34731457 -0.58806974 0.19554539 -0.4205074 0.305463 -0.037388112 0.7992833 -0.8750404
00000000: 987d 3c3f 33fd 28bb b86d adbe e5cb 87bf
00000010: 1fa5 07be 26cc 813e 11b0 8e3e 9475 c63e
00000020: 9bdf 183f 067c 5cbf bb9a 683e fb8d 8e3f
00000030: ed12 433f 7811 c5be 1c6a 0abf 5d91 0c3f
00000040: 5a36 903e 3224 07be 45ac 3b3f 4122 3abf
00000050: 311b 493e 3269 1bbf 0ab0 9fbf bb29 0d3f
00000060: 17e9 63be 92f3 2c3f 78a7 183f 75b3 ddbe
00000070: df32 d43e 91b7 443f ad5f 0f3f fc99 2b3f
00000080: 0880 acbe beb4 85be d973 9c3e 67bf 8d3f
00000090: 3a5f c4be bcf9 143f 7e09 033f 3db3 06bf
000000a0: 8113 9bbe b76c 253f 4db1 89bd c7ac 4ebe
000000b0: 5f1f dabe f589 b7be 8bb0 3a3f 0a73 96bf
000000c0: 66a7 1cbd 6786 cc3b a58d 663d e052 5cbe
000000d0: 8cb5 cdbe c184 893f 8fcf 1a3f 848c d93c
000000e0: 37d3 b1be bd8b 16bf 0d3d 483e bf4c d7be
000000f0: a565 9c3e 4724 19bd d59d 4c3f a602 60bf

pre_processing_batch_norm.1.running_var f4 [64]
6.666772 3.6702986 3.8044755 3.6133463 2.7070181 3.1650531 3.2430964 3.8514307
3.8611393 3.5106866 2.8033006 9.772513 3.2300117 2.5847344 6.336247 4.9235687
2.981828 2.523658 3.271621 3.1377091 1.2557167 4.9934597 5.3013263 3.6329424
1.4742013 4.0099845 4.001426 2.8340743 2.8834815 4.587422 2.4459586 3.5784557
2.0711205 2.0510347 1.7971002 4.6338778 2.5013912 1.4001199 6.849614 1.4439456
3.0037398 2.8688161 1.0883875 5.2213163 4.8123116 2.6485326 3.260293 7.0333686
3.149367 3.0754902 1.8913678 1.5152515 2.1625674 3.9652953 4.7407928 2.4629064
2.5272782 1.67604 5.043768 3.7061229 2.2581584 2.308534 3.3742137 5.6942906
00000000: 3256 d540 2ce6 6a40 877c 7340 1141 6740
00000010: c93f 2d40 3b90 4a40 e48e 4f40 d77d 7640
00000020: e81c 7740 17af 6040 4769 3340 375c 1c41
00000030: 83b8 4e40 4a6c 2540 89c2 ca40 e08d 9d40
00000040: 45d6 3e40 9d83 2140 3d62 5140 3ad0 4840
00000050: 53bb a03f 6cca 9f40 77a4 a940 2182 6840
00000060: a1b2 bc3f cb51 8040 af0b 8040 7961 3540
00000070: f68a 3840 29cc 9240 968a 1c40 6b05 6540
00000080: 3d8d 0440 2744 0340 6107 e63f ba48 9440
00000090: cb16 2040 2137 b33f 0a30 db40 36d3 b83f
000000a0: 463d 4040 af9a 3740 4850 8b3f 0615 a740
000000b0: 75fe 9940 8f81 2940 a4a8 5040 5b11 e140
000000c0: 3b8f 4940 d5d4 4440 5718 f23f c3f3 c13f
000000d0: 8167 0a40 66c7 7d40 93b4 9740 42a0 1d40
000000e0: edbe 2140 7b88 d63f 8c66 a140 1e31 6d40
000000f0: ab85 1040 05bf 1340 1ef3 5740 a137 b640

pre_processing_batch_norm.2.weight f4 [64]
0.78106827 0.76699823 0.78154284 1.0261015 1.0369271 0.9786861 0.8429421 0.8450384
0.72416085 1.0388465 0.8616938 0.6700728 0.7476353 0.8265642 0.9503329 0.9833115
0.7649637 0.99513954 0.9547558 0.7382247 0.66468436 0.79023874 1.0176998 0.7348562
0.7178037 0.92533463 0.83164644 0.8880358 0.6357584 0.66643155 0.7603858 0.73731863
0.7839425 0.6958732 0.8518886 0.90245324 0.7808268 1.0913194 0.92920476 0.7450811
1.0533578 1.0042104 0.66572434 0.74641895 0.7463063 0.7574385 0.96261054 0.85299814
0.9090187 1.0763226 0.94962955 0.7609532 0.9338685 0.9435477 0.8209486 0.87961406
0.90910333 0.7869292 0.9518972 0.5648688 0.9611792 0.7948962 0.98955035 0.91029006
00000000: 17f4 473f ff59 443f 3113 483f 4b57 833f
00000010: 07ba 843f 2c8b 7a3f 0ecb 573f 7054 583f
00000020: 9b62 393f ecf8 843f f797 5c3f e489 2b3f
00000030: 0765 3f3f b699 533f 0449 733f 4dba 7b3f
00000040: a9d4 433f 77c1 7e3f e06a 743f 4bfc 3c3f
00000050: c128 2a3f 164d 4a3f fd43 823f 891f 3c3f
00000060: fcc1 373f bbe2 6c3f c8e6 543f 5056 633f
00000070: 10c1 223f 429b 2a3f a5a8 423f eac0 3c3f
00000080: 75b0 483f bf24 323f 5f15 5a3f 2d07 673f
00000090: 44e4 473f 5bb0 8b3f 5de0 6d3f a3bd 3e3f
000000a0: 6ed4 863f f789 803f e96c 2a3f 5015 3f3f
000000b0: ee0d 3f3f 7de7 413f a56d 763f 165e 5a3f
000000c0: 73b5 683f f0c4 893f ec1a 733f d4cd 423f
000000d0: 0212 6f3f 588c 713f b029 523f 632e 613f
000000e0: ffba 683f 3174 493f 89af 733f 3e9b 103f
000000f0: d70f 763f 517e 4b3f 2c53 7d3f c508 693f

pre_processing_batch_norm.2.bias f4 [64]
0.072692715 0.006026991 0.13875286 0.068799116 0.16491035 0.19828083 0.08775956 -0.1507945
-0.073438555 0.10517726 -0.14155997 -0.071666814 -0.12600316 0.09128156 0.1613737 0.19721179
0.21340024 -0.062522724 0.11729281 0.17815581 -0.113846585 0.076419435 0.08308779 0.031079393
0.2993962 0.120608956 0.15422459 0.17776166 -0.23022698 -0.17510015 -0.11047568 0.16880824
-0.109647624 -0.047455177 -0.07887683 0.16062377 -0.049114294 0.16645943 0.2082151 0.1463493
0.26371717 -0.092705615 0.22268334 -0.12592697 0.24133691 0.017787214 0.2717394 0.301378
0.2175944 0.18069832 0.17187203 -0.09551034 0.21583773 0.07783347 0.13440572 0.24323691
0.040889103 0.14788489 0.09570815 0.015852578 0.26117277 0.16309154 0.14466485 0.13447712
00000000: ebdf 943d 117e c53b 3b15 0e3e 8de6 8c3d
00000010: 42de 283e 210a 4b3e 49bb b33d e069 1abe
00000020: f466 96bd 2d67 d73d 19f5 10be 0dc6 92bd
00000030: f906 01be d4f1 ba3d 263f 253e e3f1 493e
00000040: 9885 5a3e ea0b 80bd 3637 f03d 7a6e 363e
00000050: 6628 e9bd cb81 9c3d ee29 aa3d 369a fe3c
00000060: 754a 993e d401 f73d 0ded 1d3e 2707 363e
00000070: 9fc0 6bbe 744d 33be 1341 e2bd 11dc 2c3e
00000080: ef8e e0bd 5c60 42bd 2d8a a1bd 8f7a 243e
00000090: 122c 49bd 5774 2a3e 5736 553e 97dc 153e
000000a0: f005 873e 71dc bdbd 1a07 643e 00f3 00be
000000b0: 0621 773e 7eb6 913c 6d21 8b3e 384e 9a3e
000000c0: 11d1 5e3e fb08 393e 39ff 2f3e ed9a c3bd
000000d0: 9104 5d3e 2867 9f3d a7a1 093e 1913 793e
000000e0: 557b 273d 236f 173e a202 c43d 44dd 813c
000000f0: 70b8 853e 7801 273e 0623 143e 5fb4 093e

pre_processing_batch_norm.2.running_mean f4 [64]
-0.47405064 -0.28827313 0.30441168 -0.29741576 -1.0512682 -0.21912593 -0.79307085 -0.08270134
-0.6515654 -0.57893485 -0.10684701 -0.46688253 -0.8337098 -0.22031341 -0.022980036 0.20242524
-0.32295763 -0.23885205 -0.21458226 0.33168596 0.18056448 0.43738908 0.51288736 -0.3453517
-0.0639908 0.53931653 -0.36667648 -0.7616339 -0.604302 -0.72044164 -0.1635115 0.3160839
-0.39030203 -0.066381775 -0.29470387 -0.5973265 0.48964724 -0.7981519 0.007065494 0.198622
-0.13015477 -0.12611541 -0.20412394 -0.6872615 -0.09762042 0.24000214 -0.021343393 -0.079402134
0.024119094 0.38394174 -0.5326592 0.39577308 0.5286957 0.63223094 -0.26973304 0.47557667
-0.41718012 -0.06831362 0.133189 -0.5590455 -0.21993622 -0.11086307 0.82058585 -0.32280007
00000000: c4b6 f2be 8998 93be d9db 9b3e e146 98be
00000010: f58f 86bf 8c62 60be b106 4bbf 525f a9bd
00000020: fdcc 26bf 1335 14bf 9bd2 dabd 3a0b efbe
00000030: 016e 55bf d799 61be a140 bcbc 9048 4f3e
00000040: b45a a5be a295 74be 74bb 5bbe bed2 a93e
00000050: e5e5 383e 76f1 df3e 964c 033f f0d1 b0be
00000060: 9c0d 83bd a610 0a3f 05bd bbbe 70fa 42bf
00000070: 89b3 1abf dd6e 38bf 8f6f 27be c0d5 a13e
00000080: abd5 c7be 2bf3 87bd 6de3 96be 64ea 18bf
00000090: 0bb3 fa3e af53 4cbf a985 e73b 9163 4b3e
000000a0: 4b47 05be 6624 01be de05 51be 5ff0 2fbf
000000b0: 37ed c7bd 1fc3 753e 57d8 aebc 969d a2bd
000000c0: 6895 c53c 0394 c43e 5a5c 08bf c5a2 ca3e
000000d0: 9a58 073f e3d9 213f 731a 8abe c97e f33e
000000e0: a298 d5be 03e8 8bbd b262 083e 9b1d 0fbf
000000f0: f636 61be 2d0c e3bd ea11 523f 0d46 a5be

pre_processing_batch_norm.2.running_var f4 [64]
2.527649 0.8685472 3.0525794 1.1562278 7.238565 5.255663 4.474379 2.2120748
3.8853018 6.140347 1.8653194 2.4400928 5.894284 1.7153122 1.6192918 4.5104795
1.0317276 2.2211418 1.7837354 2.8885992 1.844389 4.779905 4.6604896 4.6266627
2.6955092 6.0367355 3.8324277 6.4494576 1.8711545 7.220133 1.9250424 4.6476417
0.85910267 2.5317967 1.1520097 6.011258 1.8380054 5.166263 3.3475845 5.3463144
2.520964 2.4539478 1.8584603 4.6511817 4.539498 1.9676591 2.1378126 3.1221662
4.0582604 2.559208 2.0241365 4.4391975 5.1960125 2.1646326 2.0725598 5.6783104
2.0219517 1.6717128 3.3894444 3.926076 3.427411 1.3287469 2.0951316 2.3301466
00000000: 00c5 2140 1c59 5e3f 765d 4340 46ff 933f
00000010: 53a2 e740 642e a840 1d2e 8f40 a292 0d40
00000020: c9a8 7840 b97d c440 c9c2 ee3f 7b2a 1c40
00000030: f99d bc40 5a8f db3f f444 cf3f d955 9040
00000040: a60f 843f 3027 0e40 7151 e43f cfde 3840
00000050: f014 ec3f fbf4 9840 bb22 9540 9f0d 9440
00000060: 3983 2c40 f02c c140 7f46 7540 f561 ce40
00000070: fe81 ef3f 540b e740 ca67 f63f 7bb9 9440
00000080: 27ee 5b3f f508 2240 0e75 933f 3a5c c040
00000090: c343 eb3f 0752 a540 d33e 5640 0215 ab40
000000a0: 7957 2140 7b0d 1d40 07e2 ed3f 7bd6 9440
000000b0: 9143 9140 41dc fb3f ecd1 0840 92d1 4740
000000c0: 45dd 8140 10ca 2340 748b 0140 e80d 8e40
000000d0: bc45 a640 5789 0a40 d2a4 0440 b8b4 b540
000000e0: a867 0140 affa d53f a8ec 5840 d444 7b40
000000f0: b45a 5b40 6114 aa3f a316 0640 1f21 1540
