checkpoints/checkpoints_homogeneous_staging_vessel_graph/DCP_model_1_zx4a6vs1.pt (torch, 23750 bytes, 34 tensors)

pre_processing_lin_layers.0.weight f4 [16, 15]
00000000: d698 943c 0145 2dbe 7eca 1abf 42ac 31bd
00000010: cc6c a5be fe68 b1be f719 88be c541 d6be
00000020: 967d 05be be73 27bd c3c7 f0b8 68c7 a53d
00000030: 16ed 443f e878 0f3f 5a9e b6bc 6962 bdbd
00000040: 7317 0c3e f020 4abe f3f7 cbbe fbfb c2be
00000050: d804 bfbe 1a7d 3abe ac05 e1be a012 e13e
00000060: aa85 be3e 341a 943f c164 cd3e 8c33 183f
00000070: ff20 823e c894 dc3e 5470 9dbe b0bd 5f3e
00000080: 647f 65be 49b4 a6be 5b5e 4fbd 2332 3fbe
00000090: 5fd6 c8be 6e39 3ebe 55be c03e 626d ac3d
000000a0: 8e97 b83e 5104 4a3d 256a 883f b00d 253f
000000b0: 41f5 0c3e 7fbd e43e 3746 4a3e 40b4 0dbf
000000c0: 68d6 8c3f 0a59 bd3e f112 59be 9cae 56bd
000000d0: 17f5 1b3f e63f 3f3e 6705 b9be ade2 ddbd
000000e0: 3e5b 0dbf 1718 933e be4c 043e d54e 30bf
000000f0: cf77 c9bd cf05 713d bc43 54be 1ad0 6d3f
00000100: e770 a83e 9d25 a8be ff18 ac3d 8bbd 083f
00000110: 931b 2a3d c56a 9bbe 350a 203f 31f6 1bbf
00000120: 67a1 623f 7fcb 1a3f 31e6 3abf 4afb 0dbe
00000130: ce4f 66be fab5 f3bd e5fa c53f 7510 d33c
00000140: 08ba 8fbe 3dbf 8d3b 2607 c43e 6bb6 913e
00000150: d1d6 eabe 7096 fc3e 0d01 e9be a057 0b3e
00000160: 09d6 f13d 1230 30bf 1e16 86bc fc16 3dbe
00000170: e845 28bf cf8b a1be 36e8 b9bc 2785 5dbd
00000180: f66e 6ebd 83d0 3c3d 652a d93e 9369 1c3f
00000190: 1d78 4e3f 03a5 b8be 74a5 a6be fa3c bcbe
000001a0: 376f 8e3e a477 7c3d 0969 143e 1770 7fbe
000001b0: 5b1f c03e f3fb 8d3e 2ba1 61be 5883 93bd
000001c0: aaab 143e 26c5 8c3e 02b1 13be 2dcb 313e
000001d0: f7cb a13c fd35 4a3f 9d79 683e b6a5 013e
000001e0: 9fd2 693d b26f a73d 538e 19be a741 8a3f
000001f0: 996a 5e3e e6ca 133c e95e 0a3f 0055 b33e
00000200: 9b21 11be 437e cdbe f39f 0b3e 2c08 3c3e
00000210: a366 7b3e 8961 093f f67a 5d3e 79f3 27bf
00000220: c027 ccbe 3973 debe 7fbc 1ebf 90a2 77bd
00000230: b0de efbd 3473 2dbe b1aa 733e 6ff5 013e
00000240: 90e1 93be 5232 87bc 8140 853e cb31 1c3f
00000250: a844 023f 2691 64be 6e70 54be 1e45 56bd
00000260: a258 a6bd 77ba 943f 612c 5b3e d3c4 683d
00000270: d6a1 183d e4f7 ac3e 4ba9 aebe 72a4 a3be
00000280: c6be 983e e579 f53d b383 af3e 35ce fd3e
00000290: 4e69 86bd c2d8 a43e 9c70 153d 1f66 b4be
000002a0: 126b 71be ce48 42bf f8b6 923c 91c1 0a3e
000002b0: 504c 00bf 3526 ba3e 21df 3d3f e86f 5f3f
000002c0: d102 dcba 0d1a cb3e 2fef 3b3d c3c3 37bd
000002d0: 872a 86be a5fb b23a fddd 27be 3df5 923f
000002e0: d535 a83e 49b3 95bc 9cb5 773e dfda b73e
000002f0: 828e 59be f25c a7bd 6036 8d3c e7df 23bf
00000300: b47c 063f 759b f53e 5628 f4be e5bf febd
00000310: c4f5 96be f360 9cbd 406e 71be 6b65 0ebe
00000320: ff3f aa3e 811c 6a3e 5238 42be 178c 0ebe
00000330: cba0 9b3d 4385 59bb 8e62 f1be 2158 0bbe
00000340: 87ea 7cbe 87c6 11bf adc9 b43d 11da 7dbd
00000350: 4155 17be 6767 aa3f c0d7 783e ac69 adbc
00000360: 39ce 033d 14d9 053f a32e 1d3e f57a 41be
00000370: cbf7 cf3d f683 9abe 985f a13e b124 d83d
00000380: b6cf 1bbf 661f dfbe 880d 48be 6012 623e
00000390: 0474 53be a86f 0bbe 61ec 6e3e 2121 683e
000003a0: 7b9d 433d 839e 95bd cd71 44bd 9d97 20bd
000003b0: ad2e e8be 5af0 85be 3524 0abe 6685 f6be
0.018139284 -0.16920854 -0.6046523 -0.04337717 -0.32309568 -0.34650415 -0.2658231 -0.41847053
-0.13036188 -0.040881865 -0.000114813 0.08094674 0.76924264 0.56043863 -0.022292305 -0.09247286
0.1368082 -0.19739127 -0.39837608 -0.3808287 -0.37308383 -0.18211785 -0.4394964 0.43959522
0.37211353 1.1570497 0.40115932 0.59453654 0.254158 0.4308226 -0.30749762 0.21849704
-0.22411877 -0.32559422 -0.050627094 -0.1867147 -0.39226052 -0.18576595 0.37645212 0.084193006
0.36053127 0.049320523 1.0657393 0.6447401 0.13765432 0.44675824 0.19753347 -0.55353165
1.1002932 0.36981994 -0.21198632 -0.052412614 0.6092085 0.18676719 -0.36136934 -0.108342506
-0.5521735 0.28729317 0.129199 -0.6887029 -0.09837305 0.05884343 -0.20728964 0.9289566
0.32898638 -0.32841197 0.08403205 0.5341422 0.041530203 -0.30354896 0.62515575 -0.60922533
0.8852753 0.6046676 -0.73007494 -0.1386539 -0.2249138 -0.11899944 1.5467192 0.025764683
-0.28071618 0.004325776 0.38286704 0.28459486 -0.45867017 0.49333525 -0.45508614 0.13607645
0.11808402 -0.6882335 -0.016367968 -0.18465799 -0.6573167 -0.31551978 -0.022693735 -0.054082062
-0.05821129 0.04609729 0.42415157 0.61098593 0.8065203 -0.36063394 -0.32548106 -0.3676527
0.27819225 0.061637536 0.14493193 -0.24945103 0.37523922 0.27731284 -0.22034137 -0.07202786
0.1451861 0.27494162 -0.14422992 0.17362662 0.019750578 0.7898863 0.22702642 0.1266087
0.05708563 0.08175601 -0.14995699 1.0801286 0.21720351 0.009020543 0.5405107 0.35025787
-0.14172976 -0.40135393 0.13635235 0.18362492 0.24550872 0.5366445 0.21628937 -0.65605885
-0.39874077 -0.43447283 -0.6200637 -0.060457766 -0.11712396 -0.16938478 0.23795582 0.12691282
-0.28883028 -0.016503487 0.26025775 0.6101348 0.5088601 -0.22320995 -0.20746014 -0.05231201
-0.08122374 1.1619405 0.21403648 0.05682833 0.037263714 0.33782876 -0.34113535 -0.319614
0.2983305 0.1198614 0.34280166 0.49571386 -0.06563054 0.32196623 0.036484346 -0.35234162
-0.23576 -0.7589234 0.017909512 0.13550402 -0.50116444 0.36357275 0.7416859 0.8728013
-0.0016785507 0.39668313 0.0458824 -0.044864427 -0.2620432 0.0013655318 -0.16393276 1.1481091
0.3285357 -0.018273966 0.24190372 0.35909173 -0.21245769 -0.08172025 0.017237842 -0.6401352
0.5253403 0.47970167 -0.47687024 -0.12438945 -0.2948438 -0.07635679 -0.23577213 -0.13905875
0.3325195 0.22862436 -0.18966797 -0.13920628 0.07599028 -0.0033191002 -0.47145504 -0.13607837
-0.2469884 -0.56943554 0.08827529 -0.061975542 -0.14778616 1.3312806 0.24301052 -0.021168552
0.03217909 0.5228436 0.15349822 -0.1889456 0.10154685 -0.30178803 0.31518245 0.10553873
-0.60863817 -0.43578643 -0.19536412 0.22077322 -0.20649725 -0.13616812 0.23332359 0.22668888
0.047757607 -0.07305624 -0.04796009 -0.03920709 -0.4534811 -0.26159936 -0.13490374 -0.4814865

pre_processing_lin_layers.0.bias f4 [16]
00000000: 023d 0ebe bcad a6bc e513 5f3d dd84 f83d
00000010: 31c0 0dbe 17df af3c 3079 44be 9c11 06be
00000020: 0546 eb3d 897f 27bd 479a 15bd fbdd 61bd
00000030: 5ed0 8abe d87d 613e 56d1 c13d 1a65 1cbe
-0.1389046 -0.020346515 0.054462332 0.12134717 -0.13842846 0.021468682 -0.19186854 -0.13092655
0.114879645 -0.04089311 -0.036524083 -0.055143338 -0.27112097 0.22020662 0.09463756 -0.15272942

pre_processing_lin_layers.1.weight f4 [16, 16]
00000000: 5bb2 04bb 43ce a8bc 593e bb3d 839b 8b3e
00000010: 1bb5 b63e 948b ae3e 1338 083d 2515 743d
00000020: f27f 53bc 944b 0c3e 2e0d d0bd 1fed b7be
00000030: 76ea 093f be89 f13d 6a9a 9c3e 9124 d0be
00000040: 3d79 823e 5c5f c63e b032 ea3e 8334 86be
00000050: 2ccd 953e 9e1f a8be 22fb 143e 658b b93e
00000060: 9f2b 24be 9a0d 5e3e 5946 7fbd 636b 873d
00000070: b013 92bd 8a13 77be 9be8 79be 0f6a 3bbe
00000080: 3152 7a3e 7292 a9be 64dc 48bd 6cbe b33e
00000090: 7b3c 693d 1745 3f3f c2f8 5abd e784 f53d
000000a0: b2ee af3e 688a f3bd f7ac 813e 3c7e b2be
000000b0: 2889 943e 2732 323d 872d dc3e d98f 38bd
000000c0: c9a0 dbbd 638f 7c3e 021f c0be d216 00bd
000000d0: 1d43 403f 650e 013f 6fad 34bd 6c32 2a3e
000000e0: 8dbb 03be 6079 e03d dd9a ca3e 92a0 84be
000000f0: 2b89 203f 19ae 9d3e f8db f33e adaf 0e3e
00000100: 50af 81be 6d89 d9bc 0b13 75be 749c b1be
00000110: 6d12 96bd feea 65be a4fb a0bd 3ea0 39be
00000120: 2406 ba3d db9f a6be 0799 d53d 3d14 8ebe
00000130: b93a a7bd 7a7c babe e1be 39be c43c 4fbd
00000140: cf2a 27be d8b7 3fbf 59a1 1cbe 30aa af3e
00000150: 2e24 09be 3511 643f 4ac0 99be eac7 eebd
00000160: e2c2 e83d 98cb 1bbc 7f74 143e c346 5bbd
00000170: e883 ba3e e1d7 483e 99f8 2f3f efa7 2f3f
00000180: 09c7 573d fc61 bd3e 2d19 7a3d b1b0 7fbd
00000190: 4756 1b3f c85b 4c3e 56b2 acbe d468 a73e
000001a0: b79d 163e 3ee8 f53d e9a5 a13e 7f49 c63d
000001b0: 05ce 4d3f 2543 a13d de4c 8b3e 8c8a aebe
000001c0: 431a c83d 2688 ad3e ef0e 86bc 74dd 55be
000001d0: 88cf a4be d5d5 14bf 593d ef3e 7a1a 3fbe
000001e0: 1dc5 b4be e3d9 b6bd ab01 e8be 55d9 ac3e
000001f0: 4a98 69bf 9b63 d63d cd28 b7be eab9 b13d
00000200: 59b8 6cbc bde6 c43e aa2e 033d 5a3b c5be
00000210: 31a7 32be 1a9e 1bbf 8bef cabd 1099 5abe
00000220: 1226 90bd b7a2 52be 0e30 9dbe 4e93 293e
00000230: 835b 29be 8fff 6d3d 7df2 efbe 035a 693d
00000240: 1046 85be 93b7 553f 08e4 af3e 789b 4bbf
00000250: 60b0 a63e 6fc5 7abe 3e5d 38bd 3d25 20be
00000260: e252 40be f231 5b3e 79d2 19be 6bdf b93e
00000270: c5c7 19be 8e61 803c 616b 2fbf 7716 5abe
00000280: f861 56bc 0170 ac3c 77aa 173d 2cae a73e
00000290: 6dba cb3e cb9b f23e 1b95 05be 55d7 843d
000002a0: 9981 0a3f cda3 26bd 546a 2e3f 7ae9 133e
000002b0: e338 543f a8e7 e83d d146 6b3e 65cd 0c3e
000002c0: f53d 05be 4018 39bf d249 55be dee5 313e
000002d0: dca0 31bf f9e8 14bb 62fd 253f 5cfc 6abc
000002e0: 8f8d 87be d686 8abe 6f0c 97be 38fe 663b
000002f0: a0b9 edbe 62a5 f33d b041 a93d 35d4 8ebd
00000300: 874e c3bd 9942 633f 5cd5 a63e 98d4 c5be
00000310: 2dff 9c3e 845a d9be 3f97 1f3e 1c46 d4bd
00000320: 66e9 99be eb34 853d 5ae9 93be 5000 a13e
00000330: a003 d3bd a613 47be a7c7 d5be a4ad 06bf
00000340: 8d40 43be 4f2a 2ebf 724a dd3d ca3a 0a3f
00000350: 3958 973e cfc1 403f 7c3b 66bd dd00 9a3d
00000360: dfbb 903d f425 7d3d d45b 783c c72f b0be
00000370: a8ee e83e ed05 30bc d2bc 4b3f 5162 103e
00000380: ef50 89be e9de be3d ac54 8dbe f1af 27bd
00000390: 8810 c23d bc63 fa3d 5a5b cfbd 5b15 09bd
000003a0: c4e1 1f3e a6ae 05be 1524 e93e 0725 14be
000003b0: 0e9b 663e 40f3 d5be 8413 d13e 9f75 353e
000003c0: 76ba 08be ff9b d8be 5715 29bd 2643 c43e
000003d0: da1d 8a3e aba4 e23d 073e b8bb 327f 0bbd
000003e0: 9468 f13e d020 e93d c35a 7e3e ef4a 883c
000003f0: 1be1 a53e ffb3 fe3d 5847 b63e 810c a33c
-0.002024791 -0.020606166 0.09142751 0.27267084 0.35685048 0.34090865 0.0332566 0.059590477
-0.0129089225 0.13700706 -0.10158764 -0.35923097 0.53873384 0.1179385 0.3058656 -0.40652898
0.25483122 0.38744628 0.45741796 -0.26211938 0.29258096 -0.32836622 0.14548925 0.36239162
-0.16032265 0.21684876 -0.062322948 0.06612279 -0.07132661 -0.24128547 -0.24405138 -0.18302177
0.24445416 -0.3311954 -0.049038306 0.35106218 0.056942444 0.747148 -0.05345989 0.1198824
0.34361798 -0.11891633 0.25327274 -0.34861934 0.29010892 0.04350486 0.43003485 -0.04505906
-0.10724027 0.24664073 -0.37523657 -0.031271763 0.75102407 0.5041259 -0.04411071 0.16620797
-0.12864514 0.109606504 0.39571276 -0.25903755 0.627093 0.30796888 0.4762876 0.13934202
-0.25329065 -0.026554788 -0.23933046 -0.34689677 -0.07327733 -0.22452924 -0.07860497 -0.18127534
0.090832025 -0.32543835 0.10429578 -0.27749816 -0.08165497 -0.36423093 -0.18139221 -0.05059506
-0.16324924 -0.748899 -0.15295924 0.3430953 -0.13392708 0.89088756 -0.30029517 -0.11659224
0.11365296 -0.00950899 0.14497565 -0.05353428 0.3642876 0.19613601 0.68738705 0.6861562
0.05268005 0.3698882 0.061059166 -0.062424365 0.60678524 0.19956887 -0.3372981 0.32697165
0.14708601 0.12007187 0.31571892 0.09681987 0.80392486 0.07874135 0.27207083 -0.34090078
0.09770634 0.33892936 -0.016364543 -0.20885259 -0.32189584 -0.5813878 0.46726492 -0.18662444
-0.35306635 -0.08928277 -0.45313773 0.3375956 -0.91248 0.10468217 -0.35773316 0.086780384
-0.014448249 0.3845729 0.032026924 -0.38521844 -0.17446591 -0.6078812 -0.099089704 -0.21347451
-0.07038511 -0.20569883 -0.30700725 0.16560099 -0.16538815 0.058105048 -0.4686469 0.056970607
-0.26030016 0.8348324 0.34353662 -0.795341 0.32556438 -0.24489377 -0.045010798 -0.15639205
-0.18781617 0.21405771 -0.15021695 0.36303267 -0.15017612 0.015671518 -0.6852322 -0.21297632
-0.013084881 0.021049501 0.037027802 0.3275007 0.3979067 0.47384486 -0.1304516 0.06486384
0.54104 -0.040683556 0.68130994 0.14444533 0.828993 0.1137231 0.22976233 0.13750227
-0.13011916 -0.7230263 -0.20828941 0.17372844 -0.69386077 -0.002272187 0.64839756 -0.014342394
-0.26475188 -0.27055997 -0.29501674 0.003524674 -0.46430683 0.11896779 0.08264482 -0.06974069
-0.09536462 0.88773495 0.32584655 -0.3863876 0.30663434 -0.4245187 0.1558504 -0.10364935
-0.3006088 0.06504234 -0.2888897 0.3144555 -0.10303426 -0.19441089 -0.41753885 -0.52608705
-0.19067593 -0.6803331 0.10805215 0.53995955 0.29559496 0.7529573 -0.056209072 0.07519696
0.070670836 0.061803773 0.015158612 -0.3441145 0.4549458 -0.0107436 0.7958499 0.14100005
-0.2681956 0.093198605 -0.27603662 -0.040939275 0.09475809 0.12226054 -0.10124846 -0.03346763
0.15613467 -0.13054904 0.4553534 -0.1446725 0.22520086 -0.41787148 0.40835202 0.1772065
-0.13352379 -0.42306516 -0.041280117 0.3833248 0.269759 0.11066564 -0.0056226286 -0.03405685
0.471501 0.113832116 0.2483931 0.016637294 0.32398304 0.12436675 0.35601306 0.019903423

pre_processing_lin_layers.1.bias f4 [16]
00000000: b2ab 933d da33 1dbe c0f2 06be 78dd 83be
00000010: 10d2 c63c 0581 343d 2769 2c3e 0722 10be
00000020: c2cf 84bd f1db 3e3e 6980 2a3d 7f76 253e
00000030: 7a55 553e 4518 25ba 3183 1dbd 0b82 bbbd
0.07210483 -0.15351811 -0.1317854 -0.25754905 0.024270087 0.044068355 0.16836987 -0.1407548
-0.06484939 0.18638588 0.041626368 0.16158484 0.20833388 -0.0006297867 -0.038455192 -0.09155663

pre_processing_batch_norm.0.weight f4 [16]
00000000: d066 223f 07d7 b13f 9b38 513f daea 963f
00000010: a879 883f 8553 c23f 76c2 453f 7bab 0e3f
00000020: 81bf 193f b529 193f ebca 783f 12c8 293f
00000030: 621c 933f abc1 173f 08d6 b83f fb7b 3a3f
0.6343813 1.3893746 0.81727 1.1790421 1.0662127 1.5181738 0.7724985 0.5573041
0.60057837 0.59829265 0.9718463 0.6632091 1.1493037 0.5927989 1.4440317 0.7284543

pre_processing_batch_norm.0.bias f4 [16]
00000000: 77fb 063e a879 69be c92f 6cbe 4726 2dbe
00000010: b6ae 95be 46d3 d7be 5e6d 1dbf 7970 ce3d
00000020: 2823 59bf dc18 e13e 9362 24bf be12 0e3e
00000030: 38ed 4cbf c50b 353e 3ba5 53be a489 fa3e
0.13181864 -0.22800314 -0.23065104 -0.16909133 -0.29234856 -0.42153376 -0.61495006 0.10080046
-0.8481927 0.4396428 -0.6421291 0.13874337 -0.8004947 0.17680271 -0.20668499 0.48933136

pre_processing_batch_norm.0.running_mean f4 [16]
00000000: 356c 21be 8f2d 22bd 7a90 183d 24f8 1a3e
00000010: ddfb 00be 04e7 2b3d ddd3 44be 1523 febd
00000020: d06a 053e 14d6 86bd a238 ebbc 5d68 8dbd
00000030: 7eed 83be 1261 5b3e 6093 ec3d 6db7 22be
-0.15763934 -0.03959423 0.03724716 0.1513372 -0.12596078 0.04196836 -0.19221444 -0.12409035
0.13029027 -0.06583801 -0.028713528 -0.06904671 -0.2576713 0.21423748 0.11551547 -0.15890284

pre_processing_batch_norm.0.running_var f4 [16]
00000000: 0bc8 4540 7541 8040 298d 3940 f0d8 b940
00000010: 3650 8240 0109 5340 425a 4640 66ed 1240
00000020: fd18 aa40 3d98 9f40 b359 2740 ff4f ae40
00000030: 5212 1640 8410 1c40 790b 7140 2f9d f13f
3.0903347 4.0079904 2.8992407 5.8077316 4.0722914 3.2974246 3.099259 2.2957397
5.3155503 4.987334 2.6148498 5.447265 2.3448682 2.438508 3.7663252 1.8876094

pre_processing_batch_norm.1.weight f4 [16]
00000000: 3956 cd3e f4d9 773f a9d7 893f 9985 8c3f
00000010: e233 e73e 23ef b83f 6aeb 6a3f 6538 bb3f
00000020: 1f6e 803f f8cc a53f e07f 8b3f 7f07 903f
00000030: 515d a33f 3c9b c23f a718 5e3f a411 793f
0.40104845 0.96816945 1.0768939 1.0978271 0.4515677 1.4447979 0.91765463 1.4626585
1.0033606 1.2953176 1.0898399 1.1252288 1.2762853 1.5203624 0.86756366 0.9729254

pre_processing_batch_norm.1.bias f4 [16]
00000000: 30be 4abc 6bcc 1bbe 0d57 513e f415 3b3e
00000010: 5ceb 033d 39d3 043f 4b7f 41bd c41e c93c
00000020: bfe5 b33c 9093 6fbe 3b9b d33d 6f9c 823e
00000030: b0fa 9ebd f520 563e 07ed 78ba 2a95 033e
-0.012374446 -0.15214698 0.20443363 0.18270093 0.032206878 0.518848 -0.047240537 0.024550803
0.021960137 -0.23396134 0.10332342 0.25509974 -0.077626586 0.2091101 -0.0009495769 0.1284987

pre_processing_batch_norm.1.running_mean f4 [16]
00000000: ed81 d93e 20ea 1cba 7292 b33e 3e53 3c3f
00000010: 6ecc 63bf bfc1 573f 72a9 633f 1494 1ebf
00000020: ac28 2dbf 4266 abbb 5323 803f 2bb0 08bf
00000030: c6de 6dbd dd26 343f ba9c 5f3d f7ad a43e
0.42481938 -0.0005985815 0.35072666 0.7356452 -0.8898381 0.8428001 0.8893043 -0.619447
-0.67640185 -0.005230696 1.001078 -0.5339381 -0.05807378 0.703718 0.054592825 0.32163975

pre_processing_batch_norm.1.running_var f4 [16]
00000000: 5a27 e73f 6728 853f ecd7 4d40 759f 4140
00000010: bd64 1c3f b4bc 8b40 759e 1a40 8879 8840
00000020: aff8 3c40 ec34 5740 07db 5f40 07e1 993f
00000030: fbf9 2040 1825 bc40 0b36 4d3f f88e c53f
1.8058884 1.0402955 3.2163038 3.0253575 0.61091214 4.366785 2.4159214 4.2648354
2.9526784 3.362605 3.4977434 1.2021798 2.5152576 5.879528 0.8016059 1.5434256

post_processing_lin_layers.0.weight f4 [16, 16]
00000000: 3600 9bbe d180 a7be fbcd 6abe 5566 8ebe
00000010: c5de 943d 1032 80be c063 35be 2c2b 8e3d
00000020: 419a 8e3e 5349 af3b c223 6bbd a69f a63e
00000030: ea02 00be d4f5 25be 565f a7be 856e bc3d
00000040: d638 953d e70b fa3e 8af2 febc 96b7 9e3e
00000050: 3d73 fcbe 83d4 45be 5b7e 5dbb 0538 bbbe
00000060: 4d02 f6be 2464 383e 3e84 cbbd 2e04 a3be
00000070: eff0 5e3f a299 0c3d d06b 0dbf d893 53bf
00000080: 1887 0d3f 53d0 833e 9356 cc3d a0de 88bd
00000090: 4670 a1be fd1d 2d3e d381 b33e 6c72 73be
000000a0: 0c04 06be bc22 283e 9a3c 82be 8289 68be
000000b0: ed90 a23e bc03 a8be 0cc9 34be 84b1 42bf
000000c0: 973c ff3d 20a7 613e dfe4 acbe edec 01be
000000d0: a30b 973e 45fe 6abc cbf4 223c fc3f 35be
000000e0: 1ee6 e93a 61bf 3ebf e906 393e 82d5 4abf
000000f0: 5eb1 8b3e 34bc 163d 4d08 12be 3c64 bbbd
00000100: 4e9d 2a3e 0009 a83e fec6 153e f3a7 a63e
00000110: 6a63 d8be ac13 3abe 5b18 653d 3650 8ebe
00000120: 57f0 8cbe 38b2 5ebd 2f0a 8c3d ebea 25bd
00000130: a750 883e aaac 67bd aadb 85be fb0d 03bd
00000140: ba6f 8cbd 2bab 62bb 394c 5dbd f228 cfbe
00000150: 4dfd 313f 105b 65be 4764 cd3d 265a c43d
00000160: d745 9b3e 140c 1ebf 66fe 51be 7209 fa3d
00000170: 23fe 3dbe b2ab 2dbd b5ac b53e 304c a03e
00000180: e75f f53e 4b44 393f 44b0 09be b831 b5bd
00000190: 637f 11bf b4a0 6fbe c1e1 11bd 04e5 21be
000001a0: 05f9 1dbf 174e 573e a7d9 a0bd 1478 76be
000001b0: 9080 ba3e f5a8 6cbe 5efd ffbe 9288 49bf
000001c0: 7e31 0d3f ffec ab3e eadc e53d 464f 56bd
000001d0: e5af dbbe 781a f33e 532e 3c3f 9d51 d1bd
000001e0: 9c0e e3bd 2680 103e 826f 57bd 9b3b f8be
000001f0: df6f 243d c817 26be f72a 973d de31 19bf
00000200: a70d a6be 2b19 5a3d fe15 283e 16cd b4bd
00000210: 3181 20be 4900 d0bd 0788 f4be d6bc 943e
00000220: 7156 78bb 5f1b be3e 1fbc 02bd 5334 4f3f
00000230: 8199 07bf d7a8 35bb 99f2 82be d58b a63e
00000240: a0e4 253e fcea a3bd b6c5 f9be 6d79 fcbe
00000250: a4ae 123f 7a39 63be 5e9c 01be 513c 2bbd
00000260: afac 0f3e 03be ebbe 530f f53c 7b9a f3bd
00000270: f9c0 673d 386c 59bd fd57 993e a007 ca3e
00000280: d622 e73e 660c 483e 1ad7 bf3e 9503 45be
00000290: 47c3 31be eb66 033f 1803 443e 0259 d2bd
000002a0: b855 53be 6f9a 6cbe e0b3 b8be b4c4 ebbe
000002b0: 915e 6e3e 4bf6 26be a359 493e b995 ddbe
000002c0: 1bf0 61be c893 bcbd a4e9 7abe 2456 24be
000002d0: a0f0 83bd 26ef 7a3d 4e05 82be 3c1c c53e
000002e0: d973 cf3d 925e 183e 78fc 27bd ddeb 9f3e
000002f0: 9a12 08be cb2d bbbd 8a5e 14be 129f 953d
00000300: 6020 233e 3d95 b73e 8766 52be d9e9 a8be
00000310: f93f 413e be3a ab3d 1cb6 2bbd b90b aabe
00000320: 6b6e f9bd 94e6 17bf 1d36 223e d6e1 35bf
00000330: 8e64 3d3e 97bd c83d fcaa 753e 078d 803e
00000340: 940b 4c3e 6b33 2e3e 8507 af3e 1c9f a33e
00000350: 5856 c6be ba78 313d aab9 4a3e 7c40 29be
00000360: d9a2 37be da87 993d dd38 04be 7df8 6fbe
00000370: d81f 003f d2b7 8dbe e2bb 5cbd 01e5 72be
00000380: e1ad 92bd 353c a3be e810 e1be bd2c c7be
00000390: 6fd7 193f d407 24be 3348 203e a278 92bd
000003a0: 748f 1f3e 10ee 61bf 02b3 0fbe 60f7 8abe
000003b0: d760 d03b 65c2 c9bd 2883 4a3d b1f4 1d3f
000003c0: 0ebd 053f ec23 0fbe 1045 b53e 9a36 193e
000003d0: 3e97 31be 4574 003f b207 e83e de22 a9be
000003e0: 23b1 9ebe d036 98bd 0a42 0e3d e05f adbe
000003f0: 0640 ab3e 4704 473e a102 5f3e 6f2c fbbe
-0.30273598 -0.32715467 -0.22930138 -0.27812448 0.072690524 -0.25038195 -0.17713833 0.06941828
0.2785206 0.005349317 -0.05740715 0.32543677 -0.12501112 -0.16207057 -0.32689923 0.092007674
0.07286231 0.48837206 -0.031121511 0.3099944 -0.4930667 -0.19319348 -0.0033797238 -0.36566177
-0.4804863 0.1800695 -0.099373326 -0.31839126 0.87086385 0.034326203 -0.55242634 -0.82647467
0.5528426 0.25744876 0.0997745 -0.06683087 -0.3153097 0.16905971 0.35059986 -0.23774117
-0.13087481 0.164195 -0.2543686 -0.22708705 0.31751195 -0.3281535 -0.17654818 -0.7605212
0.124627285 0.2203641 -0.33768365 -0.12688036 0.29501066 -0.014342849 0.0099460585 -0.1770019
0.001784507 -0.7451077 0.18069042 -0.7923204 0.27283758 0.03680058 -0.14260979 -0.091499776
0.1666157 0.32819366 0.14626691 0.3255001 -0.42263347 -0.18171567 0.05593143 -0.2779557
-0.27527115 -0.05436918 0.0683788 -0.04050724 0.26624033 -0.05656115 -0.26144153 -0.031995755
-0.06857248 -0.0034586887 -0.05402777 -0.40460926 0.6952713 -0.22398019 0.10028892 0.09587507
0.3032672 -0.6173718 -0.20507202 0.12208833 -0.18553977 -0.04240007 0.35483328 0.31308126
0.4792473 0.7236983 -0.13446146 -0.08847374 -0.56835 -0.23401147 -0.035615686 -0.15810019
-0.617081 0.21025883 -0.07854014 -0.24069244 0.3642621 -0.23111327 -0.4999799 -0.78724015
0.55153644 0.3357925 0.11223777 -0.052321695 -0.42907634 0.47481132 0.73508185 -0.102206446
-0.11086771 0.14111385 -0.052596577 -0.48482975 0.04014575 -0.1622001 0.07381242 -0.59841716
-0.3243229 0.05324666 0.1641464 -0.088281795 -0.15674283 -0.101563044 -0.4776003 0.2905032
-0.003789332 0.37130257 -0.031917688 0.80939215 -0.52968603 -0.0027719045 -0.25575712 0.32528558
0.16200495 -0.08003804 -0.48783654 -0.4931139 0.5729773 -0.22189894 -0.12657306 -0.04180557
0.14030717 -0.46043405 0.029914534 -0.11894699 0.056580517 -0.05308172 0.29949942 0.39458942
0.45143765 0.1953598 0.37468797 -0.19239648 -0.17359649 0.51328915 0.19141805 -0.10270883
-0.20638168 -0.23105787 -0.36074734 -0.4604851 0.23278262 -0.16304891 0.196631 -0.43278292
-0.22064249 -0.092078745 -0.2450319 -0.16048485 -0.0644238 0.061263226 -0.25394672 0.38498104
0.10129518 0.14879826 -0.041012257 0.31234637 -0.13288346 -0.09139594 -0.14489189 0.07305731
0.15930319 0.35856047 -0.20546924 -0.32990912 0.1887206 0.083608136 -0.04192172 -0.3321207
-0.12179264 -0.5933621 0.15840955 -0.71047723 0.1849539 0.098017864 0.23991007 0.25107595
0.19926292 0.17011802 0.34185424 0.31957328 -0.3873775 0.043328024 0.19797388 -0.16528505
-0.17933215 0.07496615 -0.12912317 -0.23434635 0.5004859 -0.27679306 -0.053890117 -0.2372017
-0.07162071 -0.31881872 -0.4395821 -0.3890132 0.6009435 -0.16018611 0.15652542 -0.07151915
0.15582067 -0.8825388 -0.1403313 -0.27141857 0.0063592005 -0.09851531 0.049441487 0.61701494
0.522416 -0.13978547 0.35404253 0.14962235 -0.1734285 0.50177413 0.4531837 -0.33034414
-0.3099452 -0.0743233 0.03473095 -0.3386221 0.33447284 0.19435225 0.21778347 -0.49057338

post_processing_lin_layers.0.bias f4 [16]
00000000: b8b2 97bb 099f ed3d 42e0 c3bc 401b 913d
00000010: 8659 ef3d 189b bc3d 1c4f 9b3d f2b2 4e3d
00000020: 4a1c 93bd 2f01 7ebc bd44 2b3c fcc1 27be
00000030: d3db cf3d 4b31 6abe 9fa2 a4bc b1d4 80be
-0.004629459 0.11602599 -0.023910645 0.07085276 0.11686997 0.09209269 0.07583448 0.050463624
-0.0718313 -0.015503212 0.0104534 -0.16382593 0.1014935 -0.22870366 -0.020097075 -0.2516227

post_processing_lin_layers.1.weight f4 [16, 16]
00000000: c6c5 c3bc d86a 97be d83b 28be 425d ee3e
00000010: 88dd e63c 114a 843e c4ed 6ebe eea2 d73d
00000020: 70e8 19bf 4492 a73d 1506 b83d f17f 09bf
00000030: 52e2 153e a3c3 b9be 4392 083f 5b6e 723c
00000040: f99b 2ebc d256 afbd 7c37 8abe f72a e0be
00000050: 7986 0bbe 7b30 b7be 15cc ee3d 4b38 8dbd
00000060: 7403 7d3f 7803 dcbd 403e b33d 0e0f bd3e
00000070: f78f bfbe df60 2abe 463f 9fbe e800 9f3d
00000080: cffb e53d 379b d53e 40e7 df3e 8411 56bf
00000090: c8b4 fd3d ccf0 9fbe 0641 013e 5c8e 0d3e
000000a0: 37eb ac3c bc77 29bf 4b86 563e 870f af3d
000000b0: 3e0f 97be 970b a13e 28a6 08bf a2af 463c
000000c0: 760a c5be ae85 0fbf a525 19be 24d6 1ebe
000000d0: 29ef 493d a9d1 a8be 34ed 9ebe 69f3 08be
000000e0: 5eb7 d9be 144b e5be 5e51 4ebe 3258 c1be
000000f0: d699 f1bd 4efb babe 2561 27be 84a6 75be
00000100: 506f 993d 7754 693d c5bc babe fbdb a7bd
00000110: 2e40 88be 5276 c7be abf2 c33d 8aa4 99be
00000120: 113b 4b3f 2a94 a7bb 67e7 4dbe 1fd7 ca3e
00000130: bf77 93be 2a10 79be c447 3dbe 4405 28be
00000140: 9713 d13d 5e25 0dbf 93f3 4abd ff3c d63e
00000150: 7859 bcbd bae3 ca3e 1726 6cbe 3fb5 283d
00000160: c234 1cbf 784f 913e bae1 563e eddb b3be
00000170: 34dd cf3e ddf7 073c 3d4b e73e da86 5c3e
00000180: a126 763e 440f 803e 09c1 dc3e 7eff 0f3e
00000190: f89b 9c3e c40c 253f 5c1d 393e e3be 3e3f
000001a0: 6324 183e 4574 123e 6828 503f 7323 1f3d
000001b0: e454 f3bd 71f3 d33e bc94 1c3e 0f27 483f
000001c0: 034b 603e 2f79 a33d 70ec 1bbe 395b f03e
000001d0: 820a fa3c a042 a03e 58cf f9bd b78f d83d
000001e0: 6150 e33d 547b 163f 0fa3 19be e6ea 213e
000001f0: 9372 1a3f 284f 0cbe 1952 453f 2cbe 92bd
00000200: dc52 183e 8792 1e3e 8119 87be 3148 dfbd
00000210: 6a9d e73d 0747 debe ce94 65be 440c b8be
00000220: 0752 783e 7960 8c3e 18c1 f9bd 434a 543e
00000230: a989 c9be d40c d23d e3d5 eb3d dd71 b5be
00000240: e041 aebd 8de8 34be 5710 263f 8592 a93c
00000250: 1478 9d3e e693 913c 93d8 a9bd f419 263f
00000260: 3577 26be ba4b 063d 1eb0 0a3f 9834 abbe
00000270: 7e69 863e 2d68 f63e 5cfe b8be f1e9 9a3e
00000280: 7a6c 023d 34a0 eabb 925a c1be c509 dfbd
00000290: e998 aebd 599f 88be d599 733e 2c60 c2be
000002a0: 8bc9 60be 4abb a5be 4b91 27be 42f4 d6bd
000002b0: ae0c 06be e3db 8dbe 8f28 05be 65c3 9ebe
000002c0: 1ffe 80be 8840 5fbf 80fd 53bd 28c6 f1be
000002d0: ccda 18bd d1a6 623e e501 c6be eabd a6be
000002e0: c43a 3c3e 1360 78be 3d38 f0bd 6b8a cfbe
000002f0: c108 16be 544b 95bd 0e97 13be 001f 1dbe
00000300: 1061 cf3c bfd0 033e fa9f ab3f 2b08 95be
00000310: 1e09 9f3e db15 a73d 1481 fe3e 5b57 263f
00000320: 3c97 2dbc 148f abbe 9403 373e a16c c33e
00000330: a68e 18bc 6ca6 573f 8aef 7fbe a918 1e3f
00000340: edd3 06bd 2cdb c73c 7c93 abbe 831b b5bd
00000350: 38a3 89be ca84 203d 68ad 963e 9a7a b0bb
00000360: 942d afbd 8d7f 81be 9ce6 c0be 5714 f03e
00000370: 9c11 89be 68d3 abbe e842 13be 4194 0cbe
00000380: 7212 5ebe 8ca3 95bf 8079 edbe 96f0 80bd
00000390: 6bf6 68be 8029 c8be 5967 0cbf bce1 f6bc
000003a0: 817f 1dbf cd7b eebe e468 bebe b33a b7be
000003b0: ea99 a5be 9b2b dabd aa86 8bbe f7f9 66bd
000003c0: 5006 b7be d955 1cbf 3bf5 99be d3b9 d9be
000003d0: ce8b 8dbe ac14 7cbe 9e7b b4be e1eb 2dbe
000003e0: ebab 0abe be40 2bbf 4a7b 5ebd de9c a3be
000003f0: c3c7 e2be 952b a7be b1cb 4cbf 7692 b0be
-0.023898017 -0.29573703 -0.16429079 0.46555525 0.028181806 0.25837758 -0.23332888 0.10529123
-0.60120296 0.08182195 0.08985535 -0.5371085 0.14637116 -0.3628207 0.5334818 0.014796819
-0.010657304 -0.085614815 -0.26995456 -0.4378278 -0.13625516 -0.35779175 0.11660019 -0.06895503
0.98833394 -0.10742849 0.087521076 0.36925548 -0.37414524 -0.16638516 -0.3110296 0.07763845
0.11229669 0.41719982 0.43731117 -0.83620477 0.12387997 -0.312384 0.1262246 0.13823837
0.021108253 -0.66198325 0.20949666 0.085478835 -0.29503816 0.31454155 -0.53378534 0.012126835
-0.38484544 -0.56063354 -0.14955766 -0.15511376 0.049300347 -0.32972458 -0.31040347 -0.13374104
-0.4252271 -0.44783843 -0.20148227 -0.377626 -0.1179692 -0.36519855 -0.16345651 -0.23989302
0.07491934 0.056965318 -0.36472145 -0.08196255 -0.26611465 -0.3895746 0.095677696 -0.30008346
0.79387003 -0.005114098 -0.20107804 0.3961725 -0.28802297 -0.24322572 -0.18484408 -0.16408259
0.102088146 -0.5513514 -0.049548697 0.4184341 -0.09196752 0.39626867 -0.23061405 0.041188475
-0.61018 0.28380942 0.20984545 -0.35128728 0.40598452 0.008298841 0.4517459 0.21535817
0.24038173 0.25011647 0.43116024 0.14062306 0.30587745 0.64472604 0.18077606 0.7451002
0.1485763 0.14302166 0.81311655 0.038852166 -0.11881426 0.4139667 0.15291113 0.781846
0.21903615 0.07982098 -0.15226912 0.46944597 0.030522589 0.3130083 -0.12197751 0.105742864
0.110993154 0.58781934 -0.15003608 0.15812263 0.60331076 -0.1370207 0.77078396 -0.07165179
0.14875358 0.15485583 -0.26386645 -0.10902441 0.11309321 -0.43413565 -0.22420046 -0.35946858
0.24250041 0.27417353 -0.12195033 0.20731454 -0.3936284 0.10256353 0.11515405 -0.35438433
-0.085086584 -0.17666836 0.6486868 0.020699749 0.30755675 0.017770719 -0.082932614 0.6488335
-0.16256411 0.032787062 0.54174984 -0.33438563 0.2625236 0.48126355 -0.3613156 0.30256608
0.031841733 -0.007160211 -0.37764412 -0.10890535 -0.08525259 -0.26684073 0.23789151 -0.37963998
-0.21951883 -0.32369453 -0.16364019 -0.10495807 -0.13090774 -0.27706823 -0.13003753 -0.3100845
-0.2519388 -0.8720784 -0.05175543 -0.47221494 -0.037318036 0.22133948 -0.3867332 -0.32566768
0.18381792 -0.242554 -0.117294766 -0.40535292 -0.14651777 -0.07289758 -0.14413092 -0.15343857
0.025314838 0.12872599 1.3408196 -0.29107794 0.31061643 0.081584655 0.49707854 0.64977044
-0.010595139 -0.33507597 0.17872459 0.38168815 -0.009311354 0.84238315 -0.2499372 0.6175638
-0.032916952 0.024396501 -0.3351096 -0.08843138 -0.2688234 0.039189138 0.29429173 -0.005385709
-0.08553615 -0.25292626 -0.3767594 0.46890518 -0.26771247 -0.33559728 -0.14380991 -0.1372843
-0.21686724 -1.1690536 -0.4638176 -0.06295888 -0.22750251 -0.39094162 -0.54845196 -0.030136935
-0.6152268 -0.46578828 -0.371894 -0.3578697 -0.3234399 -0.10652848 -0.27251178 -0.05639073
-0.35747004 -0.61068493 -0.30069908 -0.42524585 -0.27645725 -0.2461726 -0.35250562 -0.16984512
-0.13542144 -0.66895664 -0.054316796 -0.31955618 -0.4429303 -0.32650438 -0.7999831 -0.3448674

post_processing_lin_layers.1.bias f4 [16]
00000000: 42d9 43bc 22a5 d4bd 29e3 af3d ea8b 393e
00000010: f861 8bbd fd0c a6bd f53c b7be 91f5 023e
00000020: acda 01be f3b6 933d ac09 5f3e d098 b8bd
00000030: a8ed b23c bbc3 0dbc 11e0 2cbe 2e3d b33d
-0.011953654 -0.10383059 0.08588249 0.18119779 -0.068057954 -0.08107946 -0.35788694 0.12788989
-0.12681073 0.07212629 0.21781033 -0.09013522 0.021841839 -0.008652623 -0.1688235 0.087519035

post_processing_batch_norm.0.weight f4 [16]
00000000: 3b26 eb3e aff3 9e3f 5815 d53f efef 603f
00000010: 4f29 143f af2a 653f 6731 203f 9a94 923f
00000020: bda5 913f b303 9c3f ba4a 693f 9f7e 673f
00000030: ec95 943f f3c2 613f ca62 a23f c674 7e3f
0.45927605 1.2418116 1.6647139 0.8786611 0.5787553 0.89518255 0.6257538 1.14516
1.1378704 1.2188629 0.9112965 0.90427583 1.1608253 0.88188094 1.2686398 0.9939693

post_processing_batch_norm.0.bias f4 [16]
00000000: 7970 113e fa37 ac3e 1cf6 4fbe 6f9c 0e3f
00000010: 6d62 23be 60d5 e1be 4f1f 6f3e 6254 5cbe
00000020: b897 573e a292 0b3c 7a9f 61be f00a e3bc
00000030: eeff d03e 7f55 2ebe b231 5bbe 85a2 8bbe
0.14203061 0.33636457 -0.20308727 0.5570745 -0.15955515 -0.44108105 0.23351787 -0.21516564
0.2105397 0.008518847 -0.22033492 -0.027715176 0.4082026 -0.17024802 -0.21405676 -0.2727243

post_processing_batch_norm.0.running_mean f4 [16]
00000000: b50f 04c1 5d58 9441 2c7a 5f41 6b7c 0241
00000010: 0e0e fa40 4c55 fcc0 de4d 8841 f7f1 6441
00000020: 8bf6 35c1 ec36 98c0 718c 4a41 6876 bec0
00000030: 1f37 d140 b2a0 2741 ec8e acc0 8fc0 4f41
-8.253835 18.543146 13.967327 8.1553755 7.8142157 -7.885412 17.038021 14.309073
-11.372691 -4.7567043 12.659287 -5.951954 6.5379786 10.476732 -5.3924465 12.984511

post_processing_batch_norm.0.running_var f4 [16]
00000000: df97 5a43 e6e3 9844 29d6 2e44 933d 2943
00000010: 9ea1 7743 8a92 0544 ef07 7644 0e43 3f44
00000020: 16d4 9c43 8b83 d043 c188 e443 25c8 ce42
00000030: 1592 0443 490d eb43 df84 0544 6eb9 1f44
218.59325 1223.1218 699.34625 169.24052 247.63132 534.2897 984.12396 765.0477
313.65692 417.02768 457.0684 103.39091 132.57063 470.1038 534.0761 638.89734

post_processing_batch_norm.1.weight f4 [16]
00000000: b15b f13d f56a 333f f468 a63e a643 273f
00000010: ce71 3d3f 3bed 043f d9e0 853f cc4d 153f
00000020: 8df1 1e3f 8a5f 2c3f a0f1 0c3f ee1c 7d3f
00000030: 913f 4b3f 11ab 103f 063a 983f e33a 783f
0.11785067 0.7008508 0.32501948 0.653376 0.7400178 0.51924485 1.0459243 0.58321834
0.6208733 0.6733328 0.5505619 0.9887227 0.7939387 0.56511027 1.1892707 0.96964854

post_processing_batch_norm.1.bias f4 [16]
00000000: 3581 c8be f4e5 023e 5b7b cebf 5812 5e3e
00000010: da14 b43e c003 b83d 297e b4bf b60d 3a3e
00000020: f4d9 7e3e a46f 82bf 34be 2abe e1df 253e
00000030: 52bc bebf 827d 1b3e d2a8 1a3f 7553 283e
-0.39161077 0.12783033 -1.6131395 0.21686685 0.35172158 0.0898509 -1.4101001 0.18169293
0.2488783 -1.019032 -0.16674119 0.16198684 -1.4901221 0.15184596 0.6041385 0.16438086

post_processing_batch_norm.1.running_mean f4 [16]
00000000: 1725 75be 8ca6 62be 78c5 aabe 6227 afbf
00000010: afb7 1abe 8e5d 023c 4149 943f 8b9d a43f
00000020: 4818 bcbe a3e4 373f edb7 2ebf 8083 bcbf
00000030: 2047 a63f 27b2 0cbf 9f61 18c0 3bf2 02c0
-0.2393993 -0.22133845 -0.33353782 -1.3683894 -0.15109132 0.0079568755 1.1584855 1.2860578
-0.36737275 0.71833247 -0.682494 -1.4727631 1.2990456 -0.5495934 -2.3809583 -2.0460346

post_processing_batch_norm.1.running_var f4 [16]
00000000: 815c bc3f 327e 1e40 41c8 9740 2252 2840
00000010: 4975 2340 c93d 0a40 9b3a 1f41 5160 6040
00000020: 7335 ba3f 9473 c540 47d5 e83f 3bf7 8940
00000030: cad6 8141 e76a b93f 8d30 e140 5c01 e840
1.471573 2.4764524 4.743195 2.630013 2.5540335 2.160021 9.951808 3.5058787
1.4547561 6.1703587 1.8190087 4.3114295 16.229877 1.4485749 7.0371766 7.250166

final_lin_layers.0.weight f4 [16, 16]
00000000: b3ce 92bc 6a40 0d3e 37a3 75bd 9c28 43be
00000010: 4a4e 50be da99 0ebe 2e8c 63be 4f87 89bc
00000020: fd79 6abd 075c 94be 4ed6 ed3c cf39 923d
00000030: 9672 7f3d 78ce c93d 55d6 2a3e f58a 7fbe
00000040: 9709 463e 632d 3e3e 12ea 003e 4890 b2bd
00000050: 8d57 4d3e 2542 73bc 8ea7 1dbe 4991 91be
00000060: 349e 69be eaf1 eabd cd78 adbd cfe7 60bd
00000070: 2600 9bbe 8f7c 7bbd 86d7 6fbd 2a2f a13c
00000080: d898 013d 7879 0ebd d3e2 9bbd 973f e03c
00000090: 97ca aebc 7b17 aabe e7c5 a8be 6ce3 87be
000000a0: f295 e8bd 774c 03be 0594 cabb 2133 7ebe
000000b0: 9d7a 61be 1cb9 3ebe 945a ddbd e970 8b3d
000000c0: bbdd c3be 9efc 01be 10dc 783c 1fe0 18be
000000d0: 7cff f3bd 495c cfbd 9182 f7bd 1535 57be
000000e0: b466 91be 8640 56be d3ab f83c ed50 57be
000000f0: 1261 94bd 23c8 d43d 0692 95be 038b 7fbe
00000100: 194e 1e3c 4c2c cd3e 4159 d9be 8421 753e
00000110: 5f0d 013f 4eaf e93d 5800 33bf 7e0c 113e
00000120: 5b57 8c3e da47 b6bd 4967 473e 3c2f d63e
00000130: d3b4 92be a5ef 7c3e 3ae1 263f a68e e23e
00000140: 286a e6bd d646 b1be d35d 533e 4432 8cbe
00000150: a45c 9abe bfd8 f5be e9c8 bf3e db0f 15bf
00000160: f08d 1bbe 9815 de3e 6ad9 c5bc 42d3 ffbe
00000170: 6022 0e3f e4ca 1fbe 92ce 11bf 6262 cebe
00000180: a33e a8be e778 02be cb49 ab3c 5752 ff3c
00000190: 0380 77be 2cf2 87bd 9fb6 4ebe efa5 abbe
000001a0: bfdd 46be cf87 78be ae1a 7e3c e3b8 febd
000001b0: 6b4f 17bd 9ef9 aabe 887b 63be cf78 89be
000001c0: 03a4 86bd 0f71 5ebe 9e69 00be 9c57 803d
000001d0: ce2a 60be 0d1d 4fbe ba08 983d 94c9 74be
000001e0: 52be 5ebe 64c5 a8be fea0 5fbe 6dbe 8fbe
000001f0: 5eba c4bd f9fa 8abe 9e3d 163d cca3 42be
00000200: 6990 9cbd 04bf 6ebe 06cd a9be e838 323c
00000210: 781e 7a3e 53d3 5b3d 4e67 9fbe 2c1f 9bbd
00000220: d17d a5be de0b b2bd e30c 8fbd cd3d dcbd
00000230: 2fd4 5c3d c067 a3bc 04ba 07be c930 03be
00000240: c957 c6be df0c 8e3d 8226 91be 4bf0 93be
00000250: 9fe9 393b 68b4 86be 6833 f4be 2ec8 bbbd
00000260: 7237 babe a37d ecbe b1a0 453d 68e1 a43d
00000270: c6ea 0abf 4304 38be 1cfa 76be c3a0 61be
00000280: da32 4fbd b24d 7b3d fa77 d63c eb02 2abe
00000290: b5ec 4e3d 2306 8cbe b1bd c4bd 5000 f5bd
000002a0: dfe5 2ebe 66a4 d7bd 3f77 853c 9307 1e3c
000002b0: 13d9 76be 279b 813c 7815 05bd 5add 5abe
000002c0: c97d 5abc b944 303e 7d15 aebd 2e5d c3bd
000002d0: 70fd 7bbd 032f 01bc 7547 0cbe d3d9 f0bd
000002e0: f1c1 5dbd 7e7e 1cbe 7799 143e 6274 833e
000002f0: 1cd8 b4be 57ff 313e 0b89 b3bc 34be 6bbe
00000300: ae60 1dbe 5b59 5abd cd1d 1fbe cec8 e4bd
00000310: 0b5b 35bd 2b7b 1fbe b398 10be 6a54 3bbe
00000320: 7fcb 123d df4d 023e 38a2 e73d 3bcf cabd
00000330: 55ee f9bd c571 bcbd f6ea 1ebd 6c18 b73d
00000340: 3d18 85bc 5fed 2fbe 98ca b5be 37e8 9ebc
00000350: 5f3c 113d 8512 93bb 6dde 40bd ec54 88bc
00000360: fe11 01be 418b e3bc 1767 c13d 02eb 3dbe
00000370: 5b62 f5bc b84e d53d 3883 11bc 9da2 88be
00000380: 3762 22be 1f4c 883e c526 2b3e 678f 153e
00000390: c6d1 783a 0f5e 1cbd 7608 65be 41a0 303c
000003a0: 9d11 44be db32 80be 8ded 1f3e 6f30 c33d
000003b0: 4a50 77be 1605 57bd 39a5 f83b ca27 25be
000003c0: 10ef 713a 5392 2cbe e64b 90be 16a5 b9ba
000003d0: a7bc 38bd 00c2 c1bd 886d 22be 791f 253c
000003e0: 6686 91be 3263 b1be 993c 4fbe 1dc9 afbd
000003f0: 25bb babe 7990 53be 7537 96be 2399 60bd
-0.017920827 0.13794103 -0.059970107 -0.1905846 -0.20342365 -0.13925877 -0.22221443 -0.016788153
-0.057245243 -0.2897646 0.029032853 0.07139932 0.062365137 0.09853834 0.16683324 -0.24955352
0.19339596 0.18572001 0.1258929 -0.08718926 0.20052929 -0.014847313 -0.15395948 -0.28431156
-0.22814256 -0.11471923 -0.084703065 -0.05490857 -0.3027355 -0.061398085 -0.05855515 0.01967581
0.031639904 -0.03478381 -0.07611623 0.027374072 -0.021336837 -0.3322104 -0.32963488 -0.26540697
-0.11356725 -0.12822138 -0.006182196 -0.24824192 -0.2201943 -0.18625301 -0.10808292 0.06808645
-0.38255104 -0.12694022 0.015189186 -0.14929245 -0.11913964 -0.10125024 -0.120854504 -0.21016343
-0.2839867 -0.20923051 0.03035537 -0.21026964 -0.07245077 0.103897355 -0.2921297 -0.24955373
0.009662175 0.40072858 -0.42450908 0.23938566 0.5041103 0.1141039 -0.699224 0.14164922
0.27410397 -0.08900423 0.19472994 0.41832912 -0.28653583 0.24700792 0.6518742 0.44249457
-0.112507164 -0.34624356 0.2064126 -0.273821 -0.30148804 -0.48016927 0.3745797 -0.5822732
-0.15190864 0.4337585 -0.024151523 -0.49965864 0.555212 -0.1560474 -0.56955826 -0.40309435
-0.32860288 -0.12741433 0.02090921 0.031167192 -0.24169926 -0.066379875 -0.20186852 -0.33525035
-0.19420527 -0.24270557 0.015509291 -0.12437608 -0.036940973 -0.33393568 -0.22215092 -0.26849982
-0.065742515 -0.21722816 -0.1254029 0.0626671 -0.21891329 -0.20225926 0.074235395 -0.23905021
-0.21752289 -0.32963097 -0.21838757 -0.2807497 -0.09605859 -0.27144602 0.036679856 -0.19007796
-0.076447316 -0.23315054 -0.33164233 0.010877825 0.24425685 0.05366833 -0.31133503 -0.07574305
-0.32322553 -0.0869367 -0.0698488 -0.10753975 0.05391329 -0.019946933 -0.13254553 -0.12811579
-0.3873885 0.06936049 -0.28349692 -0.28894266 0.0028368009 -0.26309514 -0.4769547 -0.091690406
-0.36370426 -0.46189603 0.04824895 0.08050805 -0.54264486 -0.17970376 -0.24118847 -0.22033982
-0.050585605 0.061353393 0.026180256 -0.16602676 0.05051871 -0.27348432 -0.09606493 -0.1196295
-0.17079876 -0.105294034 0.016292213 0.0096453605 -0.24106245 0.015821053 -0.032491177 -0.21373501
-0.013335654 0.17213716 -0.08500192 -0.09539257 -0.061520994 -0.007884744 -0.13699134 -0.11760297
-0.054140035 -0.15282628 0.14511667 0.2567473 -0.35321128 0.1738256 -0.021915933 -0.23021775
-0.15368912 -0.053307872 -0.15538712 -0.11171113 -0.04427628 -0.15574329 -0.1412075 -0.1829392
0.0358386 0.12725018 0.11310238 -0.09902807 -0.12203661 -0.09201387 -0.038798295 0.08940205
-0.01624691 -0.17180394 -0.3550613 -0.019397838 0.035457965 -0.0044882917 -0.04708712 -0.016642056
-0.1260452 -0.027776362 0.09443491 -0.1854668 -0.029954126 0.10415405 -0.008881383 -0.26686564
-0.15857778 0.26620576 0.16714008 0.14605485 0.0009491708 -0.03817564 -0.22366509 0.010780395
-0.19147344 -0.250388 0.15617962 0.09530722 -0.24151722 -0.052495085 0.0075880555 -0.1612846
0.00092290435 -0.16852693 -0.28182906 -0.0014163579 -0.045101788 -0.09460831 -0.15862095 0.010078304
-0.2842285 -0.34645993 -0.2023796 -0.08583281 -0.36470905 -0.2066058 -0.29339185 -0.054833543

final_lin_layers.0.bias f4 [16]
00000000: 21e9 acbd fb89 b53c ca04 c7bb d5e2 7bbd
00000010: d09f 843f ff59 e3be 508d 44bd 4f20 39be
00000020: bbe4 98be bab2 b2be 6de2 97be 7b7d d6bd
00000030: 9007 ffbd 6a86 f7bd 587e dcbd 10e9 9ebe
-0.08442903 0.02216052 -0.006073569 -0.06149562 1.0361271 -0.444046 -0.04798633 -0.18078731
-0.29862007 -0.34901983 -0.29664937 -0.10473152 -0.12452614 -0.12086184 -0.10766286 -0.31037188

final_lin_layers.1.weight f4 [16, 16]
00000000: f95b 75bd 56b8 9cbe 1cf2 623d 674d 173b
00000010: 6e78 9ebe 5c4c 28bd 28a8 13be c65b d33d
00000020: 1737 1abe 9716 a2bd 9532 6e3d 3e60 9cbe
00000030: 4905 37be cbba bebd 411e 7fbe 7c80 0cbd
00000040: ee97 dbbd edcf 6dbe a961 82be 934f ffbb
00000050: cb5d 2dbe 709e 99be 14d9 343e 7812 acbd
00000060: 2877 1d3d 2b41 113c 2a37 aebe 1d87 3fbe
00000070: 5996 5e3b 3ef6 4f3d 9a1f ba3b 3242 41be
00000080: e8ba 823e 926f e7bd 8514 323d 86ec acbd
00000090: 0ac4 fd3d 30a5 cebe b537 113d 59a6 1bbe
000000a0: 3b9d d03d 7722 a7bd 0659 ad3e 5d09 1dbd
000000b0: 6356 fb3d ed46 37bd d124 053e fc24 b43b
000000c0: 6323 9fbd f1ba 42be 8e5d 8f3c a9f3 a2be
000000d0: c2ea 69be 4260 3fbd 1281 033d 7b82 15be
000000e0: 26bd 05bd 7768 5bbe 1a3f 8bbb d401 2cbe
000000f0: d590 d3ba c0e6 1bbe 87b4 5dbe 4f98 48bd
00000100: a049 d3ba 9e88 35bc b49f 8a3e b799 4e3e
00000110: 37e7 a7be acd8 eebd 4876 8dbd d595 c9bb
00000120: 13e0 9c3e 3718 293e adec 043d 387b 07bc
00000130: e237 2cbe fb9c 113e 5859 c43d bae1 aebd
00000140: 8304 833e f0c0 8b3c 162f 07be ccc2 3dbe
00000150: e142 4cbd 1ff3 1abd a310 e93d 99d6 073e
00000160: 7e0e 733d c55c 75be a668 72bd 3419 62be
00000170: 57b7 b9bd 595e 19be c1f1 943e 756c 123d
00000180: c639 25bd e333 c8bc 6a60 d63d 8824 513e
00000190: 7330 31be 0d8f 21bd 02e0 f53d 82d0 423e
000001a0: 4d7a 003e 8749 18be c37a bfbc 9d5b f4bd
000001b0: 0208 e93d d4e3 06be a3f7 8e3c 61eb 843c
000001c0: 14ae 15be b6e7 45bc bded 8fbe 7c49 403e
000001d0: 2c9c 493e eee5 50be 7e31 24be e10c ebbc
000001e0: f1d1 45bd 699c 58bd 579a 923c 07fa 1f3d
000001f0: 341f 0a3e 2350 063e 08eb 9abe 6907 653d
00000200: ef6f 323c 1675 c1bc 03ca 3f3e 724f 383d
00000210: 9275 ae3d 75da 54be 6246 22be 9043 143d
00000220: 6abe 283e 8339 32be 449c 873c 0279 82be
00000230: 2e44 a93c b419 e83d 4e60 1dbe 1a13 8a3e
00000240: 8147 5b3c c556 6cbe 588b f13b 542e 95bd
00000250: 851f 3abe 69ff 19be 094a 9a3d 9ba3 793e
00000260: 449a 1dbe 7421 52be 1fe7 ac3c afdb 843b
00000270: f5af 373e fe4e 3ebd c253 233d f41c 873d
00000280: 277c a23e df7d 523e 94cf 30be fecb 4bbd
00000290: 4650 f5bd da5e fd3a 695d 1ebe d5f2 563d
000002a0: 81d9 e43d 9d7a a1be 0a90 91be bda9 e4bd
000002b0: 7aa4 3cbe c186 4c3e 5db5 b13c 1697 aa3d
000002c0: 634c 26bd c10a 01bd 6460 95bd e541 33bd
000002d0: 0cf1 7abe 9473 40bc b796 113e 4206 353e
000002e0: 4b39 34be 48b7 e8bd 997d 3b3e 0e11 4cbe
000002f0: 7ddd 123e fa55 d3bd 26b6 6cbd 28e4 48be
00000300: 2a7b 5dbd 4a30 9dbe 2ad6 c6bc 0b0c 37be
00000310: ceca 32be 74d2 a1bd 6357 49be 2021 c13c
00000320: 222b 43be 6c51 0abe f7d5 873d d166 fabd
00000330: 6c46 003d ca5e 52be 3d6f d2bd 71a3 4dbe
00000340: ea0a 6a3e 5d52 8ebc b186 423d 0754 cebc
00000350: 87cd 85bd e6d1 1fbe 0212 0b3e ef6f bbbd
00000360: 3fbb b8bc 51f0 393f 7014 b0bc 6922 c7bc
00000370: 461a 2a3e f3ac 243d 5bb1 a23d e3e0 9e3e
00000380: d24a 8a3e 161f f13d 282f 933d f476 3c3e
00000390: 6739 6fbe 0ac0 2ebe 68c2 b5bc a66d 15be
000003a0: 9ed6 ac3e 7435 97be 8ea3 4c3e c564 5f3c
000003b0: ca00 f4bd 5b52 c7bd bc12 4c3e 3835 a83e
000003c0: d15f 1abe 8424 9abd b8af 52bd bf3c 10bb
000003d0: e290 62bd aafa cfbc dab1 0dbe 921f 4bbe
000003e0: 44d9 a4be 2f85 12be d190 1e3e bf05 a9bc
000003f0: 3a80 51be 5714 393e d44c 703d 226c dbbb
-0.059902165 -0.30609387 0.055406675 0.0023086907 -0.30951256 -0.041088447 -0.14419615 0.10320239
-0.15060078 -0.07914465 0.058153708 -0.30542177 -0.1787311 -0.09312972 -0.24913885 -0.03430222
-0.10722338 -0.23223849 -0.25465134 -0.0077914684 -0.1693031 -0.3000369 0.17660934 -0.0840196
0.038443714 0.008865635 -0.34026462 -0.18703885 0.0033964126 0.050771944 0.0056800367 -0.18872908
0.25533223 -0.11300577 0.0434766 -0.08443551 0.12390907 -0.40360403 0.035453517 -0.15200175
0.10186239 -0.081608705 0.33856982 -0.038339008 0.12272336 -0.044745374 0.13002326 0.005497573
-0.07770421 -0.19016625 0.017500665 -0.31826523 -0.22843459 -0.046722658 0.032105513 -0.14600556
-0.03265109 -0.21426569 -0.0042494657 -0.16797572 -0.0016141186 -0.15224743 -0.21650897 -0.048973378
-0.0016119964 -0.011079935 0.2707497 0.20175825 -0.3279359 -0.11662421 -0.06907326 -0.0061518946
0.30639705 0.16513143 0.032452274 -0.008269124 -0.16818193 0.1422004 0.095873535 -0.08539148
0.2558938 0.017059773 -0.13201556 -0.1853134 -0.04986847 -0.037829515 0.11380126 0.13265456
0.059339993 -0.2396117 -0.05918183 -0.22079927 -0.090681724 -0.14977397 0.29090694 0.035747964
-0.0403383 -0.024438804 0.10467608 0.20424092 -0.17303638 -0.039443064 0.12005617 0.19024852
0.12546654 -0.14871798 -0.023373967 -0.11931536 0.113784805 -0.13172847 0.017452067 0.016225519
-0.14617187 -0.01207917 -0.28111067 0.18778032 0.19688481 -0.20400211 -0.16034505 -0.028692665
-0.04829592 -0.05288354 0.01789586 0.039056804 0.13488466 0.13116507 -0.3025744 0.05591527
0.010890945 -0.023615401 0.18729405 0.04499764 0.085185185 -0.2078646 -0.15847161 0.036197245
0.16478887 -0.17404751 0.016554005 -0.25482947 0.020662393 0.113330275 -0.15368769 0.26967698
0.013383747 -0.23079975 0.0073713474 -0.07284227 -0.18176086 -0.15038837 0.07533652 0.24378817
-0.15390879 -0.20520574 0.0211063 0.0040545086 0.17938216 -0.04646205 0.0398748 0.06597319
0.31735346 0.20555829 -0.17266685 -0.04975509 -0.119782016 0.0019330636 -0.1546532 0.052477676
0.11174298 -0.3153886 -0.28430206 -0.111651875 -0.18422118 0.1997328 0.021692926 0.083295986
-0.04060019 -0.031504396 -0.07293776 -0.043764014 -0.24506015 -0.011746306 0.1421765 0.17678168
-0.1759998 -0.11363083 0.1830963 -0.19928381 0.14342304 -0.10319133 -0.057790898 -0.19618285
-0.054072537 -0.30700904 -0.024272043 -0.17875688 -0.17460176 -0.07901469 -0.19662242 0.023575366
-0.19059423 -0.13507622 0.066326074 -0.12226642 0.03131716 -0.20543972 -0.10275123 -0.20081879
0.22855726 -0.017373258 0.047491733 -0.025186552 -0.06533342 -0.15607414 0.13581088 -0.09152209
-0.022550223 0.7263232 -0.02149412 -0.0243084 0.16611585 0.040204 0.07943984 0.3103095
0.27010208 0.11773507 0.07186729 0.18404752 -0.23361741 -0.17065445 -0.022187427 -0.14592609
0.3375749 -0.2953297 0.19984266 0.013634865 -0.11914213 -0.09732505 0.19929022 0.32853103
-0.15075614 -0.07526496 -0.05143711 -0.0022008864 -0.055313952 -0.02538808 -0.13837376 -0.19836262
-0.3219701 -0.14308618 0.1548493 -0.020632623 -0.20459071 0.18074165 0.05866702 -0.00669624

final_lin_layers.1.bias f4 [16]
00000000: 268b 65bd 2636 1ebe b2f7 513f 5dae 05be
00000010: 1634 51be 8f1a fabd 6c95 0cbf 7024 783f
00000020: 7177 643f 68a4 cebe af99 71be da80 c8be
00000030: b70f 46be ec6b b9bd 2e62 d0be 6b9a 66be
-0.056040905 -0.15450343 0.8201858 -0.13054796 -0.20430025 -0.12212097 -0.549155 0.969306
0.89244753 -0.40359807 -0.23593782 -0.39160806 -0.19341932 -0.090537876 -0.40699905 -0.22519843

final_lin_layers.2.weight f4 [3, 16]
00000000: 7fed 0d3e 93f7 4f3e cb56 0b3f 6f40 0ebd
00000010: f8cd 5e3d 8983 4d3e 8ed5 72be 55e2 a13e
00000020: 2f3e dd3e 6015 f9bc 61db d8bd 4502 83be
00000030: 041b 053b d17b eb3c b408 183c 53f5 adbd
00000040: ab7d 62bd 5fee 113d f06a f6bd a7ef 5cbe
00000050: 4326 a93e 5337 fe3c d5c6 7ebd 835e b5bd
00000060: af00 e03c 37d0 28be 19bb 8fbd 9b51 8f3d
00000070: 72ed 32be b5b5 763e 262b 3ebe 3070 b1bd
00000080: 5d5d 943d 4aa2 0bbb c525 20bf 889d 05be
00000090: 3c28 483e 419a 3f3d 1b69 863d 4512 10bf
000000a0: e045 27bf b267 69be 47c4 703d 6b37 623e
000000b0: 7b56 24be de67 113c 44cf 5cbe 8770 70bd
0.13860129 0.20309286 0.5442931 -0.034729417 0.054395646 0.20069708 -0.23714277 0.3161799
0.43211505 -0.0304057 -0.10588718 -0.2558767 0.0020310292 0.028745564 0.009279419 -0.084940575
-0.055295628 0.03562772 -0.120321155 -0.21575795 0.33037004 0.03103224 -0.06220134 -0.08855917
0.027344076 -0.16485678 -0.07018108 0.06997987 -0.1747339 0.24092753 -0.18571147 -0.08663976
0.0724437 -0.0021306449 -0.6255763 -0.13048375 0.19546598 0.046777967 0.06563016 -0.5627788
-0.65340996 -0.22793463 0.058780935 0.22091453 -0.16048615 0.0088748615 -0.2156344 -0.058701064

final_lin_layers.2.bias f4 [3]
00000000: 264b bdbe 548d 1e3d 39a1 513e
-0.36971396 0.038709 0.20471658

convs.0.bias f4 [16]
00000000: fd10 003e eed2 993d b6b4 af3d 63de 543f
00000010: 9ccc 16bd acef 633e 4dbf f93d 5e09 b0bd
00000020: 0936 663e 8fb2 adbe 4643 953c e90e 093e
00000030: 468a 58be dfd8 b13e acba 0cbd c2b3 a33e
0.1250648 0.07510935 0.0857939 0.83151835 -0.036816224 0.22259396 0.12194691 -0.08595537
0.2248155 -0.33925292 0.018220555 0.13384594 -0.21146497 0.34735772 -0.03435771 0.31973082
