checkpoints/checkpoints_homogeneous_staging_vessel_graph/DCP_model_1_aoxg6zaf.pt (torch, 172826 bytes, 36 tensors)

pre_processing_lin_layers.0.weight f4 [64, 15]
00000000: e596 72bc 3d78 66be 9a8b 1bbe c9e7 243d
00000010: 5130 dcbd d6e0 b4be 80b6 bcbe 12ff d2be
00000020: 6a7d bc3d 7213 bcbe 3441 abbe 5a29 c73c
00000030: 5b13 233d c25a 6d3e f0d8 b13d 2323 a43a
00000040: 53f7 623c be3b 273e 7c52 48be 0bc2 7ebe
00000050: 77b9 d23d 8abc 1ebd aeb0 efbd a7cd dc3c
00000060: 3bc7 b53e 96fb fb3e a9ca e8bc 503b 8e3e
00000070: c6b7 0ebe fa29 4cbe 9146 e8bd 6b51 803e
00000080: 9bc6 aabe 54d7 ef3c 76ad 31be e164 1bbe
00000090: 9249 e9be dacf 89be 2408 b7be 603b 413d
000000a0: 5297 03bd ae81 90bd abc1 973e 7c91 853d
000000b0: e6d5 3ebe 3ed7 1dbc d2ee aebe 90a3 0d3f
000000c0: 010d 97be bf39 b53d b054 b9bd 7678 03be
000000d0: ecdd b63b a01e d03e d73b e5bd 1237 fcbd
000000e0: c2dc dabd 37b2 42be 1cf8 eebc 83af 4c3e
000000f0: 10a0 93be 8edb 59be d788 003e e2cb a1bd
00000100: f388 8f3e a6e0 2abf 1800 e1be 7891 203e
00000110: edbe dd3d 66d0 09bf 4a4a 86be a018 7ebd
00000120: 2a95 d53b 334c 02bd 964a 07be 3c9d 09bc
00000130: 06b5 77bd df05 cebe ee4e 21be cafa 083e
00000140: 6711 7dbe 4db7 773e 71e0 853e c3f1 6f3e
00000150: 7935 a73b 9906 a23e 3100 84be d957 aebe
00000160: 63a8 a8be 1b9e 903d 3414 d7bd f24e 14bd
00000170: 15c1 fcba cb05 7ebe 959d 88be df37 0abd
00000180: 9d43 d1bd fd8c 2ebe 15df 8b3e d084 ac3e
00000190: cc54 0c3f 0f88 a2bd 792a 47be ecea f43c
000001a0: 8334 9d3c 8056 16be db0a 5cbd caab 34be
000001b0: d1c7 83bd 05eb c6bd ab2a e6be fe68 cebe
000001c0: 2a9a d9be 6e89 f63d e549 b1be 9695 96be
000001d0: 76b0 3f3e 94e7 593e 6cb4 12bd 30e5 4a3d
000001e0: 975c 0fbe e1c4 f2bd 88d7 e0be 6f0e 3abe
000001f0: 7f77 88be 7f82 adbe 73d9 ad3e 532b 9ebe
00000200: 08e3 4abe 4828 5c3e b4c6 a23e 799b a23e
00000210: db69 963e b65f 713e 3cd7 123f 0803 7dbe
00000220: d0b9 95bd f4e4 c83e f066 71be c8ee 00be
00000230: 96b7 4dbe 7eec 91be 4ee4 c4bc 1930 b93e
00000240: 65f8 e4be de07 d9be c062 eabc 1809 b8bd
00000250: d065 a83c 3ab5 f3bd 88e8 15be 603a 4239
00000260: b2c0 ec3c 62b8 c63b 9055 9f3c a0c2 20be
00000270: bf79 f4be 78a4 75bd 3638 a8be e655 1abf
00000280: 2fe7 50be b1e2 283d 658f 6c3e 9402 ce3d
00000290: b862 803d 1419 c33c b565 26be 19e1 81be
000002a0: 13ff 9abd 2234 ebbe f2de 0d3e 55e9 af3e
000002b0: bf59 00bf 7090 a2bd f6e8 213f ffa7 0b3f
000002c0: f061 26be c1ef a43e c014 113a 6ed0 65bc
000002d0: 31d9 e8be f90c 66be 0e3c 073c 84ea 85be
000002e0: fa9e 903e eb83 3ebe 901f 8a3e e2d6 b23c
000002f0: 62c3 1bbc a8dc 363c 53fe eabc 0771 873c
00000300: 4892 ae3e 8ee2 b63e 9d9c 843e 5433 3cbe
00000310: 530e bebe 9a02 e2bd 3787 9ebe 3d3d 23bc
00000320: 89f4 d23e 53e4 e73d 6673 10be 34c4 bd3e
00000330: 4563 a83b a00d 963e 366d 9c3d 7460 84be
00000340: e084 843d a7cf 6cbe 1811 c7bd 5683 81be
00000350: 802e 63be 7e67 0fbe 2567 ad3d ff27 5f3e
00000360: 1be7 14bd e56e 183e d857 d43e 9e96 ca3e
00000370: b56c 063e 4102 193e f37f fdbd d49a 42bd
00000380: df81 aebe 76cf 98be e56a ccbc 750f 28be
00000390: b8b5 0abe 1ca4 503e 6871 1d3e a268 bc3e
000003a0: 1d71 783e 291c b03e cb6c c3bd e3cf 183e
000003b0: 1a5d abbe 2793 11be f3fa 20bd e4ff af3c
000003c0: 1640 62bd a409 4b3e 4d62 ebbe 2960 6abe
000003d0: dfc8 29be fb05 7c3e 94f6 b43d 2990 06bf
000003e0: da41 b1be 7289 f4bd 66b2 ef3d f605 4e3c
000003f0: 5da6 8a3e 3cfa 79be e9b2 0bbe 2599 1bbe
-0.014806484 -0.22506805 -0.15189973 0.04026011 -0.10751403 -0.35327786 -0.36857986 -0.41210228
0.09203608 -0.36733586 -0.33448184 0.02431171 0.03981338 0.23179153 0.08683956 0.0012522679
0.013852912 0.16331384 -0.19562715 -0.24878709 0.10289281 -0.038754024 -0.11703621 0.026953531
0.35503563 0.49215382 -0.028416948 0.27779627 -0.13937292 -0.19937888 -0.113415845 0.25062117
-0.3335465 0.029277481 -0.17351326 -0.15175201 -0.45563942 -0.2691639 -0.35748398 0.047175765
-0.032126732 -0.070559844 0.29639944 0.065218896 -0.18636283 -0.009633837 -0.3416658 0.553277
-0.2950211 0.08848905 -0.09049356 -0.12838921 0.0055806544 0.40648365 -0.11193054 -0.12315191
-0.106866375 -0.19013296 -0.029171042 0.19988827 -0.28833055 -0.2127516 0.125522 -0.07900216
0.2803417 -0.66749036 -0.43945384 0.15680492 0.10827432 -0.53833616 -0.26228553 -0.062035203
0.006518026 -0.03181095 -0.13212046 -0.008399304 -0.06047537 -0.40238854 -0.15752766 0.13376918
-0.2471367 0.24191017 0.26147798 0.23432069 0.00510281 0.3164566 -0.25781396 -0.34051397
-0.3294097 0.07061406 -0.105019 -0.0362081 -0.0019283617 -0.24806897 -0.26682726 -0.03374469
-0.10217974 -0.1704597 0.27318636 0.33695078 0.5481689 -0.07936107 -0.19449796 0.029897176
0.019190079 -0.14681435 -0.05372129 -0.17643657 -0.06434596 -0.09712795 -0.44954428 -0.40314478
-0.4250043 0.120379314 -0.3462669 -0.29411 0.18719658 0.21279746 -0.035816595 0.049534976
-0.14000164 -0.11853958 -0.43914437 -0.18169568 -0.26653668 -0.33888623 0.33954963 -0.3089243
-0.19813168 0.21499741 0.31792223 0.3175924 0.29377636 0.23571667 0.5735967 -0.24708188
-0.073108315 0.39237177 -0.23574424 -0.12591088 -0.20089564 -0.28500742 -0.024034645 0.36169508
-0.4472076 -0.42388815 -0.02861154 -0.089861095 0.02055636 -0.118998006 -0.14639485 0.00018523028
0.028900478 0.0060644606 0.019449979 -0.15699244 -0.47749135 -0.059971303 -0.32855386 -0.6028732
-0.2040069 0.041231815 0.23101576 0.100590855 0.06268829 0.02381567 -0.16249736 -0.25367048
-0.07568183 -0.45938212 0.13854578 0.34357706 -0.5013694 -0.079377055 0.63246095 0.54553217
-0.16248298 0.32214168 0.0005534403 -0.014026744 -0.45478204 -0.22465886 0.008254064 -0.26155484
0.2824629 -0.1860501 0.26977205 0.02183098 -0.009507032 0.011161007 -0.028685724 0.016533388
0.3409598 0.35719723 0.25900736 -0.18378955 -0.37120304 -0.110356525 -0.30962536 -0.009963331
0.4120219 0.11322846 -0.14106521 0.37063754 0.005138787 0.2930727 0.07638018 -0.25854838
0.064706564 -0.23126088 -0.09720057 -0.25295514 -0.22185707 -0.14004323 0.08466939 0.21792601
-0.03635321 0.14886053 0.4147327 0.39568037 0.13127406 0.14942266 -0.1237792 -0.047510937
-0.3408346 -0.2984578 -0.024953315 -0.16412146 -0.13545883 0.20375103 0.15375292 0.36798579
0.242619 0.34396484 -0.09542235 0.14923052 -0.33469468 -0.1421629 -0.039301824 0.021484323
-0.0552369 0.19827896 -0.45973435 -0.22888245 -0.16580532 0.24611656 0.088360935 -0.5256372
-0.34620553 -0.11940278 0.11703949 0.012574663 0.2708005 -0.24411863 -0.13642468 -0.15195139

pre_processing_lin_layers.0.bias f4 [64]
00000000: d895 a2be e2fa 0e3d 085f 89be 62b1 cdbd
00000010: 39af 05be c83f 9c3e bc04 b1bb 7935 47be
00000020: f459 2d3e 87cd 17bd 2996 9fbe b44f 95bd
00000030: 9ef6 1dbe 8846 073f a826 663d 3f9d 293d
00000040: 101a 8b3e 5fbf 853d 7c6c 7bbd c8be 51bd
00000050: 4085 443e f665 c5be 9e16 33bd e063 193e
00000060: 70a5 103e e62b 3bbc 65d2 92be 5ab9 b9be
00000070: 8935 833e 0151 693d 7bc1 31be a954 9b3c
00000080: 03a4 693e 3add a9be 06e2 4ebf 6b7f 223e
00000090: 8338 363e 3cf9 8bbe 75b3 df3e 11b3 353e
000000a0: 70ad 8cbe 7a22 aabd 2a0a 693d 5f30 593f
000000b0: a86a 75be 0f6c 4ebe ac42 193e 98f7 3d3c
000000c0: cc89 45be 182c cd3c b295 033e 6955 d7be
000000d0: 98c7 42be 67a3 c03d 4ede d73d e458 38be
000000e0: 33b0 b6bc 924a 29be 3840 d9be c6e5 403e
000000f0: ec3c ebbc 0429 433e 8ed3 983e 5e5f 323e
-0.31754947 0.03490723 -0.26830316 -0.10043599 -0.13055123 0.3051741 -0.0054021757 -0.19453992
0.16928846 -0.03706124 -0.3116925 -0.07290593 -0.15426108 0.52842 0.05618921 0.041409727
0.27168322 0.06530642 -0.061382756 -0.051207334 0.19191456 -0.38554353 -0.04372274 0.14979506
0.1412561 -0.01142404 -0.28676143 -0.36274225 0.25626782 0.056962017 -0.17358963 0.018961268
0.22816472 -0.33176595 -0.80813634 0.15868919 0.17794995 -0.27338588 0.43691602 0.1774409
-0.27476072 -0.08307357 0.05689446 0.84839433 -0.23966467 -0.20158409 0.1496684 0.0115946755
-0.19290847 0.02504544 0.12850073 -0.4205735 -0.19021451 0.094061665 0.10540448 -0.18002659
-0.022300815 -0.16532353 -0.42431808 0.18837652 -0.028715573 0.19058615 0.29848903 0.17419192

pre_processing_lin_layers.1.weight f4 [64, 64]
00000000: a1cd 4c3e a8ba 99be f45d 29bd dd51 29be
00000010: 508e 16be 6d6d 5ebd f239 69be 3d8d 6c3e
00000020: 8cd7 e6be b524 4f3b ce15 583e 41f8 87be
00000030: 617f 96bd b6a9 1dbe ce43 18be 6209 a23d
00000040: faeb cfbd 2fbd 9dbd 47ff 7e3d 53e3 abbd
00000050: 341f 19be 697f 3e3d 17cf 413d f530 57be
00000060: 54cc b8bd d9f9 8bbe e6e0 63be a710 54be
00000070: 4203 5b3d 4a15 2d3e 15b5 843e 1e82 d7bd
00000080: e0ee 2a3e 24f9 87be 693d fcbd 7346 e23d
00000090: 2644 e03d 5277 923c d352 8fbe 865a 25be
000000a0: 8858 87bd bc82 eabd f912 cabe 6934 ed3d
000000b0: 5095 32be c9a4 353e 1ef7 083e 9470 20be
000000c0: 0351 4fbe de07 92bd 1980 07be dc0b 93be
000000d0: 18f5 b2bd a291 d2bd e5f1 0bbe 10e1 88be
000000e0: 1a3e bebd 31e7 5dbd a9e6 573d 21af 7b3e
000000f0: a16b 3ebe 9a83 a03e 5881 abbe 269c 6abe
00000100: b903 57be c980 43be 94da 8bbc 902c 80bc
00000110: 0ad9 91bc 77f0 593e 4f57 b63d 1a1a 5fbe
00000120: abfc 793e 0629 d8bd 5c57 92bd 5404 e73d
00000130: 5a3d 7d3e 1d20 123d 38c7 543e c965 f73c
00000140: c940 7abd 4d6c 1bbe 09cb 43be 335b dfbd
00000150: c560 22be f6e2 3abe dd98 41be 5d8d c6bc
00000160: fd8d 07bd f090 383e 31c4 42be 21e4 9e3d
00000170: 1a17 033e 8160 83be d526 5fbe 1262 803e
00000180: ea87 acbe 838a a23e 4fa0 86bc 1440 c7bd
00000190: ac00 2ebe 1356 b4bd b9eb 153e 084e 98bc
000001a0: dd4a d8bd afb1 0d3e 78e2 15be 6666 4abe
000001b0: e5c7 82bd e43b 7cbe 426a ac3b 8105 ee3c
000001c0: 9948 a53d 4f92 2b3e 1408 a9be e508 e03d
000001d0: 9903 0c3e d8ce bd3c c20d 583e 6da2 28be
000001e0: 0a77 04bc 5dbd ce3d c381 6abe ac5a 93be
000001f0: a239 72be e0f9 e3bd ad48 48be 818b 793e
00000200: dd6f 45be f1ab 883e e923 3a3d 437f 8e3c
00000210: 2261 2abd a10d 40be 6d8e 183e 41de 8fbe
00000220: d891 07be ec39 a2bd c14d 443c ba69 8a3e
00000230: 9a8a 10be 33e8 c73d c1bc 80be 0f76 19bd
00000240: e6ac 423e 7fda 833d 2a84 2f3e bb16 59bb
00000250: f97c 433e cdb1 933e 9a48 f6ba 59d5 9a3d
00000260: ff4c 5d3e 7a88 8c3e ee93 823e d904 2ebe
00000270: 8a01 c6bc f4ce 20bd 44fa 21bc f042 e3bd
00000280: e680 e63d af92 17be 958b fc3d f297 9b3e
00000290: ca49 58be b9af 2fbe f6b1 d8bd 116f 8d3e
000002a0: be2e 9e3e 313a 093c 218e 853e 3c26 28be
000002b0: 4812 853e 8632 9c3d 1c4f 13be 5a2b 4abe
000002c0: 02c0 4f3e acec 90be 54f0 043e 017f d3bd
000002d0: 0d49 33be 3228 7dbe a8d4 923e 00d7 a13e
000002e0: 1ee9 66be ee27 68bd b844 d0bc 57d6 d83c
000002f0: 8e53 3d3e 72a7 f63d 7087 76be 29f8 4ebd
00000300: 01fa ccbd 6ba3 b63e 936d 493c c148 e13d
00000310: 188c 953e 019f 1c3e f43e dd3c 624c 79bd
00000320: 701c 473d e8f2 813d 3121 42be 1b71 363e
00000330: 8e46 8e3e 810a e33d 3515 833e 54e4 183e
00000340: c7d9 87be 97b9 783e 3604 3abd 44ee 1ebd
00000350: 8e92 1bbe 7583 38bd 744a b43d a163 533e
00000360: bf18 8fbe cacf a63e 9216 ee3d 5445 923d
00000370: 87c4 c93b e1bd 39be 3e1c 353d b809 ba3e
00000380: 2281 73be ff8c 843e c11e 1c3e b7b8 88be
00000390: 55c3 c6bd 0afb 9e3e d326 333e 7a59 eb3d
000003a0: fd37 18be 25d6 803e 5ac3 dd3d 52b4 33be
000003b0: fc37 243e b36f 77be 9cd6 f23d 353a 9f3e
000003c0: f4d5 18be 2948 41bc 7fad b13e 9f2e 993e
000003d0: bed0 693e c156 813d 1a09 6d3e 57e6 d63e
000003e0: 1f58 2e3e 7ee5 4b3e 4d73 d93c 4486 7abe
000003f0: 9440 013e 9872 aabd 231b 9f3e bfdb 903e
0.20000316 -0.3002522 -0.041349366 -0.16535135 -0.14702725 -0.054303575 -0.2277601 0.23100753
-0.45086324 0.0031607572 0.21102068 -0.2655659 -0.07348514 -0.15396771 -0.14869615 0.07911946
-0.10152431 -0.077020995 0.06225517 -0.08392968 -0.1495331 0.046508227 0.047316637 -0.2101477
-0.090233475 -0.27339056 -0.2225376 -0.20709477 0.053469904 0.16902652 0.25919405 -0.10522865
0.16692686 -0.26557267 -0.123164006 0.11048593 0.10950498 0.017879162 -0.27992877 -0.16147813
-0.06608683 -0.11450717 -0.394676 0.11582262 -0.1743977 0.17738642 0.13375518 -0.15667945
-0.20245747 -0.07130407 -0.13232459 -0.28719985 -0.08738154 -0.102816835 -0.13666494 -0.2673421
-0.09289189 -0.05417556 0.05271021 0.24578525 -0.18595745 0.31350404 -0.3349712 -0.22911128
-0.20997514 -0.19092096 -0.017072 -0.015646249 -0.017803688 0.21283136 0.089033715 -0.217873
0.24412791 -0.105546996 -0.07145569 0.112801224 0.24730435 0.035675157 0.20779121 0.030199902
-0.06109694 -0.15178032 -0.1912042 -0.10906067 -0.15857227 -0.18250641 -0.18905969 -0.02423733
-0.033094395 0.1802404 -0.19020154 0.07758356 0.12801781 -0.25659564 -0.21792157 0.25074822
-0.33697444 0.317463 -0.016433863 -0.09729019 -0.16992444 -0.0880548 0.14640702 -0.018591896
-0.10561154 0.13837312 -0.14637172 -0.19765624 -0.06385783 -0.24632221 0.0052616904 0.029055359
0.080704875 0.16755031 -0.33013976 0.109391965 0.13673247 0.02316992 0.21098998 -0.1646821
-0.008085022 0.10094712 -0.22901063 -0.28780115 -0.23654798 -0.11131644 -0.19558974 0.24369623
-0.19280954 0.2669368 0.045444403 0.017394667 -0.04159654 -0.18755199 0.14898081 -0.28099254
-0.13239229 -0.07921204 0.011981429 0.27033788 -0.14115372 0.09761085 -0.25144008 -0.037466105
0.19011268 0.06438159 0.1714026 -0.003312512 0.19090642 0.2884659 -0.0018789947 0.07560224
0.21611403 0.27447873 0.25503486 -0.16994037 -0.024170656 -0.039259866 -0.009886328 -0.11096752
0.11255054 -0.14802049 0.12331311 0.30389363 -0.21121898 -0.17156877 -0.10580818 0.276238
0.30895036 0.00837569 0.26084998 -0.16420835 0.2599051 0.07626824 -0.14385647 -0.197431
0.20288089 -0.28305566 0.12982303 -0.103269584 -0.17508335 -0.24722365 0.2867787 0.31609344
-0.22549865 -0.056678705 -0.025423393 0.026469393 0.18488905 0.120436564 -0.24075103 -0.050529633
-0.10008622 0.35671553 0.012294191 0.11000205 0.29208446 0.1529503 0.027007557 -0.06086386
0.048611104 0.06345159 -0.18957974 0.17816584 0.27788204 0.11085988 0.25602117 0.1493085
-0.26533338 0.24289547 -0.045414172 -0.038801447 -0.15192625 -0.045047242 0.08803263 0.20643474
-0.27948567 0.32580405 0.11625399 0.071421295 0.006157461 -0.1813884 0.044216387 0.3633554
-0.23779729 0.2588882 0.15246107 -0.26703426 -0.097052254 0.31050903 0.17495279 0.11491676
-0.14865108 0.2516338 0.10828276 -0.17549255 0.16036981 -0.24163704 0.1185734 0.31099096
-0.14925367 -0.0117969895 0.3470268 0.29918382 0.22833535 0.06315375 0.23148003 0.4197261
0.17025803 0.19911763 0.026544238 -0.24465281 0.12622291 -0.08322638 0.3107539 0.28292653

pre_processing_lin_layers.1.bias f4 [64]
00000000: 808f d6bd 67ef b5bd 97c8 d8bc c624 2e3d
00000010: 0ac5 3fbe 4096 3dbe 632c c73e 0b8c 59be
00000020: 5977 a6be ac5b ca3e 7cf8 f3bc fe33 a1bd
00000030: b864 963e 89a8 7b3d 8f63 3f3e b284 853e
00000040: d0b0 3c3d e802 afbc a057 933e 4733 37be
00000050: e4a1 19bc 80f4 e3be 62ae 65be 7529 6e3e
00000060: 1a3f ba3e 3ac8 d33d 8f63 e8bd 07dd dcbc
00000070: 8992 66be 81ec 64be cc7a 943e 8fbc 74be
00000080: b06e 25be a04f 32be e113 a3bd 0698 02be
00000090: 4862 88be 60ce a5be 9fca 6b3e b721 4c3e
000000a0: 87fa 3fbe a535 ad3e a00b 6cbe 51c8 3fbd
000000b0: 6f94 ac3c 51d8 09be 7624 edbd 06ff b23d
000000c0: c566 e5bd fb5f 283d 2664 8a3d 68e1 903e
000000d0: 1493 d5bd 6b08 533d 734d 9f3e 24bc 60be
000000e0: b4de 733b 293e 2fbe d7d8 95bc 5473 ba3e
000000f0: 7a92 27be ca4d a23e dc2b 713e bebb 8a3d
-0.10476589 -0.08883553 -0.026462836 0.04251554 -0.18727508 -0.18514347 0.38901052 -0.21244828
-0.3251293 0.39523065 -0.029781573 -0.07871245 0.29373717 0.061440025 0.18690322 0.260778
0.04606706 -0.02136369 0.2877779 -0.17890655 -0.009376977 -0.44522476 -0.22429803 0.23258002
0.36376268 0.103409246 -0.11347114 -0.026960863 -0.22516836 -0.22355844 0.28999937 -0.23900054
-0.16155505 -0.17413187 -0.07962776 -0.12753305 -0.26637483 -0.32384014 0.23026513 0.19934736
-0.18747912 0.3382999 -0.2305131 -0.046821896 0.021066872 -0.13461424 -0.1157922 0.08740048
-0.11201242 0.04110716 0.06757383 0.2829697 -0.104284436 0.0515217 0.31113777 -0.2194677
0.0037211599 -0.17113556 -0.018291874 0.36416113 -0.1636447 0.31699973 0.23551887 0.0677409

pre_processing_batch_norm.0.weight f4 [64]
00000000: 050a 8f3f 8b28 823f b86c 123f 0667 6f3f
00000010: c84d 5f3f 5f2d 2d3f deb9 9e3f b7ab af3f
00000020: de53 5d3f 4ea6 8f3f c80b 733f ef18 7b3f
00000030: ea46 443f f8e7 463f 63a4 443f 968e f33e
00000040: 07aa 1a3f 85c3 543f 949a 943f 610f 333f
00000050: 5cb9 923f 1163 733f 9f05 6b3f 6e79 863f
00000060: 11d4 423f 9017 9c3f 02d8 903f 60ca 2d3f
00000070: 4398 bd3f 74dd 9e3f f853 963f c1a6 493f
00000080: 8b2d 6d3f 4d52 2e3f 52c2 783f 2ed6 6f3f
00000090: 84b2 353f d17e 913f edd0 223f 2d49 893f
000000a0: 59e3 563f d02f 7c3f 66ae 693f 5776 7f3f
000000b0: ed1e 5a3f f79a 513f 3902 893f 7982 963f
000000c0: 5243 513f b12c 383f 830f 933f e1e9 353f
000000d0: 8970 203f b749 353f 268a b13f 1311 973f
000000e0: 72ac ec3e dcb9 873f fc0f 963f 89ba 703f
000000f0: bf2b 9a3f 8e07 0e3f 913b 883f 38d8 533f
1.1174933 1.0168623 0.5719714 0.93516576 0.8722806 0.67647356 1.2400472 1.3724278
0.86456096 1.1222627 0.9493985 0.9808492 0.76670706 0.77697706 0.76813334 0.47569722
0.6041569 0.8311084 1.1609674 0.6994534 1.1462817 0.9507304 0.9180545 1.0505807
0.7610484 1.2194691 1.131592 0.67886925 1.4812092 1.2411332 1.1744375 0.7877007
0.9264762 0.6809433 0.9717151 0.9368619 0.7097552 1.1366826 0.63600045 1.0725456
0.83940655 0.98510456 0.91281736 0.9978995 0.8520344 0.8187708 1.0703803 1.1758567
0.8174335 0.71943194 1.1489109 0.71059996 0.62671715 0.70815605 1.3870285 1.1802086
0.46225315 1.0603595 1.1723628 0.9403463 1.20446 0.5548028 1.0643178 0.827518

pre_processing_batch_norm.0.bias f4 [64]
00000000: 855f 2f3e beb4 c1be 2ae6 adbe 1585 dabd
00000010: f4f6 17be e016 acbe d5fc 1abe f315 bcbd
00000020: 7eff 3a3e d643 8bbc e3ec a1bd 30f6 25bd
00000030: 5830 0ebc d077 73be 9f88 3dbe ee23 12bf
00000040: 6bb1 85be 8f3d e1bc feec 6ebe 780c 94be
00000050: a0a4 7a3d fd8b d3bc 70f9 22be 1264 aabe
00000060: 1e20 2abe f00c 193c f438 bb3d 8d61 2dbe
00000070: 0558 e33b 5169 d5be 7092 a43e 30cd e9ba
00000080: 64f2 b3bd 0148 63be 9654 b2be 0c61 5abd
00000090: bbca 90be a761 cabd ee8b b8be 3edd aebc
000000a0: c6ff 89be 4530 49bd 8cd8 9abe 0713 f0bd
000000b0: 7f9f 15be 3529 96bd d3d6 083e 5e70 ad3d
000000c0: 202e b5bd ad27 a2be 20ec b9bd ec9e b4be
000000d0: b264 c1bc 5a61 96be 20c8 003c d827 563d
000000e0: 01f8 edbe 676b 843e 3b2d f7be 59f5 7bbe
000000f0: 5d2b c73d ff0b 5cbe d221 0b3d c556 a23e
0.17126282 -0.37833208 -0.33964664 -0.10669915 -0.14840299 -0.33611202 -0.1513551 -0.09183874
0.18261525 -0.01700012 -0.07906511 -0.040517986 -0.008678518 -0.23776174 -0.18509148 -0.57086074
-0.26111922 -0.027495174 -0.23332593 -0.28915763 0.061192155 -0.025823588 -0.15915465 -0.33279473
-0.16613814 0.009341463 0.09141722 -0.16931744 0.006937983 -0.41681913 0.32142973 -0.001783764
-0.08786467 -0.22195436 -0.3483016 -0.053315207 -0.2827967 -0.09881907 -0.36044258 -0.02134573
-0.26952952 -0.0491183 -0.30243337 -0.11722379 -0.14611624 -0.07332078 0.13363199 0.08468698
-0.08846688 -0.31670895 -0.090782404 -0.35277498 -0.023607586 -0.29371148 0.0078602135 0.05228409
-0.46478274 0.2586319 -0.48276696 -0.24605311 0.09725068 -0.21488951 0.0339678 0.31706825

pre_processing_batch_norm.0.running_mean f4 [64]
00000000: c34c a2be 1a3d 203d fa55 8bbe 3c32 c0bd
00000010: 90ee 00be f707 9e3e ef9c e63a 72cc 45be
00000020: ddda 313e cc61 01bd 1997 a0be 6892 8dbd
00000030: ea92 13be 0ebd 0a3f b3cf 883d b5cf 473d
00000040: 855f 8a3e 609d 913d 8d5c 5ebd 1ded 3ebd
00000050: 39dd 4b3e b008 c4be b028 2fbd 0a02 1e3e
00000060: ac2d 1a3e b9ee c5bb 6669 91be 01e4 b9be
00000070: b7ce 853e 03fb 703d 8680 36be 660d ca3c
00000080: f6ea 6e3e a84e a5be d72d 4cbf 329b 2b3e
00000090: 6020 3b3e 5303 8abe 2f18 e33e 7560 393e
000000a0: 0dfd 88be 9fbc 9bbd 44c6 753d 63e5 593f
000000b0: 7ffc 72be a9ab 53be a6cc 1b3e ea22 a03c
000000c0: bffb 40be 3aee f83c 7bbe 093e 9a02 d3be
000000d0: b8f9 3cbe 8e40 ca3d 1509 e23d cc38 32be
000000e0: 36cf b5bc 9910 24be e6c0 d7be 5c90 3d3e
000000f0: bc33 a7bc a137 463e 9ba7 993e 7283 373e
-0.3169919 0.03912077 -0.27214032 -0.093845814 -0.12591004 0.30865452 0.0017594377 -0.19316271
0.17368646 -0.031587407 -0.31365278 -0.069126904 -0.14411512 0.54194725 0.066802405 0.04878207
0.27026 0.07110095 -0.054287482 -0.046612848 0.19908608 -0.38287878 -0.042763412 0.15430465
0.15056485 -0.006040421 -0.28400725 -0.36306766 0.26134273 0.058833133 -0.17822465 0.024664592
0.23331818 -0.32286572 -0.79757446 0.16758421 0.18274069 -0.2695566 0.44354388 0.18103202
-0.26755562 -0.07604336 0.060003534 0.8511564 -0.23729132 -0.20670952 0.15214786 0.019547898
-0.18846034 0.030387033 0.13451569 -0.41212922 -0.18454635 0.09875594 0.110368885 -0.17404479
-0.022193532 -0.16021957 -0.42139357 0.185121 -0.020410411 0.19357158 0.30010685 0.17921236

pre_processing_batch_norm.0.running_var f4 [64]
00000000: 3237 b03f dd02 b73f 68b2 b13f 651c 3f3f
00000010: 942b 2f40 7fdd 923f 54f3 a13f 7208 c53f
00000020: df05 ee3f cdf1 bb3f d932 bd3f 3c6d 7c40
00000030: 8fec 643f 4c7b b83f e9e5 863f fba0 803f
00000040: 6043 b93f ced5 e43e 2b0c e33f baa5 1640
00000050: 8af1 b33f 87be 9e3f 2506 703f 30ed 193f
00000060: 0154 3e40 a8bc 513f 74b0 a13f fdc8 2e40
00000070: 23c3 f23f f668 a13f 03b2 6840 9d3e 4940
00000080: c1cc c53f 610a e83f e799 ca3f 3876 993f
00000090: 4be9 0f40 6562 753f 9e34 0140 5ed4 c83f
000000a0: 7549 903f fe7b 2540 0b95 893f 8278 9a3f
000000b0: b154 d83f fe30 3440 76fb 1940 c685 b03f
000000c0: 075a 8b3f dd7b 943f f572 ed3f 41f5 e23f
000000d0: e063 b23f 493c cb3f 9b05 693f 092d 5d3f
000000e0: 32f9 0f40 932a ca3f 438c a43f aab7 c83f
000000f0: bb45 6c40 b48a 2f40 3c34 703f 41d2 f83f
1.3766844 1.4297749 1.388257 0.746527 2.7370348 1.1473845 1.2652383 1.5393202
1.8595542 1.4683167 1.4781142 3.9441671 0.8942346 1.4412627 1.0538913 1.0049127
1.4473686 0.4469437 1.7738088 2.3538651 1.4058087 1.2401894 0.93759376 0.60127544
2.9738772 0.8192849 1.2631974 2.7310174 1.8965801 1.2610157 3.635865 3.1444466
1.5453111 1.8128167 1.5828217 1.1989202 2.248614 0.95853263 2.0188365 1.5689809
1.1272417 2.585693 1.0748609 1.2068026 1.6900846 2.8154902 2.405973 1.3790824
1.0886849 1.16003 1.8550707 1.7731096 1.393673 1.5877773 0.9102418 0.86396843
2.2495847 1.5794243 1.2855304 1.568105 3.691756 2.7428408 0.93829703 1.9439164

pre_processing_batch_norm.1.weight f4 [64]
00000000: f542 753f f609 153f 5386 853f 85e9 813f
00000010: b97c 463f b45f 8f3f fc3a 403f 3a18 8b3f
00000020: 71f1 333f 5370 063f 1e32 ba3f 13f6 7f3f
00000030: d85b 6a3f f1b3 653f 4c6e 443f c73a 4c3f
00000040: 2eca a53f 435d 873f 18ee 1f3f 5c00 923f
00000050: fb77 963f 2735 8a3f 0008 543f ee0d 5e3f
00000060: 81b4 883f 6216 803f 2052 923f e7b9 413f
00000070: 23a4 933f 2cce 2c3f 1229 2e3f 9d49 633f
00000080: 3298 343f 8afd 263f 786c 913f f4f1 973f
00000090: fcec 533f d03e 8e3f 53e5 333f 1ddd 293f
000000a0: 39fb 8b3f 2690 2e3f 7c6e 4b3f b219 7e3f
000000b0: 976e 663f 20cf 6d3f 8c7b 763f 7424 413f
000000c0: 0c2e 993f fda0 4e3f 21d8 0c3f d4c6 3a3f
000000d0: d483 993f fe95 833f d91b 143f 3ec5 133f
000000e0: 10c6 823f ce5a 043f ed54 6b3f 66e2 623f
000000f0: 9278 743f 751f 8a3f e0ff 3e3f 689d 693f
0.95805293 0.58218324 1.0431617 1.014939 0.7753406 1.1201081 0.75090003 1.0866768
0.70290285 0.52515143 1.4546545 0.99984854 0.9154639 0.89727694 0.767308 0.7977719
1.2952325 1.0575336 0.6247268 1.140636 1.1755365 1.0797471 0.8282471 0.86740005
1.0680085 1.0006831 1.1431313 0.7567429 1.1534466 0.67502093 0.6803142 0.887842
0.7054473 0.6523062 1.1361227 1.1870713 0.82783484 1.1112919 0.70271796 0.6635302
1.0936042 0.68188703 0.7946546 0.9925796 0.90012497 0.9289417 0.9628227 0.7544625
1.1967177 0.807144 0.55017287 0.7295964 1.1993356 1.0280149 0.5785499 0.5772284
1.0216694 0.51701057 0.9192646 0.88626707 0.95496476 1.079085 0.74609184 0.9125581

pre_processing_batch_norm.1.bias f4 [64]
00000000: c8b7 dabd c937 d53c 67a6 e13b eb51 f53e
00000010: 0b1e a7be 9f4f 3cbe 78ed 093e 067e a03d
00000020: 907d 0d3f 3409 9f3d e26d edbd b2c7 233c
00000030: 455c 9cbe eb18 68ba 4342 873c 19f6 3dbc
00000040: 3cc0 803e 7551 3c3d de9d 64bd 8867 16be
00000050: 54fe 81be 301c 84be 92a6 95bd d692 c7bd
00000060: 7da3 473d 4010 adbd 081b 373e 3706 fcbd
00000070: 22f6 f4be 449b e3be cd01 683d f2f8 47bd
00000080: 6cee 8bbe d2dc 3d3e 460e 4bbd 56e8 94bd
00000090: 19a8 cebd 0113 983d bfd0 fc3c b56a 4bbb
000000a0: 1fa8 c43d d11e b33c 35e9 adbd 8703 d7be
000000b0: 6557 063f 2d28 f2bd 96af e5be 239d 8d3d
000000c0: d022 ad3d fb9d 28bd 43f0 b63d 13ab b5bd
000000d0: 0cca c03e df6a 85be af63 d73d ebb4 87bd
000000e0: 5bfd 7a3e 2ed6 22bd 0927 403e 1e36 b6bd
000000f0: e855 97bd 4cfd a2be 6625 0abd 793b 47be
-0.10679585 0.026027577 0.006886292 0.4791406 -0.32640108 -0.18389748 0.13469493 0.07836537
0.5526972 0.07765427 -0.11593224 0.009996342 -0.30539146 -0.0008853811 0.016511088 -0.011594319
0.25146663 0.04597612 -0.055814616 -0.14687932 -0.2538935 -0.25802755 -0.073071614 -0.097448036
0.0487399 -0.08450365 0.17881405 -0.12305873 -0.47844034 -0.44454396 0.056642342 -0.048821397
-0.2733034 0.18541268 -0.04957416 -0.07270877 -0.10090656 0.074255 0.030861257 -0.0031038944
0.09602379 0.02186528 -0.08491746 -0.4199488 0.52477103 -0.11824069 -0.44860524 0.06914737
0.084539056 -0.041166287 0.08932545 -0.088705204 0.3765415 -0.260581 0.1051706 -0.06626304
0.2451071 -0.03975504 0.1876489 -0.08897041 -0.07389432 -0.31833875 -0.033727072 -0.19456281

pre_processing_batch_norm.1.running_mean f4 [64]
00000000: 6f03 b0bf d208 33bf 9f00 293f 5ca9 d13f
00000010: 52f6 d43f 275e 28c0 b12f b53f 5bd2 37be
00000020: f90b cf3e de28 11bd 803f e43f 6b39 c5bf
00000030: 1ab6 3a3f 6f2b 9dbd 189e 96bf 36f9 8e3f
00000040: 0d22 ec3f 95ca 86bc 1995 813f 3af6 1040
00000050: db1d bb3f 8306 ef3f a565 35c0 0163 ae3f
00000060: 198c 6abf 01c8 4640 d937 703f 1b01 d23f
00000070: d924 da3f a703 b6bf bdc9 e8be 038b d03e
00000080: c138 0ac0 e2b2 5f3f 08ad 0c40 d2d3 3340
00000090: 6746 b5bf 14ad 9fbf ab62 cc3d 3100 a13f
000000a0: 936f f33f daad 503f 2ba2 203f 3b49 fd3d
000000b0: 5478 34bf d2ee d53f 50ad bf3f 1aa7 9f3f
000000c0: 5cc3 b63f ddab d63f 4b8d 183f 26c0 e43f
000000d0: 81c9 903f cfb5 993e 3ee0 5cbf 2d0b 523f
000000e0: 8a14 fabd f762 a33f a021 b93e 63ea f63f
000000f0: deec 7d3e bf10 65bf 8688 0640 77e5 85bf
-1.3751048 -0.69935334 0.6601657 1.6379809 1.6637671 -2.6307466 1.4155179 -0.17951338
0.40438822 -0.035439365 1.7831879 -1.5408148 0.72934115 -0.076743 -1.1766996 1.1169803
1.8447891 -0.01645402 1.0123626 2.2650285 1.4618486 1.8673862 -2.834329 1.3623964
-0.9162002 3.1059573 0.93835217 1.6406587 1.7042495 -1.4219865 -0.45466414 0.40731058
-2.159714 0.8738233 2.198061 2.8098035 -1.416211 -1.2474694 0.09979757 1.2578183
1.9018425 0.81515276 0.6274745 0.12367483 -0.70496106 1.6713507 1.4974766 1.247287
1.4278369 1.6771199 0.59590596 1.7871139 1.1311494 0.3002152 -0.86279666 0.820483
-0.12210949 1.2764577 0.36158466 1.9290279 0.24797389 -0.8947868 2.1020827 -1.0460652

pre_processing_batch_norm.1.running_var f4 [64]
00000000: e393 be40 f1c7 8440 8425 f640 d3b1 5e40
00000010: 4a67 0241 2ef8 0f41 2cf8 bb40 170d b840
00000020: d725 4040 1420 e040 c6bf 2141 f7c9 b240
00000030: b124 6640 7d0b 0641 c3d7 e140 af18 0241
00000040: 26a0 bc40 d2b5 6341 378a e740 963c 3741
00000050: 52de 2941 ec1c 2c41 e1ba 4741 e799 9c40
00000060: 7982 b940 ef4c 6341 6f56 f840 bf04 9140
00000070: 8218 0741 86ad 7840 8f6a ee3f 090d a440
00000080: 0c60 df40 6061 0740 e762 0b41 8ff9 6141
00000090: db17 0e41 9da1 ce40 e28f 2241 87cb b640
000000a0: 5125 fd40 9126 8540 d4c2 df40 0a95 3741
000000b0: 438f b640 4f04 0f41 34d0 0c41 a622 aa40
000000c0: ff40 1b41 2bf8 e140 f460 2040 b2bb c640
000000d0: 81e7 2e41 2507 0241 9475 ae40 fbb0 8240
000000e0: b092 e63f 4b7e 0141 64a5 e040 4329 7a40
000000f0: dde6 4540 9a71 f440 7440 1341 21f6 6741
5.9555526 4.149407 7.6920795 3.4796035 8.150217 8.998091 5.8740444 5.751598
3.0023096 7.003916 10.10932 5.587154 3.5959895 8.377805 7.057588 8.131026
5.8945494 14.23189 7.235622 11.4522915 10.616777 10.757061 12.483125 4.893787
5.797177 14.206283 7.760551 4.5318294 8.443483 3.885591 1.8626269 5.126591
6.9804745 2.1153183 8.711646 14.123427 8.880824 6.457228 10.160128 5.7123446
7.910805 4.160958 6.9925327 11.4738865 5.704988 8.938552 8.800831 5.3167295
9.703368 7.061544 2.5059175 6.210412 10.9315195 8.126744 5.451853 4.084104
1.8013515 8.093333 7.0201893 3.9087684 3.0922158 7.6388674 9.203236 14.49759

post_processing_lin_layers.0.weight f4 [64, 64]
00000000: af55 c0bc 07f7 843e 2cec 1cbd bb2c 09be
00000010: 789b 9fbe d9b1 9d3d 1ec3 0ebe 9648 cfbd
00000020: 7e3c b6bd 4ec8 64be 2382 7dbd b53f 583e
00000030: 2f01 66be e7e8 a63e 28bb 8a3e 9938 6bbe
00000040: f7c7 953e 4be1 893e 1339 383c 81fb 793e
00000050: fb84 a0bd 68f0 3e3d 2c8e af3c 6e40 663d
00000060: cb0f e33c 4cfd be3d a46e e93d 8925 373e
00000070: 6563 e7be aded b03d a7dc 053d 73ff 613e
00000080: 236c 703e ab73 68bd e57a f9bd b306 80bc
00000090: f93c 593e 9abf 97be 8583 8dbe 520d 37be
000000a0: 31a4 3dbe 5f31 27be e274 07be 84f2 62be
000000b0: c7d5 5cbe 101d 383d 6fa9 0f3e 3bc2 97bc
000000c0: 2fc5 8fbe c638 d4bd d9ba e23e 0e73 e3bd
000000d0: f015 20be 139b 493e d0c6 7a3e 6829 d53d
000000e0: fa4b ad3c 1d72 10be d644 0dbd 0a66 b8bd
000000f0: a505 d8bd bf67 a13c 6813 26be bd08 073e
00000100: c06f 5a3e a3c7 053e dd22 333e d954 213e
00000110: 99f7 f8bd cef2 04be da26 30be 5864 8dbd
00000120: f98e dfbd 38ee 07be bd2e 533e 4a6e 9cbe
00000130: de7f 31be 3d60 2d3e fe4b 4a3e 596d 0c3e
00000140: 3873 6d3e 50be 8e3b fbfa 0cbe f995 9c3e
00000150: 6989 943d f30d 41be db4a 693e 4679 853d
00000160: d89e edbc 016d 9b3c 1ca3 8c3e ac3d 783b
00000170: 19d0 453e 3f9f ff3d 3d59 6b3d b0ee 313e
00000180: da98 953d bba8 b2be a12a 8f3e fb4b 823e
00000190: 00c0 643d 069b abbc 3b0b 23be a6fb 75be
000001a0: fa4e 39be cf2c 4cbe 1da2 803d 2313 ea3d
000001b0: a5b1 08be 3839 a63d c974 373e 0a84 51be
000001c0: 2fc6 583e bc98 02bd f373 053e e0c9 eabc
000001d0: 48e3 933d 0f33 0e3e b55c 303e 22e7 8c3d
000001e0: f353 a5be 3cc8 bd3d 1531 54be eabd 603d
000001f0: 3b22 05be 2b98 a63d d0ce 71bc 9861 1b3e
00000200: 3eb1 a23d 8c05 52bd 5aa9 82be 6312 96bc
00000210: eceb 463e 8307 d23b e58e 4f3d daeb 06bb
00000220: 4138 3abd 5817 9e3d 3dd7 b9bd 9621 343e
00000230: a6c5 f5bd cd07 673d 294a 3b3e 6f39 dbbd
00000240: d805 3abe be4b e33d 1228 2b3e 67d3 8bbe
00000250: 9e52 773c 9caf f73c 5da6 a93d 4d42 1dbe
00000260: 014a 9abe df07 6dbe 7d72 a5bd cb71 943e
00000270: 63fe 33be f505 673d 4941 6e3e 86b4 62bd
00000280: 3e92 943e 1f3c 113e fe30 7cbc aece 44bd
00000290: 975b 8d3e 5ef7 bc3c 6486 10be 79a4 4cbe
000002a0: 9b9e 183e ee01 d2bd d57a a0bc e3f0 2abe
000002b0: 6df0 163e 792c e5bd cfb5 0fbe 1d96 5b3e
000002c0: 00d6 b43d 7e5b fcbc 4bb3 9abd 1ea4 5cbd
000002d0: 6f59 183e 7e49 2abe 073e 473d 76c9 013e
000002e0: ff4e 9b3e 322f 86bd 7639 073b 64e8 8a3e
000002f0: 3ac0 10be 07c3 3cbe e96f 08be c2dd aabe
00000300: 42b5 63be 7b10 a5bd 2b69 363d fd24 bc3d
00000310: 8f9e 5f3e d0db 8bbe e60b d93d c3a6 a63d
00000320: d7fb 403e da67 173e 73b4 9a3e ba1a e1bc
00000330: c72c 103e c58c b2be f33f 95be 547d 533e
00000340: 52ad 8c3e b90f acbe 1c05 ce3d 060e 153e
00000350: d935 9e3e 01ca 813e 7dbd b43d 7390 cdba
00000360: 67ae b5bc 988b ebbd 14ce a93e 45b7 75bc
00000370: 5c2d 983e 7d92 89bd 6923 79bd bd9f d73d
00000380: 3919 a6be 4385 8d3e 8912 b33e 06ed 7a3e
00000390: b038 f5bc 107d 36be 8048 8e3d ac50 193e
000003a0: 063b e83d 3b2a 463d 63e8 693e 4178 1c3e
000003b0: 147d 653c 3bb4 8cbd cb25 37be 141c e63d
000003c0: 0288 c33e 6c48 6f3e 1228 9a3d 211c 853e
000003d0: 9c44 4e3e 8411 543d ca22 c3bd 22f9 19bd
000003e0: 7b26 a1bd 038a c93d 9e5e 783e b444 893e
000003f0: fb60 aa3d 2f98 64bd 23fc ed3d 0578 173d
-0.023478357 0.25969717 -0.03831117 -0.1339597 -0.311733 0.076999374 -0.13941619 -0.101212665
-0.08898257 -0.22342035 -0.061891686 0.21118052 -0.22461389 0.32599565 0.27095914 -0.22970809
0.29254124 0.26929697 0.011244076 0.24412347 -0.07837864 0.046615988 0.021430098 0.05621379
0.027717492 0.09325656 0.11398056 0.17885412 -0.4519302 0.08639083 0.032681134 0.22070102
0.23478751 -0.056750935 -0.121816434 -0.015628194 0.21214665 -0.29638368 -0.27639404 -0.17876175
-0.18519665 -0.16327427 -0.13228181 -0.22162825 -0.21565925 0.04494959 0.14029478 -0.018525233
-0.28080127 -0.10362391 0.44283178 -0.11105929 -0.15633368 0.19688062 0.24489903 0.10408288
0.021154393 -0.14106031 -0.034489475 -0.090038374 -0.105479516 0.01970279 -0.1621834 0.13186927
0.21331692 0.13064437 0.17493768 0.15755023 -0.121566005 -0.12983248 -0.1720232 -0.06903905
-0.10915942 -0.13274467 0.20623298 -0.30552894 -0.17333934 0.16931243 0.19755551 0.13713588
0.23188484 0.004356183 -0.13767616 0.3058317 0.072527714 -0.18852977 0.22782461 0.06517272
-0.029006407 0.018972876 0.27468193 0.0037878556 0.19317664 0.12481546 0.05745815 0.17376208
0.07304545 -0.34894356 0.2796221 0.25448593 0.055847168 -0.020947944 -0.15922253 -0.24021778
-0.18096533 -0.19938968 0.06280921 0.11429431 -0.13349016 0.08116382 0.17915644 -0.20460525
0.21169351 -0.03188394 0.13032512 -0.028660715 0.07221085 0.13886665 0.17222865 0.068800226
-0.3229061 0.09266707 -0.20721848 0.054868616 -0.13001339 0.081344925 -0.014758781 0.15173948
0.079439625 -0.05127482 -0.2551983 -0.018319314 0.19425935 0.006409587 0.050673384 -0.0020587356
-0.045463804 0.07719296 -0.090742566 0.17590937 -0.12000589 0.056403924 0.18290009 -0.10704314
-0.18166292 0.11098431 0.16714504 -0.27309725 0.015095381 0.030235104 0.082836844 -0.15357323
-0.30134585 -0.23147534 -0.080784775 0.28993067 -0.1757751 0.056402165 0.23267092 -0.05534794
0.29017824 0.1418309 -0.01539254 -0.048048668 0.2760894 0.023067173 -0.14113766 -0.19984616
0.14904253 -0.10254274 -0.01958982 -0.16693453 0.14740153 -0.11190123 -0.14034198 0.21443982
0.0882988 -0.030805346 -0.07553729 -0.05386745 0.14877866 -0.16629598 0.04864314 0.12674507
0.30333707 -0.065519705 0.0020633615 0.27130425 -0.14135829 -0.18433772 -0.1332394 -0.33372313
-0.22237113 -0.08059784 0.04453389 0.091867425 0.21837829 -0.2731614 0.105979726 0.08137276
0.1884607 0.1478571 0.30215797 -0.027478565 0.14079581 -0.34873024 -0.29150352 0.20653278
0.27475983 -0.33605745 0.10059568 0.14556131 0.30900458 0.2534943 0.088252045 -0.0015683308
-0.022177888 -0.11501235 0.33165038 -0.014997308 0.29722106 -0.067173935 -0.060824785 0.105285145
-0.32441118 0.27640733 0.3497508 0.2450448 -0.029934257 -0.17821145 0.06947422 0.1497218
0.11339383 0.048380118 0.22842555 0.15280248 0.014006872 -0.06870314 -0.1788551 0.11235824
0.38189703 0.2336747 0.07527174 0.25998023 0.2014336 0.051774517 -0.0952812 -0.037591107
-0.07868668 0.09840777 0.24254844 0.2681023 0.08319279 -0.055809196 0.11620357 0.036979694

post_processing_lin_layers.0.bias f4 [64]
00000000: 3aea 7ebd f510 93bd f1a3 39be 32e3 253e
00000010: a9e4 36be c846 563d cb60 223d 162f 4bbe
00000020: 1491 abbe c4ed 51bd 36a2 55be 954a 73bc
00000030: 7d6e ecbd bf34 7fbe e149 573e a3cb 90bd
00000040: 3f5b 38be 7594 733e 63b8 b1be 1e8f 5c3e
00000050: 911a 9e3e 808e 62bd fb3c 54bd 4902 5c3e
00000060: 579d c33d 7310 403d 72e2 b6bc 69a4 843e
00000070: 1ab8 72be 30fa 40be c5b2 2cbe fed5 c4bd
00000080: 0294 293e 1bf0 c73d 6d36 453e a4bd 793e
00000090: 4774 3ebe 7315 8b3e 1afe 3f3e 8bf4 143b
000000a0: b388 ec3d f72c f7bd 0887 94bd a1b2 33be
000000b0: b0fd c0bd f041 69be 5633 c83d c14c 453e
000000c0: 9f75 dfbd 0e56 613e 7a67 643e c30b 12be
000000d0: e06d 03be 60bb 133e 4e89 42bd 3f72 9c3e
000000e0: 3ce5 26be 4887 3b3e 2ef7 f8bd 17ce 6b3e
000000f0: 8bff 8c3e d63d bdbd 40ec c7bd 02c8 8b3a
-0.062235095 -0.07180969 -0.18128945 0.1619995 -0.17860664 0.052313596 0.03964309 -0.1984218
-0.33509123 -0.05125214 -0.2086266 -0.014849325 -0.115445115 -0.24922465 0.21024276 -0.070700906
-0.18003558 0.237871 -0.34710988 0.2153897 0.30879644 -0.05531168 -0.051815968 0.21485247
0.095514946 0.046890687 -0.022324774 0.25906685 -0.23703042 -0.18845439 -0.1686507 -0.09611128
0.16560367 0.09762593 0.19259043 0.24388748 -0.18599044 0.27164802 0.18749276 0.0022728767
0.11549511 -0.12069123 -0.07252318 -0.1754861 -0.09423387 -0.2277906 0.097754166 0.1926756
-0.10911106 0.22005484 0.22305098 -0.14262299 -0.12834883 0.14426947 -0.047494225 0.30555913
-0.16298383 0.18313324 -0.12156521 0.23027836 0.27538714 -0.0924031 -0.09761858 0.0010664465

post_processing_lin_layers.1.weight f4 [64, 64]
00000000: ef8d ce3d 2aaa ab3e 6a09 343d 4b79 1a3e
00000010: 784c a8bd e358 833e 31d3 0f3e 6e1f 5abd
00000020: 6426 a33e f02b 433e f779 08be 13ab 223e
00000030: 34ff 313e 2b53 283d 18db bdbe e314 7d3e
00000040: 6498 0f3e 517b 083e 9113 733c 9910 ec3c
00000050: d3b7 3d3e 91ac 6b3e 9461 b33d e111 813e
00000060: e41e 813e 35c9 a03e 0b9d 8a3e 7a7c 26be
00000070: 3644 37be b08b ef3d cd99 10be f6a3 e43d
00000080: 1a19 1bbe 3f24 b4bd 3042 193e 4191 473e
00000090: b269 6a3e 90ea 86bd a33a 4b3e 7c22 de3c
000000a0: a027 043c 09b0 bcbc cb84 ab3e 3107 173e
000000b0: c2b4 973e 0dfd 0d3e 2caa 93bd db38 b53e
000000c0: ca46 1e3e 6916 febd cf6e 6b3e 79d3 3a3e
000000d0: 0125 82be a600 5d3d a5de 25be 8633 193e
000000e0: 6c81 2f3e 2ddb 5a3e 9044 7dbd db25 343e
000000f0: c311 183e 8577 87be eb78 db3d c08c 17be
00000100: a483 a2be 807b a83d e273 66be 42a1 8cbd
00000110: 4b1d bcbd c4f1 073c 0b08 f73d 5bb1 1aba
00000120: 8e62 543d 89b8 d83e a10e 1bbe 4f26 0b3e
00000130: 1e23 42be 31bd e4bd 2d7f 3abe b072 42be
00000140: 92bf 04be 2801 65be f8fb 933d 923b dcbc
00000150: 0c8a f73d 7307 75bc 6cb6 163e 1dc9 903e
00000160: ff7c 84be 8eea fcbd 4c9a 11be 6b51 c73d
00000170: 2e15 ecbd b4d3 24be bd66 8f3d d743 73be
00000180: dbc3 fd3d 3ffe 90be 11f1 733e 48c4 123e
00000190: 27b9 f8bd cc61 e1bd 58b4 79bd a551 60bd
000001a0: 8efa f7bd 1c02 923e 2de1 04be 80f9 c23e
000001b0: 07e1 9d3d 3b43 d73e b603 593e d3f0 1a3e
000001c0: 99c5 32be fbee dbbd eb5d 4f3e 1cb1 a43e
000001d0: 1bcf f33d 80d8 1cbe bf63 a8bd 23d0 7f3e
000001e0: f629 9c3e 4cb1 c73d e7f8 dc3d 9150 05be
000001f0: 10b7 2a3e ce5a 49bd 842a 8dbe 2baa bcbd
00000200: 3b73 3d3e a586 5e3e 0c80 96be d53e 23be
00000210: 3f9b 48be 265b 753e a39d 533e 3506 59be
00000220: cc3c 773e ee38 a73d cf07 80be 4fbf b03d
00000230: 3538 94be 0ab4 43bd 346b 99be d9a0 90bd
00000240: 5762 14be ce80 c7bd ac13 9a3e dd56 82be
00000250: b6ad 3a3e c70d 143e 60e8 523e c8cd 4e3e
00000260: b1f3 5dbe 5e83 243d bd69 403d 0797 d8bc
00000270: 73a5 afbd b413 9fbe d59e ed3d d27f ad3d
00000280: 37a0 f1bd c7f0 97be 9adf 9d3d 82ea 783d
00000290: 706e 5d3d 352d 5abe b431 313e 7117 0fbe
000002a0: 86bf 4fbe 2a63 743e 74fd 793e d76d d03e
000002b0: c0dd 0c3e fe11 2bbe 38a6 153e 66b8 413e
000002c0: 4ef2 b03d 2b94 aebe 8842 7a3e 4d0f abbd
000002d0: fd9d 61be 8c57 11be b17c e4bd 137f e23d
000002e0: 8d95 993e 6cee 613e 6bcd 59be 20d3 903d
000002f0: 12d1 293d e618 14be 5295 3bbe 3192 4fbe
00000300: 2811 e0bd 25f9 95bd 74d7 a53d a65f 273e
00000310: 0659 ba3c fbd3 74be e4c0 19be bd79 f53d
00000320: 5536 edbd beeb 5dbe 21f2 a53d 7204 28be
00000330: c2cc 81be a98f e13c 292c 383e 936f 99be
00000340: 458c 0ebe 1425 a13d f1a4 3ebe 4624 57be
00000350: 3a92 8bbe 7f64 d23d 71c0 ecbd baaa 89bd
00000360: efb5 683e 8be5 30be 44e5 033e 25a5 d83d
00000370: 5c37 033e c796 9b3d 9ef8 f3bd c68f 943e
00000380: 2917 183e e779 5e3e 8d78 82be f4c6 2abe
00000390: 5219 433e 70ec 5e3e d8f0 803e d1f3 273e
000003a0: 47f8 633e c0e9 86bd 1eaa b43c e0a8 6cbe
000003b0: 3ac5 27be c44e 8fbe f380 2fbd bb46 cabd
000003c0: 1ed7 423e efe8 643d 05c1 69be ab3f 3cbe
000003d0: 7c40 233d b4ea 293c 8a80 0f3d eaef afbd
000003e0: 8d5e 90be edad d4bd ae6b 2abc 9d34 5c3e
000003f0: c968 51be e1c2 033e 6b7c 1fbe a9d0 a53b
0.100856654 0.33528262 0.04395429 0.15085332 -0.0821771 0.25653753 0.14045407 -0.05325263
0.31865227 0.1905973 -0.13327776 0.15885572 0.17382509 0.04109494 -0.37081218 0.24714999
0.14022976 0.13328291 0.014836208 0.028816508 0.18527155 0.23015048 0.08758846 0.25208953
0.2521888 0.3140351 0.2707294 -0.16258422 -0.17897114 0.11696565 -0.1412117 0.111640856
-0.15146294 -0.08795976 0.14966655 0.19489004 0.22891882 -0.06587708 0.19846587 0.027116053
0.008066088 -0.023033159 0.3349975 0.14748837 0.29630095 0.13866062 -0.07210192 0.3539494
0.15456691 -0.12406618 0.22991489 0.18244733 -0.25418857 0.053955697 -0.16198213 0.14961061
0.17139214 0.21372671 -0.061832964 0.17592566 0.14850526 -0.26458374 0.10716423 -0.14799786
-0.3174106 0.08226681 -0.22505143 -0.06866695 -0.09185275 0.0082973875 0.12062081 -0.0005901062
0.0518518 0.4232829 -0.15142299 0.13588832 -0.18958709 -0.11168898 -0.18212576 -0.18989062
-0.12963703 -0.22363722 0.072257936 -0.026883874 0.12086877 -0.014955389 0.14718026 0.28278437
-0.25876614 -0.12349425 -0.14219016 0.09732326 -0.11527477 -0.16096383 0.07002018 -0.23756348
0.12390872 -0.28318974 0.23822428 0.14332688 -0.1214469 -0.110049814 -0.060963005 -0.054765362
-0.121083364 0.28517234 -0.12976523 0.38080978 0.07708936 0.4204348 0.21192822 0.1513093
-0.1745819 -0.10738941 0.2025067 0.32166374 0.119047366 -0.15316963 -0.0822215 0.24981742
0.30500764 0.097506136 0.10789662 -0.13019015 0.16671395 -0.049158864 -0.275715 -0.092121445
0.18500988 0.2173105 -0.29394567 -0.15941937 -0.19590472 0.23960552 0.20665602 -0.21193774
0.24144286 0.08165155 -0.25005957 0.08630239 -0.28949133 -0.04777912 -0.29964602 -0.07061929
-0.14490639 -0.097413644 0.30093133 -0.25456896 0.18230328 0.1445838 0.20596457 0.20195687
-0.21674992 0.040164344 0.04697584 -0.026439203 -0.08576479 -0.3106972 0.116025604 0.084716454
-0.11798137 -0.29675886 0.07708664 0.06077052 0.0540604 -0.21306308 0.17304116 -0.13973786
-0.20287904 0.23865953 0.24413091 0.407088 0.13756466 -0.16706082 0.14614189 0.18917999
0.08639966 -0.34097418 0.24439442 -0.08352528 -0.22032924 -0.14193553 -0.111565955 0.11059394
0.2999691 0.22063607 -0.21269767 0.07071519 0.04145915 -0.14462623 -0.1831868 -0.20270611
-0.10940772 -0.07322911 0.08097735 0.1634508 0.022747528 -0.23908989 -0.15014988 0.1198611
-0.11582629 -0.2167196 0.08102823 -0.16407946 -0.2535153 0.027534323 0.17985596 -0.29967937
-0.13920696 0.078684 -0.18617608 -0.21009931 -0.2726 0.10273074 -0.11560143 -0.06722017
0.22725652 -0.17275064 0.12880427 0.10578374 0.12814087 0.07597118 -0.11912654 0.2901594
0.14852585 0.2172619 -0.25482598 -0.16677457 0.19052628 0.21769881 0.2518375 0.16401602
0.22262679 -0.06587553 0.022053774 -0.23111296 -0.1638383 -0.2798978 -0.042847585 -0.09876772
0.19027373 0.055886205 -0.22827537 -0.18383662 0.03985642 0.010370899 0.035034694 -0.08590682
-0.28197137 -0.10384736 -0.010401649 0.21504445 -0.20450129 0.12867309 -0.15574805 0.0050602746

post_processing_lin_layers.1.bias f4 [64]
00000000: e848 973d d1e3 d7bd 3653 f8bd 6e0f 913e
00000010: 9567 8a3e 7a83 6cbe f446 3e3e 2a32 743e
00000020: c019 1dbe f72c 5dbe 25a6 d5bd 8d62 b2be
00000030: 16c6 fb3d f901 943e 85ee a7be d6f0 a73d
00000040: 258a 503e 665a 1d3e b4e0 b03e a304 b7be
00000050: 2cff 8fbe 032e 523d 2a3a 433e 003f 0ebe
00000060: d56b c93d 0488 e0bc d3e0 f63d 5516 46be
00000070: affc 983e 57b2 81bb 498e ab3e 25e6 593d
00000080: 0b99 9cbd 3e35 cc3d f660 d03a f98d 3c3d
00000090: 330f 383e 3a06 54be 45ad 0abd 70e6 8a3c
000000a0: 07c8 333e d8f7 b6bc 6197 c8bd f6ee 01bc
000000b0: 6a2e 6fbd 57c1 76be 5bb5 ddbd 964d 3fbe
000000c0: f14b 20be 7d44 7dbd 4713 313e 47cc 6fbd
000000d0: 6732 1b3e 87e3 443e 18cd 46bd 1890 35bd
000000e0: 90f8 66be aa2e 8d3d 09bf d03c 8d91 4bbe
000000f0: b6e9 62bd be6e 763e 1766 6cbd 68ff d93e
0.07386953 -0.105414994 -0.12125246 0.28332084 0.27032152 -0.2309703 0.18581754 0.23847261
-0.15341854 -0.21599184 -0.1043208 -0.34840813 0.12293641 0.28907755 -0.32799163 0.08200233
0.20365198 0.15366516 0.34546435 -0.35745725 -0.28124368 0.05131341 0.19065157 -0.1389122
0.098350205 -0.027408607 0.120546006 -0.19344456 0.29880282 -0.0039580273 0.33506992 0.053198
-0.07646378 0.09971093 0.0015898037 0.046033833 0.17974548 -0.207055 -0.03385665 0.016955584
0.17556773 -0.022334978 -0.09794498 -0.007930508 -0.058393873 -0.24097191 -0.108256064 -0.1868194
-0.1565397 -0.061832894 0.1729251 -0.058544423 0.15155946 0.1922742 -0.048535436 -0.04432687
-0.22555757 0.06893666 0.025481718 -0.19879742 -0.055398665 0.24065682 -0.057714548 0.42577672

post_processing_batch_norm.0.weight f4 [64]
00000000: 9a65 363f 6fe6 4c3f 3a6b 813f 43d6 803f
00000010: 1ee8 fb3e a78e 2a3f be2c 7b3f 314c 4e3f
00000020: 853c 683f be6f 9b3f 30c3 503f 4c56 793f
00000030: 4eb0 443f cedf 2d3f 8183 5e3f 4102 7c3f
00000040: 4547 6d3f 7cc9 4f3f e4db 7f3f ad4e 653f
00000050: aee0 7b3f 2730 9f3f fb72 593f a0be 5b3f
00000060: 5b70 883f 7e42 873f 3695 793f d73d 783f
00000070: 023b 4a3f b1d7 8b3f 62ea 573f 9f8f 803f
00000080: be39 7b3f 9916 7f3f 95e4 743f 1fb1 333f
00000090: ef1c 953f 92a2 633f 4cba 573f 8d83 393f
000000a0: 0145 723f b4a7 533f 9873 4f3f 4ef1 c03f
000000b0: 408f 583f db64 953f 5daa 263f 12c0 7f3f
000000c0: a3f7 933f 765a 583f 3d3e 663f 197e 9d3f
000000d0: 249e 403f 7630 583f 7711 403f b159 4c3f
000000e0: 172b 953f 9c7a 503f 4984 453f 7659 4f3f
000000f0: bc21 5d3f 9edd 513f bc14 0a3f 81e4 443f
0.7124878 0.80039114 1.0110848 1.0065387 0.4920053 0.6662392 0.98115146 0.8058501
0.90717345 1.2143476 0.8154783 0.97397304 0.7683152 0.67919624 0.8691941 0.9844094
0.92686874 0.81166816 0.999449 0.89573175 0.9838971 1.243657 0.8494107 0.85837746
1.0659288 1.0567167 0.974933 0.9696936 0.7899629 1.0925199 0.84342015 1.004383
0.9813498 0.99643856 0.9566129 0.7019214 1.1649455 0.8891994 0.8426864 0.72466356
0.9463654 0.8267777 0.8103576 1.507364 0.8459358 1.1671404 0.65103704 0.9990245
1.1559948 0.8451303 0.8993872 1.2304107 0.75241303 0.84448946 0.7502665 0.7982436
1.1653775 0.8143709 0.77154976 0.8099588 0.863796 0.81978786 0.5393789 0.7691117

post_processing_batch_norm.0.bias f4 [64]
00000000: 8bd5 babe ee62 66be 0aaf e93d cf27 433d
00000010: e90d 9fbe 2472 7dbe 5373 b0bd 2369 8c3d
00000020: a33e 71be d062 c3bc a26a 61bd 9592 1bbe
00000030: 0750 6cbe a617 3cbd 0bca b93d fef4 6cbe
00000040: afb7 77bd 14f6 ff3c da7d 0f3d ecc6 3dbe
00000050: c407 86be 8e78 21be 1001 35be a2c7 d63d
00000060: 98ef 903e 5434 57be 401e 923a 6147 b2b8
00000070: 0955 18bd 61c4 f33d 17d3 9bbc 1177 f63d
00000080: dd6a 173e 2573 7e3d cc8f c23d bd0b 49be
00000090: 7f63 883c 9f06 503d ef1e d83d 97c2 4cbe
000000a0: 2166 a4bd 872a ae3c 9d8a 00be 789f 403d
000000b0: a0d3 6fbe 1b4b 103e 499f b3be a178 56be
000000c0: b98e bf3e c5b4 843d 343d 29be 3c84 903d
000000d0: 3505 9fbc 53a0 12bd 51f7 8cbd 2787 5fbe
000000e0: fd1d 25bd 1b4a a7be 1aee 20bd 7cde 5cbc
000000f0: 25e3 00bd fe3e 4d3d f200 dabe 4f99 86bd
-0.36491045 -0.22498676 0.11410339 0.047645386 -0.310653 -0.24750572 -0.08615746 0.06855991
-0.2355905 -0.023850828 -0.055033334 -0.15192635 -0.23077403 -0.04592099 0.0907174 -0.23140332
-0.06047791 0.031245269 0.03503213 -0.18532914 -0.261778 -0.15768644 -0.17676187 0.10487296
0.28307796 -0.21016055 0.0011147931 -8.500997e-05 -0.03719047 0.11902691 -0.019021554 0.12034429
0.14786859 0.06212153 0.09500083 -0.19633384 0.016649006 0.050787564 0.10552775 -0.19996105
-0.08027292 0.021260513 -0.12552877 0.04702708 -0.23420572 0.1409115 -0.35082462 -0.20944454
0.37413576 0.064797916 -0.16527253 0.07056472 -0.019411663 -0.03579743 -0.06883109 -0.218289
-0.040311802 -0.32673725 -0.03928957 -0.013480779 -0.031466622 0.050108902 -0.42578846 -0.0657221

post_processing_batch_norm.0.running_mean f4 [64]
00000000: 64ce 38c2 c7da 9641 4839 36c2 6359 4642
00000010: b79e 2bc2 d5f5 dcc0 b1c5 c641 506c 61c2
00000020: 7c79 9c41 2299 3b42 69ca 68c2 d5eb 7b42
00000030: f4a0 61c2 3ca2 45c2 c1ec 80c2 bf61 b141
00000040: 6c24 f8c0 4b1f 22c2 7031 a541 c970 00c2
00000050: 3439 6042 f996 7942 e394 b741 d7b5 a6c0
00000060: 65ed 1ac2 73d6 e741 880b 8f42 d1b8 a4c1
00000070: 8f1b aec1 164f 4842 9402 f4be 8b41 3fc2
00000080: c04d 31c2 bbb1 84c2 b678 3a41 d03d e43f
00000090: 3e18 8141 6ba8 99c2 bb12 af41 40a6 73c2
000000a0: 8cc6 4942 0a26 9bc2 d667 8642 c1a9 8642
000000b0: 54a6 fc41 fe3d 2142 e6b8 3542 fb6e f841
000000c0: dc67 2742 f11c b1c2 f499 bb41 eee8 2a42
000000d0: 41a3 6ac2 87e0 4ac2 f80b 4dc2 4ecd 6f41
000000e0: d0f0 3342 0f40 2f42 bced 46c1 2328 66c1
000000f0: 0f86 5342 73ca 4dc2 e5af 6cc2 b5be 18c2
-46.201553 18.856825 -45.55594 49.58729 -42.904995 -6.905009 24.846529 -56.355774
19.559319 46.899544 -58.197666 62.980305 -56.40718 -49.408432 -64.46241 22.172728
-7.754446 -40.53056 20.64914 -32.11014 56.055862 62.397434 22.947699 -5.2096972
-38.73183 28.979712 71.52252 -20.590242 -21.763456 50.077232 -0.47658217 -47.814007
-44.325928 -66.34713 11.65447 1.7831364 16.136837 -76.82894 21.884146 -60.912354
50.443893 -77.574295 67.202805 67.33155 31.581215 40.31054 45.430565 31.05419
41.851425 -88.556526 23.450172 42.72747 -58.659428 -50.719265 -51.26169 14.987623
44.98517 43.812557 -12.433041 -14.384799 52.880917 -51.447704 -59.171772 -38.186237

post_processing_batch_norm.0.running_var f4 [64]
00000000: 6802 cc45 31a4 ff45 00f9 2246 0e8c 5046
00000010: 9642 3346 012a a944 0947 6e46 18fa 9446
00000020: b5a6 0346 8228 6b46 3615 9946 a5bd 4946
00000030: 0386 ff45 04ce 1a46 4635 5046 0233 2c46
00000040: 4176 7d44 35bc 0046 d3b9 a745 9f86 4645
00000050: 7e62 f546 174c 6f46 d6d6 4f46 5b4b 9843
00000060: 5690 6d46 03a7 3846 966e 0947 28e2 be45
00000070: 14da 0446 6f07 3a46 8ec1 9745 0132 a845
00000080: 5c4e fd45 5d71 8b46 13ae 4746 2d4c 7744
00000090: 64a3 6145 eaf2 ce46 9d5a ae45 fded c946
000000a0: 5312 6846 2323 aa46 76a7 8c46 60ed 0247
000000b0: d5bc 4346 ab9f 6946 e25c c145 2de8 6b46
000000c0: 0798 e945 7c22 1347 4afb 2e46 f099 9d46
000000d0: e1e8 9c46 fd56 2246 a06b 9446 7270 4946
000000e0: c011 9f46 0e52 b246 6f95 6645 d5d4 6c44
000000f0: 43f2 2046 c2d8 8a46 737d c245 3967 4246
6528.301 8180.524 10430.25 13347.014 11472.646 1353.3126 15249.759 19069.047
8425.677 15050.127 19594.605 12911.411 8176.7515 9907.504 13325.318 11020.752
1013.8477 8239.052 5367.228 3176.4138 31409.246 15315.022 13301.709 304.5887
15204.084 11817.753 35182.586 6108.2695 8502.52 11905.858 4856.1943 5382.2505
8105.795 17848.682 12779.519 989.19025 3610.212 26489.457 5579.3267 25846.994
14852.581 21777.568 18003.73 33517.375 12527.208 14951.917 6187.6104 15098.044
7475.0034 37666.484 11198.822 20172.969 20084.44 10389.747 18997.812 12892.111
20360.875 22825.027 3689.3396 947.3255 10300.565 17772.379 6223.681 12441.806
