checkpoints/checkpoints_homogeneous_staging_vessel_graph/DCP_model_1_3dr9fd83.pt (torch, 69960 bytes, 46 tensors)

pre_processing_lin_layers.0.weight f4 [32, 15]
0.298223 0.009211383 0.25936374 0.5266008 0.292498 0.13427377 0.19336282 0.0402073
0.17759883 -0.20215158 0.11353796 -0.04503692 -0.62242806 0.032551754 -0.12590969 -0.06228197
-0.049058557 -0.10920842 -0.15107898 -0.5399269 0.42907798 0.14472729 -0.21512266 -0.03400085
0.46887586 0.42609042 0.12064238 0.15210661 0.11087419 0.06876477 0.102706596 0.49081933
0.31364125 0.109300174 0.32681924 -0.30740607 0.04419851 0.08000148 0.21650311 -0.22203851
0.15378176 -0.29011393 0.05908773 -0.04013832 0.030356646 0.30233404 -0.05743514 0.18580359
-0.00075759855 0.49080968 -0.04076975 0.13141266 0.47361052 0.30290034 -0.37375593 -0.21646965
-0.013310007 -0.44899517 -0.07228407 -0.02200436 0.04074949 0.13910596 0.23745114 0.30491197
0.46012095 -0.13003254 0.5184334 0.2096093 0.05706049 -0.2810303 0.48959163 -0.02946297
0.028223375 0.019390939 0.20051078 0.2299016 0.1583358 -0.067927904 0.0921198 0.13079453
-0.4218477 -0.078965336 0.11216228 0.18241128 -0.18913093 0.38698623 0.11158218 -0.8268222
-0.020821238 -0.29550764 -0.025784211 0.06862043 -0.6437508 -0.17874908 -0.01087734 0.22721468
0.26572016 0.09221355 0.39936158 0.2510829 0.4864356 -0.32738227 -0.056201957 0.09943316
-0.06598283 0.24898441 0.36306417 0.01116297 0.48595548 0.211381 0.025971204 0.056692477
-0.13348871 0.2470703 -0.07296296 0.19692412 0.30608088 0.30878377 0.105964996 0.37526846
0.30456218 0.28089598 0.21193813 0.4506393 0.33916846 -0.13540536 0.20304109 0.2822623
0.13361195 -0.26728326 0.02309338 0.13978006 -0.10869893 -0.086616985 -0.09728406 -0.046522792
0.10793636 0.5517999 0.012546779 0.18932895 -0.18193702 -0.17780983 0.39041933 0.30012026
-0.40740865 -0.24226353 0.05719575 -0.686402 -0.114534974 -0.25585538 -0.21099572 -0.14809409
-0.12499873 -0.15154012 -0.16022377 0.24263552 -0.29605463 -0.20987281 -0.43903 -0.028703023
0.00888987 -0.15692042 0.6030156 0.0137355 0.28260976 -0.0077644777 -0.22211342 -0.08341071
-0.05837903 -0.3187602 0.1905248 0.40064704 -0.28061038 -0.20939004 0.31670642 0.07836254
-0.29252058 0.33691773 -0.00252318 -0.14833571 0.01573019 0.1940351 0.27306175 0.49988344
0.4711556 -0.094262846 0.4333047 0.1322081 0.104684755 -0.042373065 0.094016396 -0.066371575
-0.50819665 0.082980625 0.09733264 0.16079672 -0.07736574 0.41783148 0.067306265 0.44680172
-0.07168113 0.041944604 0.28230187 0.3885134 -0.43160114 0.04490699 -0.024847759 -0.45786646
-0.13727403 -0.24011162 0.27342185 0.06186261 0.34548894 0.30862495 0.20291972 0.001134481
0.111862265 0.034950625 0.24559595 -0.15542954 -0.07564675 0.14637661 -0.5602671 -0.19740213
-0.1289039 -0.1533634 0.124232635 0.32541552 -0.06187423 -0.29625985 -0.26107022 0.29393157
-0.24792239 -0.26392233 -0.01760819 0.046332546 -0.4436893 -0.26963344 0.057821363 0.13618451
-0.2208677 0.070149764 -0.678277 -0.33637115 -0.120760985 0.5900439 0.22043869 -0.30616066
-0.22751337 0.017765457 0.24876752 -0.029341923 0.7314056 -0.16015014 -0.015891235 -0.028887961
00000000: afb0 983e 57eb 163c 53cb 843e 4fcf 063f
00000010: 4cc2 953e 107f 093e e700 463e 69b0 243d
00000020: 78dc 353e d300 4fbe 9786 e83d a278 38bd
00000030: 7257 1fbf fd54 053d 78ee 00be 611b 7fbd
00000040: a0f1 48bd aaa8 dfbd 73b4 1abe a638 0abf
00000050: 1cb0 db3e 6433 143e 1d49 5cbe 7a44 0bbd
00000060: 7f10 f03e 8628 da3e 5a13 f73d d6c1 1b3e
00000070: 0212 e33d 8bd4 8c3d d657 d23d ac4c fb3e
00000080: 9695 a03e c5d8 df3d da54 a73e 5464 9dbe
00000090: 7f09 353d d1d7 a33d feb2 5d3e 105e 63be
000000a0: f778 1d3e d089 94be fa05 723d 1468 24bd
000000b0: 80ae f83c 87cb 9a3e 1c41 6bbd 4c43 3e3e
000000c0: 9499 46ba 684b fb3e 2efe 26bd 0a91 063e
000000d0: 147d f23e c115 9b3e f05c bfbe 38aa 5dbe
000000e0: 3712 5abc b2e2 e5be ac09 94bd 7d42 b4bc
000000f0: f0e8 263d cb71 0e3e 6426 733e 6c1d 9c3e
00000100: f994 eb3e 4027 05be 0db8 043f d2a3 563e
00000110: 43b8 693d 34e3 8fbe c1ab fa3e 545c f1bc
00000120: b534 e73c bfd9 9e3c b352 4d3e 536b 6b3e
00000130: c822 223e c91d 8bbd 4ea9 bc3d 00ef 053e
00000140: 6cfc d7be 94b8 a1bd 56b5 e53d 06ca 3a3e
00000150: 8aab 41be 0f23 c63e 3385 e43d 9faa 53bf
00000160: 4d91 aabc c74c 97be 6939 d3bc de88 8c3d
00000170: dacc 24bf 000a 37be df36 32bc f7aa 683e
00000180: 790c 883e 75da bc3d 1f79 cc3e f08d 803e
00000190: 160e f93e a69e a7be 0634 66bd 9da3 cb3d
000001a0: 0222 87bd c5f5 7e3e 8ce3 b93e e4e4 363c
000001b0: 28cf f83e 4374 583e 90c1 d43c 5f36 683d
000001c0: 44b1 08be ffff 7c3e 9b6d 95bd 7aa6 493e
000001d0: a2b6 9c3e e818 9e3e 2d04 d93d 3023 c03e
000001e0: 93ef 9b3e 99d1 8f3e 4f06 593e 32ba e63e
000001f0: 7da7 ad3e b4a7 0abe 01ea 4f3e af84 903e
00000200: 92d1 083e 5ad9 88be 542e bd3c 8122 0f3e
00000210: 8b9d debd 3f64 b1bd de3c c7bd af8e 3ebd
00000220: bd0d dd3d c242 0d3f 0191 4d3c 73df 413e
00000230: b34d 3abe c813 36be 0be5 c73e 5da9 993e
00000240: de97 d0be ee13 78be 1746 6a3d 0bb8 2fbf
00000250: 5091 eabd 7aff 82be 430f 58be faa5 17be
00000260: 56ff ffbd 552d 1bbe b311 24be 7275 783e
00000270: 7994 97be e6e8 56be 8ac8 e0be 9a22 ebbc
00000280: d1a6 113c bfaf 20be 3b5f 1a3f dd0a 613c
00000290: 3ab2 903e 296d febb b371 63be 3cd3 aabd
000002a0: da1e 6fbd 8934 a3be ef18 433e 9c21 cd3e
000002b0: 2aac 8fbe 586a 56be 5827 a23e 8a7c a03d
000002c0: 42c5 95be 7b80 ac3e f05b 25bb 51e5 17be
000002d0: 99dc 803c 23b1 463e c0ce 8b3e b9f0 ff3e
000002e0: 4f3b f13e e10c c1bd 1dda dd3e 8f61 073e
000002f0: f664 d63d 618f 2dbd ab8b c03d d2ed 87bd
00000300: 2d19 02bf bff1 a93d 5656 c73d e5a7 243e
00000310: ee71 9ebd 02ee d53e ded7 893d 32c3 e43e
00000320: 8ecd 92bd 1bce 2b3d df89 903e 3aeb c63e
00000330: d3fa dcbe 64f0 373d 878d cbbc 796d eabe
00000340: 9091 0cbe d2df 75be f3fd 8b3e a663 7d3d
00000350: ede3 b03e 1704 9e3e 30ca 4f3e deb2 943a
00000360: 0b18 e53d 6328 0f3d 817d 7b3e ec28 1fbe
00000370: afec 9abd c0e3 153e aa6d 0fbf c923 4abe
00000380: 62ff 03be 4c0b 1dbe ae6d fe3d dd9c a63e
00000390: d56f 7dbd 5faf 97be ffaa 85be 337e 963e
000003a0: 5edf 7dbe d420 87be 0d3f 90bc 32c7 3d3d
000003b0: 3e2b e3be 650d 8abe 18d6 6c3d f473 0b3e
000003c0: 242b 62be aeaa 8f3d 90a3 2dbf d738 acbe
000003d0: 8951 f7bd 1e0d 173f aeba 613e 17c1 9cbe
000003e0: 44f9 68be dd88 913c eabc 7e3e 795e f0bc
000003f0: 663d 3b3f 66fe 23be 562e 82bc 72a6 ecbc

pre_processing_lin_layers.0.bias f4 [32]
-0.19364719 0.034696206 0.124928616 0.1481528 -0.20362763 0.12005276 -0.21770379 -0.16762283
0.12342447 0.0418114 0.025324866 -0.10374894 -0.27994093 0.24250633 0.23880532 -0.19356912
0.14272253 0.11960176 -0.078010105 -0.05180151 0.021999218 -0.23772095 -0.017033985 -0.0005123275
0.14397794 0.12120659 0.1906363 -0.20796914 -0.069524646 0.031963017 -0.22089586 -0.20296012
00000000: 734b 46be 9c1d 0e3d 93da ff3d 5eb5 173e
00000010: c383 50be 39de f53d beed 5ebe 52a5 2bbe
00000020: f8c5 fc3d 6e42 2b3d 1876 cf3c 537a d4bd
00000030: 6b54 8fbe 9453 783e 6289 743e fc36 46be
00000040: db25 123e c4f1 f43d c3c3 9fbd d22d 54bd
00000050: b437 b43c 1f6d 73be db8a 8bbc b74d 06ba
00000060: f46e 133e 293b f83d 2a36 433e ddf5 54be
00000070: f062 8ebd a7eb 023d 8632 62be c7d4 4fbe

pre_processing_lin_layers.1.weight f4 [32, 32]
0.23632143 -0.035269454 0.14554678 0.32345787 0.18541387 0.069146186 -0.010005113 0.15495092
-0.09692711 0.3009897 -0.09052232 -0.0016813437 0.18836366 0.16581374 0.33789548 -0.13942678
-0.08125063 0.15512139 0.23474133 0.027164295 -0.010440361 -0.095651604 -0.13060682 0.33862343
-0.23013026 -0.28119734 -0.4160728 0.042947948 -0.27705526 -0.29654753 -0.02838693 0.0941783
0.32321763 -0.28932557 0.11658716 0.34867668 0.06832106 0.2657305 -0.09696189 0.037685696
0.33471462 0.11005946 -0.32074964 -0.15823664 0.07396872 0.2915161 0.42989942 -0.11697466
-0.28554803 0.22577308 -0.08728102 -0.14163779 -0.08544115 -0.09544584 0.030362211 0.025228083
-0.13951108 -0.03668435 -0.29344124 0.08307469 -0.21090497 -0.14409159 0.14412141 -0.0017103308
-0.21201621 0.23803055 -0.1261353 -0.43584156 -0.037472192 -0.15105143 0.21726564 -0.09184055
-0.18405282 -0.2326795 0.17708455 0.002041747 -0.009878133 -0.17229262 -0.19746184 -0.069748096
-0.062337313 -0.15024142 -0.14501092 0.12070271 0.39327 0.21624427 -0.16476008 -0.29038918
-0.0034986378 0.35912237 0.25348258 -0.2576674 0.2251811 0.30605778 0.016528355 0.10318544
0.09432856 -0.061993696 -0.034938924 0.38711485 0.11651104 0.06105122 -0.22713175 0.098980844
0.13853264 0.22148483 -0.16036277 -0.15967827 0.3066385 0.24227957 0.32965407 -0.048221394
-0.059835095 0.029806051 0.12200423 -0.048065662 -0.20424844 -0.31866217 0.14745805 0.021618119
-0.18238588 -0.03204373 -0.27836716 0.19763702 -0.36605048 -0.09783368 -0.1451481 0.13424107
0.34524193 -0.00483689 -0.30605236 0.11711863 0.2606622 -0.20535396 0.042332288 0.017527657
0.37404928 -0.036029264 -0.03423163 -0.19961214 0.31781417 0.11017308 0.23340236 -0.1344462
-0.24598897 0.2046708 0.001246364 -0.32737723 -0.31809947 -0.08683139 -0.34583038 0.4092124
-0.37989062 -0.03135424 -0.24841282 0.16526815 0.10906442 -0.27936327 -0.11419886 0.15582564
0.2770078 0.0094008995 0.18429205 0.18373175 0.07706248 0.089244954 0.13624172 0.04200709
0.25770968 0.19607449 -0.08136871 0.0011783036 0.2847461 0.13671908 0.25128362 0.068974264
-0.21963793 -0.06232975 0.0150781805 0.01588046 -0.071159035 -0.19372968 0.22080861 0.381738
-0.21795413 -0.18038614 -0.17497233 0.0490654 -0.35277206 -0.26852465 -0.18274474 0.18419093
0.11085229 0.22790472 -0.13342442 0.3799374 -0.14197446 -0.0037354473 0.11871171 -0.08770178
-0.16508551 0.309971 -0.08702054 -0.19779192 0.17249651 0.18068524 0.2490869 -0.31580493
-0.18034825 0.22015609 -0.22039935 0.32626492 -0.043422844 -0.17533688 0.32807463 0.42883256
0.10492461 -0.028738335 -0.15884815 -0.1130196 0.11982314 0.048744556 0.30318773 0.0044425623
-0.2952184 0.039113272 -0.114465065 -0.37249005 -0.21341363 -0.19229396 -0.003619436 -0.09503088
-0.29230264 -0.3852422 0.06764915 -0.035511274 -0.1297719 -0.4069619 -0.08761152 0.04663301
0.16258082 -0.13015418 -0.010278785 -0.026786447 0.3472247 0.0052013695 -0.12897447 -0.07321485
0.06148765 0.31872007 0.5424202 -0.2001144 0.010052569 0.03970337 0.12112712 -0.082825765
00000000: 3ffe 713e b476 10bd 370a 153e 459c a53e
00000010: 22dd 3d3e 849c 8d3d 7cec 23bc 74ab 1e3e
00000020: b881 c6bd 521b 9a3e c463 b9bd 8860 dcba
00000030: 67e2 403e 14cb 293e a300 ad3e e5c5 0ebe
00000040: bb66 a6bd 24d8 1e3e 0860 703e a887 de3c
00000050: 0c0e 2bbc fde4 c3bd cbbd 05be 0d60 ad3e
00000060: 44a7 6bbe 19f9 8fbe 7e07 d5be 30ea 2f3d
00000070: 30da 8dbe 14d5 97be b58b e8bc 8de0 c03d
00000080: c87c a53e 7b22 94be 40c5 ee3d c085 b23e
00000090: e9eb 8b3d d40d 883e f593 c6bd 515c 1a3d
000000a0: b75f ab3e db66 e13d 4c39 a4be c908 22be
000000b0: ea7c 973d 9941 953e c71b dc3e 6990 efbd
000000c0: 5a33 92be 0f31 673e 64c0 b2bd 7f09 11be
000000d0: c5fb aebd 1c79 c3bd 2cba f83c 20ab ce3c
000000e0: fedb 0ebe 5442 16bd ee3d 96be 1023 aa3d
000000f0: 79f7 57be bf8c 13be 9094 133e 2e2d e0ba
00000100: c71a 59be 48be 733e 9d29 01be a026 dfbe
00000110: 717c 19bd 3aad 1abe e27a 5e3e e616 bcbd
00000120: 5878 3cbe 8943 6ebe a755 353e d5ce 053b
00000130: e5d7 21bc 7a6d 30be 7033 4abe 17d8 8ebd
00000140: 6955 7fbd e3d8 19be be7d 14be fb32 f73d
00000150: af5a c93e 236f 5d3e deb6 28be e4ad 94be
00000160: 6749 65bb e3de b73e 78c8 813e fbec 83be
00000170: e095 663e 9bb3 9c3e 7966 873c e352 d33d
00000180: 552f c13d 1aed 7dbd 1e1c 0fbd eb33 c63e
00000190: 579d ee3d d810 7a3d 3a95 68be 78b6 ca3d
000001a0: 80db 0d3e ebcc 623e 2336 24be b382 23be
000001b0: b9ff 9c3e 2318 783e 6bc8 a83e cc83 45bd
000001c0: a515 75bd d22b f43c 5bdd f93d 80e0 44bd
000001d0: 8126 51be b027 a3be 3eff 163e 7b18 b13c
000001e0: 5dc3 3abe 4940 03bd 2486 8ebe 5c61 4a3e
000001f0: f86a bbbe 065d c8bd b4a1 14be 7e76 093e
00000200: 8dc3 b03e c67e 9ebb e5b2 9cbe e4db ef3d
00000210: 8475 853e 4f48 52be 9f64 2d3d 2996 8f3c
00000220: 6383 bf3e 6c93 13bd 7736 0cbd 2067 4cbe
00000230: 8ab8 a23e 6ca2 e13d 0701 6f3e 44ac 09be
00000240: 88e4 7bbe 3995 513e 095d a33a fd9d a7be
00000250: efdd a2be a8d4 b1bd ae10 b1be 4a84 d13e
00000260: 0681 c2be 4e6d 00bd ee5f 7ebe 0e3c 293e
00000270: 2b5d df3d b408 8fbe 18e1 e9bd c290 1f3e
00000280: f7d3 8d3e 3b06 1a3c 0eb7 3c3e 2d24 3c3e
00000290: efd2 9d3d 0fc6 b63d f382 0b3e a00f 2c3d
000002a0: 86f2 833e c0c7 483e a3a4 a6bd 4f71 9a3a
000002b0: 3eca 913e 1600 0c3e 3fa8 803e 6142 8d3d
000002c0: c4e8 60be 7b4d 7fbd 790a 773c bd17 823c
000002d0: d4bb 91bd 1361 46be a71b 623e 2a73 c33e
000002e0: 5e2f 5fbe 25b7 38be f22b 33be cdf8 483d
000002f0: 8a9e b4be 107c 89be 7021 3bbe 8c9c 3c3e
00000300: 8706 e33d db5f 693e 69a0 08be 2887 c23e
00000310: c161 11be 68ce 74bb 201f f33d fe9c b3bd
00000320: 2d0c 29be 85b4 9e3e d337 b2bd f789 4abe
00000330: eda2 303e 8d05 393e a310 7f3e 2fb1 a1be
00000340: 36ad 38be 9970 613e 5eb0 61be 320c a73e
00000350: 27dc 31bd 838b 33be 66f9 a73e f18f db3e
00000360: b7e2 d63d a86c ebbc 17a9 22be d276 e7bd
00000370: d665 f53d 5fa8 473d 6c3b 9b3e ea92 913b
00000380: de26 97be 3d35 203d a96c eabd 04b7 bebe
00000390: 1a89 5abe b5e8 44be 0f34 6dbb 8d9f c2bd
000003a0: b1a8 95be 773e c5be a38b 8a3d 4574 11bd
000003b0: ede2 04be 4f5d d0be ab6d b3bd 4102 3f3d
000003c0: 967b 263e 2347 05be 5968 28bc 406f dbbc
000003d0: 70c7 b13e 4070 aa3b e211 04be abf1 95bd
000003e0: 79da 7b3d 472f a33e 0ddc 0a3f caea 4cbe
000003f0: 88b3 243c 00a0 223d 7f11 f83d 8ea0 a9bd

pre_processing_lin_layers.1.bias f4 [32]
0.15815064 -0.08651502 -0.0784882 -0.19307345 -0.13735855 -0.0038967386 0.17834128 -0.008880092
-0.064433284 0.14458503 0.058734078 0.11346076 0.018957946 -0.10032823 -0.014390143 0.035686266
0.013270026 -0.07356775 0.1302678 -0.040911198 0.16587156 -0.094464846 0.16174802 0.17091694
0.035511654 0.007865197 -0.12752001 -0.03956703 0.036186565 0.014414515 0.09662966 -0.13388434
00000000: 3ef2 213e c92e b1bd 6cbe a0bd 0cb5 45be
00000010: b8a7 0cbe 6d60 7fbb 199f 363e ce7d 11bc
00000020: 99f5 83bd 190e 143e 2593 703d 1d5e e83d
00000030: b24d 9b3c e378 cdbd a2c4 6bbc c32b 123d
00000040: 866a 593c b0aa 96bd ec64 053e 8092 27bd
00000050: 3cda 293e c976 c1bd 46a1 253e da04 2f3e
00000060: ab74 113d 07dd 003c 9b94 02be 0a11 22bd
00000070: 5d38 143d dc2a 6c3c c5e5 c53d fa18 09be

pre_processing_lin_layers.2.weight f4 [32, 32]
0.34182832 0.24237168 -0.52892405 0.18732874 0.23086505 0.2216043 0.079099976 -0.06462197
0.25736767 -0.02802709 0.17453523 -0.18840149 -0.08363288 -0.21081303 0.28565213 -0.23970972
0.008504261 -0.13381782 -0.14929974 -0.32768396 0.042018805 0.13742766 0.15061514 0.096212536
-0.29924846 0.081033655 -0.09422008 -0.39305365 0.21933846 -0.01904982 0.36420193 0.15962861
0.44940516 0.18647702 -0.15040204 0.19035469 0.11880048 0.25037363 -0.13811588 -0.14673088
0.012186218 0.034052365 0.14352895 -0.2044342 -0.27330673 0.11242546 0.10821766 -0.33679175
-0.099617966 -0.12080517 -0.06490652 -0.24792889 -0.10629917 0.35664034 0.06905588 0.25364718
-0.29609206 -0.022408161 0.18403746 -0.18399258 0.22944781 -0.058892805 0.28293794 0.16084321
-0.18690944 -0.05892614 0.27085346 -0.14899123 -0.13659674 -0.3376976 0.28213143 0.020129396
-0.13059312 0.33476698 -0.19643384 0.2584218 0.40558705 0.03493152 -0.026394172 0.34809658
0.07617281 0.14812681 0.23997489 0.4293743 0.13558549 -0.288359 -0.0059091225 -0.10395647
0.055425785 0.0914583 -0.08423166 0.114628285 -0.38403842 0.07975148 -0.37370864 -0.09275328
0.33192635 0.38113588 -0.039017197 0.3695756 -0.032122016 0.07327512 0.20335951 -0.5388563
-0.27289018 0.38594314 0.29691154 -0.2600945 0.18845531 -0.106054455 0.28867674 0.06378741
-0.39551234 0.04526962 -0.386886 -0.2765221 -0.019123811 0.07984428 -0.023246408 -0.04784414
-0.38867766 0.29362196 0.40682724 -0.24311396 -0.02210475 -0.27081874 0.031049302 0.043600027
-0.25213155 -0.30944526 -0.06686713 -0.24631391 -0.19668588 0.2566868 -0.13779457 0.14872982
0.005752181 -0.056358624 -0.0923455 -0.03320269 -0.10637887 0.22728544 -0.13755423 0.37388992
0.20481354 0.08198815 -0.0058978647 0.3649441 -0.290317 -0.41317403 -0.064441055 0.075403675
0.24897277 0.041780923 -0.19700621 0.18460912 -0.35959014 0.20259592 -0.1123091 -0.14235012
0.28589094 0.043546926 -0.49264687 0.4027787 -0.049060866 0.058527112 0.16072623 -0.26150602
0.27777717 0.043900166 0.039108407 -0.15359522 -0.09398472 -0.03746806 0.30495983 -0.42420262
0.11487861 -0.19452408 -0.13743596 -0.20839116 0.064138964 0.32761943 -0.04773611 0.12174505
-0.19554187 -0.043678466 -0.188875 -5.9948346e-05 0.14594084 -0.100375496 0.17680429 0.28829756
-0.04620034 -0.22751464 0.3575783 -0.3002937 -0.3397818 -0.22631222 -0.079395555 0.11686288
0.11417431 0.26737684 -0.3095888 0.18655814 0.21121328 0.36307302 -0.1866809 0.2612082
0.16044018 0.14996167 0.26211268 0.32418844 -0.2070443 -0.20189482 -0.20112734 -0.18667516
0.04264198 -0.080252595 -0.016688997 0.4338005 -0.042701114 0.36441085 -0.1440191 -0.35996717
0.32236436 0.22670408 -0.15542085 0.15726234 0.23885383 0.118487924 -0.08202278 -0.2332705
0.28097925 0.14909391 0.22669435 -0.29616004 -0.20951901 0.032707673 0.29531646 -0.18379825
-0.033861186 0.0074555236 -0.3005587 -0.4768523 0.112523586 0.11807474 0.29522607 0.04710944
-0.36604702 0.13443083 -0.0004089204 -0.37077266 0.30710697 -0.03768208 0.45618325 -0.015429883
00000000: 1f04 af3e 4830 783e 9167 07bf 1bd3 3f3e
00000010: e367 6c3e 3dec 623e 2bff a13d 8658 84bd
00000020: b2c5 833e 1199 e5bc 5db9 323e 52ec 40be
00000030: b747 abbd 5fdf 57be ff40 923e 7776 75be
00000040: 7555 0b3c 8a07 09be 08e2 18be 31c6 a7be
00000050: e91b 2c3d d6b9 0c3e db3a 1a3e 140b c53d
00000060: 1837 99be f9f4 a53d 75f6 c0bd 543e c9be
00000070: 439a 603e 5e0e 9cbc ad78 ba3e af75 233e
00000080: 6f18 e63e d5f3 3e3e fe02 1abe 57ec 423e
00000090: ab4d f33d f930 803e 406e 0dbe 9f40 16be
000000a0: b4a8 473c 7e7a 0b3d 41f9 123e 3357 51be
000000b0: dcee 8bbe 523f e63d 38a1 dd3d f86f acbe
000000c0: 8104 ccbd b368 f7bd b6ed 84bd 12e1 7dbe
000000d0: 61b3 d9bd 9099 b63e 2b6d 8d3d 0bde 813e
000000e0: 6199 97be 5291 b7bc 5174 3c3e 8d68 3cbe
000000f0: 5ef4 6a3e 9539 71bd 3edd 903e 15b4 243e
00000100: 3065 3fbe 895c 71bd 4ead 8a3e 2891 18be
00000110: 04e0 0bbe b3e6 acbe 8873 903e 67e6 a43c
00000120: 34ba 05be 9466 ab3e f425 49be dd4f 843e
00000130: 1ba9 cf3e 5a14 0f3d 9738 d8bc b739 b23e
00000140: 7d00 9c3d 8eae 173e fabb 753e f3d6 db3e
00000150: ecd6 0a3e caa3 93be 50a1 c1bb 21e7 d4bd
00000160: 2606 633d 7d4e bb3d a681 acbd 3cc2 ea3d
00000170: afa0 c4be be54 a33d bd56 bfbe 6ff5 bdbd
00000180: 40f2 a93e 3e24 c33e 7fd0 1fbd 0339 bd3e
00000190: 6092 03bd 4411 963d 7a3d 503e 7df2 09bf
000001a0: 43b8 8bbe 579a c53e ca04 983e 1b2b 85be
000001b0: 6efa 403e 1433 d9bd 70cd 933e f9a2 823d
000001c0: 9880 cabe a36c 393d ec15 c6be 4e94 8dbe
000001d0: 8aa9 9cbc 6685 a33d 406f bebc 38f8 43bd
000001e0: c200 c7be 9e55 963e a94b d03e def2 78be
000001f0: 0515 b5bc c1a8 8abe 1b5b fe3c f195 323d
00000200: 6317 81be 9c6f 9ebe a2f1 88bd b739 7cbe
00000210: 0668 49be 746c 833e 051a 0dbe a14c 183e
00000220: cb7c bc3b 4dd8 66bd a31f bdbd 8bff 07bd
00000230: 2add d9bd 84bd 683e 04db 0cbe 806e bf3e
00000240: a4ba 513e 67e9 a73d e042 c1bb f4d9 ba3e
00000250: 6ea4 94be 8c8b d3be acf9 83bd 3e6d 9a3d
00000260: b8f2 7e3e 7922 2b3d ffbb 49be 2c0a 3d3e
00000270: 331c b8be 4e75 4f3e 5002 e6bd 3bc4 11be
00000280: 4c60 923e 435e 323d 363c fcbe 0339 ce3e
00000290: 0cf4 48bd 20ba 6f3d 6b95 243e 1ee4 85be
000002a0: cf38 8e3e a9d0 333d 2330 203d 1148 1dbe
000002b0: 107b c0bd 1c78 19bd b223 9c3e 1631 d9be
000002c0: 7a45 eb3d 5231 47be 03bc 0cbe 7e64 55be
000002d0: 4a5b 833d bcbd a73e f086 43bd 7855 f93d
000002e0: 213c 48be 31e8 32bd 7368 41be 0c71 7bb8
000002f0: 8471 153e ab91 cdbd 2f0c 353e bd9b 933e
00000300: 913c 3dbd 99f9 68be 8114 b73e 19c0 99be
00000310: e1f7 adbe 64be 67be 239a a2bd ce55 ef3d
00000320: 38d4 e93d 9ee5 883e 6c82 9ebe 1909 3f3e
00000330: 4b48 583e b5e4 b93e 4729 3fbe 15bd 853e
00000340: 6e4a 243e 8d8f 193e a233 863e 07fc a53e
00000350: 6c03 54be 84bd 4ebe 53f4 4dbe c627 3fbe
00000360: 5ba9 2e3d 795b a4bd 5db7 88bc 191b de3e
00000370: 5de7 2ebd 0f94 ba3e be79 13be 9e4d b8be
00000380: f10c a53e 1d25 683e a526 1fbe 6109 213e
00000390: 1996 743e cca9 f23d 8ffb a7bd 76de 6ebe
000003a0: 83dc 8f3e 13ac 183e 9022 683e 4aa2 97be
000003b0: 278c 56be 7bf8 053d b833 973e 9c35 3cbe
000003c0: 07b2 0abd 774d f43b d4e2 99be fc25 f4be
000003d0: c472 e63d 2bd1 f13d df27 973e d4f5 403d
000003e0: 846a bbbe 3ca8 093e 5e64 d6b9 ead5 bdbe
000003f0: 203d 9d3e 8658 1abd da90 e93e 9fcd 7cbc

pre_processing_lin_layers.2.bias f4 [32]
-0.012109136 -0.10720807 0.08423158 -0.08367356 0.13452274 0.050861306 0.08221233 -0.045857225
-0.15045536 -0.12985405 -0.0033808898 0.018183239 -0.11889763 0.021785604 -0.11597743 0.1552285
-0.1302777 0.122136034 -0.17080991 0.17801481 -0.13074826 0.014817173 0.06005351 0.057813305
-0.03454477 -0.15583542 -0.12550274 0.12054164 -0.17768005 0.14597167 0.1557751 -0.12372045
00000000: 6665 46bc e88f dbbd 9b81 ac3d 0b5d abbd
00000010: 54c0 093e f253 503d f05e a83d c9d4 3bbd
00000020: f810 1abe 76f8 04be eb91 5dbb 04f5 943c
00000030: 9a80 f3bd b977 b23c 9385 edbd 38f4 1e3e
00000040: 8467 05be 7522 fa3d cbe8 2ebe 8449 363e
00000050: dfe2 05be bac3 723c abfa 753d a5cd 6c3d
00000060: d17e 0dbd 5293 1fbe ca83 00be 89de f63d
00000070: c2f1 35be 9979 153e 8283 1f3e 2661 fdbd

pre_processing_lin_layers.3.weight f4 [32, 32]
-0.15625826 -0.3702937 0.19273579 -0.12300734 0.22840421 -0.16315924 0.07466374 -0.1979496
0.38757744 0.0010876663 0.034476425 0.34878504 0.010556574 0.20716685 -0.23882183 -0.03504471
-0.0011983239 0.017602697 -0.29513276 -0.031297226 0.10887354 0.110941306 0.16265626 -0.10313071
0.5133029 0.12441286 0.08996476 -0.1567387 0.42240867 0.18110049 -0.025760492 -0.38871157
-0.123578176 -0.40926436 0.10318892 -0.17932343 -0.0038299991 0.01366761 0.23600182 -0.19949755
0.25811133 0.14646076 0.10138149 0.32781357 0.1387923 0.22282535 -0.30221346 -0.28950754
0.10480425 0.15009981 -0.3212348 0.0900603 0.14095666 0.12860899 -0.07612029 -0.2588511
0.15190566 0.084126785 0.17235908 -0.461095 0.19795653 0.1621199 -0.068642676 -0.33066434
-0.071595035 -0.095416665 0.21180052 -0.08839496 -0.079992056 -0.38112256 0.07112066 -0.20866226
0.14729619 0.076102845 0.09365928 0.35662088 0.061714247 0.31563893 -0.31712472 -0.028066313
0.19723709 0.12254453 -0.13112438 -0.16616206 0.21928233 0.32314938 0.07829341 -0.3940382
0.15254565 -0.08106 0.071653225 -0.12889086 0.22664571 0.074256316 0.40857998 -0.38570514
-0.18883362 -0.27721685 0.0904057 -0.15183021 0.28686163 -0.26083803 0.18166202 0.07294184
0.19309096 0.26709816 -0.05455293 0.12662277 -0.022740623 0.119615175 -0.2942029 -0.10810466
0.09108352 0.21849272 -0.21959491 -0.009469837 0.05686977 0.1787889 0.086162664 -0.061526112
0.3698727 0.25816295 0.30438018 -0.17887151 0.37826896 0.08572852 -0.08418966 -0.37047267
-0.40458748 -0.22468914 0.32835576 -0.24113551 0.1862003 -0.19444041 0.07089773 -0.34525433
0.28023648 0.10939792 -0.014999308 0.23811007 -0.0340971 0.061804503 -0.31798193 0.15240893
0.16107471 0.23641513 -0.28349426 -0.1144163 0.12937419 -0.050237805 0.019425193 -0.053954985
0.40731663 0.040416587 0.36261398 -0.2475508 0.06764499 0.29219535 0.09656873 -0.17517857
0.122271165 0.2344222 -0.28052488 -0.158907 -0.20786293 0.011890076 -0.22388509 0.30060813
-0.09943573 -0.2136315 -0.051505383 -0.25092575 -0.1764702 -0.21397288 0.21998553 0.100180656
-0.23946899 -0.18391094 0.10060924 0.04852633 -0.3301892 0.0799573 -0.07250693 0.21611102
-0.4218462 -0.10662512 -0.30521855 0.30044812 -0.40218067 -0.21289445 -0.10946385 0.008168427
0.32755426 0.40604734 -0.26084617 -0.025233703 -0.11302664 0.008190659 -0.30717504 0.13789164
-0.24704686 -0.0077181947 0.12390221 -0.3606015 0.0102084335 -0.097355165 0.37191832 0.15882686
-0.012615608 -0.09280752 0.2553028 -0.0031328013 -0.10530042 -0.13957424 -0.052923854 0.2366784
-0.21134189 -0.14017531 -0.27253798 0.38872904 0.03271261 -0.1482459 -0.035228334 0.35880378
-0.14441378 -0.25025004 0.07478813 -0.38873184 0.55469066 -0.17755564 0.28230557 0.047684077
0.4592258 0.21820153 -0.15981698 0.09203432 -0.19666025 0.03771603 -0.057489388 -0.014834598
0.0931966 0.045401927 -0.16725479 -0.1500412 -0.06440542 0.12256738 -0.055129133 -0.2046665
0.30123276 0.21272828 0.22603552 -0.067982376 0.102119885 0.40103698 0.155102 -0.11064633
00000000: 2a02 20be 2397 bdbe 885c 453e 46eb fbbd
00000010: cbe2 693e 3713 27be 4ee9 983d 4db3 4abe
00000020: 8d70 c63e 0690 8e3a 2737 0d3d f493 b23e
00000030: 7bf5 2c3c 8c23 543e b68d 74be 0b8b 0fbd
00000040: 1411 9dba 8833 903c a41b 97be 8531 00bd
00000050: 17f9 de3d 3235 e33d 5d8f 263e 3236 d3bd
00000060: d267 033f 2bcc fe3d 723f b83d 1c80 20be
00000070: f345 d83e 6872 393e ab07 d3bc 3405 c7be
00000080: 8e16 fdbd 198b d1be b654 d33d 90a0 37be
00000090: b900 7bbb 1cee 5f3c 76aa 713e 1649 4cbe
000000a0: 2b27 843e cff9 153e 19a1 cf3d 2ed7 a73e
000000b0: 921f 0e3e 542c 643e b9bb 9abe 553a 94be
000000c0: 9ca3 d63d c4b3 193e e378 a4be 8971 b83d
000000d0: f156 103e 13b2 033e f4e4 9bbd 2288 84be
000000e0: 288d 1b3e aa4a ac3d e67e 303e a514 ecbe
000000f0: 1eb5 4a3e c202 263e 8894 8cbd d64c a9be
00000100: 6ba0 92bd d069 c3bd 3ce2 583e 6b08 b5bd
00000110: e0d2 a3bd 7f22 c3be b5a7 913d 8fab 55be
00000120: d0d4 163e cfdb 9b3d 70d0 bf3d 0397 b63e
00000130: 14c8 7c3d 6d9b a13e 2c5e a2be 53eb e5bc
00000140: 85f8 493e a0f8 fa3d 7845 06be 6326 2abe
00000150: 8c8b 603e d673 a53e 4c58 a03d 60bf c9be
00000160: ed34 1c3e c902 a6bd edbe 923d f7fb 03be
00000170: d015 683e b213 983d 6531 d13e 257b c5be
00000180: 9a5d 41be 5eef 8dbe a026 b93d 6179 1bbe
00000190: 87df 923e 908c 85be 9c05 3a3e 8862 953d
000001a0: a3b9 453e 17c1 883e e572 5fbd 66a9 013e
000001b0: 8b4a babc cdf8 f43d c3a1 96be fa65 ddbd
000001c0: ff89 ba3d 8ebc 5f3e 7ddd 60be 6027 1bbc
000001d0: 47f0 683d 7014 373e 0d76 b03d ce02 7cbd
000001e0: f45f bd3e ef2d 843e b8d7 9b3e 182a 37be
000001f0: 78ac c13e 6f92 af3d a16b acbd 98ae bdbe
00000200: 1726 cfbe e914 66be 3f1e a83e 3aec 76be
00000210: 4bab 3e3e 631b 47be d432 913d 2dc5 b0be
00000220: 287b 8f3e 040c e03d a8bf 75bc 20d3 733e
00000230: 67a9 0bbd b826 7d3d 87ce a2be 1611 1c3e
00000240: c5f0 243e cf16 723e 2926 91be 1853 eabd
00000250: ab7a 043e 28c6 4dbd 9521 9f3c e7ff 5cbd
00000260: ce8b d03e dd8b 253d 8aa8 b93e f57d 7dbe
00000270: 7589 8a3d a19a 953e d4c5 c53d 0362 33be
00000280: 4e69 fa3d 600c 703e f5a0 8fbe 84b8 22be
00000290: 05da 54be 98ce 423c 2242 65be 4fe9 993e
000002a0: f6a4 cbbd 37c2 5abe 4ff7 52bd 5779 80be
000002b0: 9bb4 34be b51b 5bbe e343 613e 842b cd3d
000002c0: 5c37 75be 2653 3cbe 380c ce3d 8cc3 463d
000002d0: 8f0e a9be a7c0 a33d 837e 94bd 354c 5d3e
000002e0: 3afc d7be 455e dabd 9b45 9cbe 56d4 993e
000002f0: a0ea cdbe 0101 5abe 952e e0bd ded4 053c
00000300: 31b5 a73e 70e5 cf3e a18d 85be e9b6 cebc
00000310: 837a e7bd 1d32 063c 0c46 9dbe 7733 0d3e
00000320: daf9 7cbe e9e8 fcbb 71c0 fd3d c3a0 b8be
00000330: 4641 273c 2562 c7bd 146c be3e 82a3 223e
00000340: b2b1 4ebc de11 bebd 0cb7 823e af4f 4dbb
00000350: bfa7 d7bd 8dec 0ebe afc6 58bd d35b 723e
00000360: 026a 58be 1e8a 0fbe 198a 8bbe 7e07 c73e
00000370: a8fd 053d c6cd 17be 964b 10bd 21b5 b73e
00000380: 35e1 13be c620 80be 852a 993d dc07 c7be
00000390: 3500 0e3f 25d1 35be 5b8a 903e 6150 433d
000003a0: a51f eb3e 3970 5f3e 10a7 23be 7d7c bc3d
000003b0: 4e61 49be 207c 1a3d fe79 6bbd d00c 73bc
000003c0: dcdd be3d 5ff7 393d d744 2bbe 66a4 19be
000003d0: fde6 83bd 9b04 fb3d 16cf 61bd 1894 51be
000003e0: 2e3b 9a3e 71d5 593e db75 673e 583a 8bbd
000003f0: 3b24 d13d b854 cd3e 0fd3 1e3e 8b9a e2bd

pre_processing_lin_layers.3.bias f4 [32]
0.10587312 0.06833909 -0.042311396 0.045672696 0.15095423 0.08533561 0.016789366 0.01713673
-0.05592334 -0.09023612 -0.04150446 -0.06758814 -0.006887146 -0.13835141 0.031263195 -0.09982785
0.0069592213 0.08808415 -0.16076598 -0.19246808 -0.116309896 -0.06254426 0.09773535 -0.12856841
-0.06321963 -0.13852455 0.090524666 0.073513806 0.027760817 -0.1493047 0.16826986 -0.11181518
00000000: 02d4 d83d 5df5 8b3d b74e 2dbd 4b13 3b3d
00000010: bf93 1a3e 70c4 ae3d da89 893c 5462 8c3c
00000020: df0f 65bd b7cd b8bd 9500 2abd a76b 8abd
00000030: 91ad e1bb feab 0dbe d60d 003d 8b72 ccbd
00000040: 2e0a e43b 7665 b43d d69f 24be 5a16 45be
00000050: e233 eebd 3417 80bd 7929 c83d 70a7 03be
00000060: 4b79 81bd 61d9 0dbe ff64 b93d 688e 963d
00000070: a76a e33c 55e3 18be ef4e 2c3e 5bff e4bd

pre_processing_batch_norm.0.weight f4 [32]
1.2122705 1.0054547 0.7552842 1.1818831 0.5045844 0.7498031 0.7527333 0.9839026
1.129474 1.1569213 0.9539109 0.8570317 1.038135 1.1479747 1.1106917 0.74707335
1.1366494 0.8721723 0.850493 1.1090246 1.0224794 1.2512437 1.0431587 0.8923039
0.875801 1.0372752 1.0546995 1.1322482 0.7941542 1.3844787 0.6164694 0.8669543
00000000: ae2b 9b3f bdb2 803f 4e5a 413f f247 973f
00000010: 712c 013f 19f3 3f3f 21b3 403f 0ae1 7b3f
00000020: 9b92 903f ff15 943f 8133 743f 6e66 5b3f
00000030: 9ce1 843f d6f0 923f 252b 8e3f 3340 3f3f
00000040: ba7d 913f af46 5f3f e9b9 593f 85f4 8d3f
00000050: 9be0 823f c128 a03f 3986 853f 076e 643f
00000060: 7f34 603f 6fc5 843f 6500 873f 82ed 903f
00000070: b14d 4b3f 9936 b13f f0d0 1d3f b8f0 5d3f

pre_processing_batch_norm.0.bias f4 [32]
0.26299796 -0.14968982 -0.3311622 0.077200465 -0.025513416 0.09272006 -0.19775254 0.15793167
0.099951655 0.39262167 -0.14542133 -0.1587718 0.057447277 0.06687545 0.29057702 -0.25298002
0.1197281 -0.07157631 -0.20882988 -0.17581736 0.12319395 -0.03240914 -0.034596957 0.14202821
0.06739936 -0.0120262 0.12803179 0.3711432 -0.24644516 0.008210922 -0.28078535 0.24356815
00000000: aba7 863e 4a48 19be 188e a9be 471b 9e3d
00000010: 8301 d1bc 04e4 bd3d a47f 4abe d7b8 213e
00000020: 74b3 cc3d b505 c93e 54e9 14be 1395 22be
00000030: d64d 6b3d fff5 883d 83c6 943e 9986 81be
00000040: 0234 f53d 9a96 92bd 80d7 55be 7709 34be
00000050: 1c4d fc3d 72bf 04bd 8ab5 0dbd d86f 113e
00000060: ad08 8a3d 8a09 45bc c41a 033e 7b06 be3e
00000070: 1f5c 7cbe 1a87 063c 19c3 8fbe ee69 793e

pre_processing_batch_norm.0.running_mean f4 [32]
-0.1932201 0.029848574 0.12696084 0.1551958 -0.20197928 0.12216754 -0.21849772 -0.1671892
0.11596195 0.04295469 0.018614722 -0.1045298 -0.28232396 0.24635373 0.22728755 -0.19258733
0.15217593 0.12360406 -0.07549202 -0.051684424 0.02257748 -0.24163158 -0.016983628 -0.0053435583
0.14330861 0.12314635 0.19421813 -0.1968088 -0.0713114 0.035120238 -0.22127666 -0.19857314
00000000: 7ddb 45be ff84 f43c 0602 023e a6eb 1e3e
00000010: a8d3 4ebe fa32 fa3d debd 5fbe a533 2bbe
00000020: 757d ed3d 42f1 2f3d e77d 983c b813 d6bd
00000030: c48c 90be 2744 7c3e 11be 683e 9d35 45be
00000040: 02d4 1b3e 2024 fd3d 8f9b 9abd 0cb3 53bd
00000050: 68f4 b83c 456e 77be 4021 8bbc 0419 afbb
00000060: 7ebf 123e 2734 fc3d 1ee1 463e 3f88 49be
00000070: b60b 92bd 3dda 0f3d 5996 62be c256 4bbe

pre_processing_batch_norm.0.running_var f4 [32]
1.9949139 2.5046773 1.8610401 2.7620184 2.8352504 1.3367931 1.4106705 2.7821655
2.7738566 2.4181185 1.4899112 1.6925073 2.5737507 2.3044727 1.4988166 0.9850471
2.4620469 0.6192675 1.0766937 4.5528536 2.5384693 2.0494168 1.1345819 1.5334339
2.0142329 2.29857 2.9603531 2.2305512 3.1501143 3.4366643 1.2873774 3.079856
00000000: 5759 ff3f a24c 2040 9036 ee3f e9c4 3040
00000010: be74 3540 091c ab3f da90 b43f 000f 3240
00000020: de86 3140 74c2 1a40 69b5 be3f 14a4 d83f
00000030: 55b8 2440 7b7c 1340 39d9 bf3f 0c2c 7c3f
00000040: 2d92 1d40 5188 1e3f 19d1 893f fab0 9140
00000050: 4876 2240 a529 0340 fb39 913f 9047 c43f
00000060: 31e9 0040 c51b 1340 6d76 3d40 5ac1 0e40
00000070: 799b 4940 4ff2 5b40 c8c8 a43f 5c1c 4540

pre_processing_batch_norm.1.weight f4 [32]
1.243647 1.2311933 1.1837877 1.1695293 0.5891299 0.97413343 0.7895858 1.0001417
0.71720773 0.7019224 1.1009387 1.1674526 1.0301253 0.83846605 1.1359748 1.338929
0.5195392 0.7043828 1.2229984 1.2460546 0.6448248 1.1852169 0.67075753 0.55762815
0.90215594 1.1568166 0.8581872 1.2352927 0.79242605 1.0076809 1.1770967 0.8733298
00000000: d32f 9f3f be97 9d3f 5b86 973f 23b3 953f
00000010: 38d1 163f cf60 793f 4c22 4a3f a504 803f
00000020: ed9a 373f 30b1 333f 8feb 8c3f 166f 953f
00000030: 25db 833f b6a5 563f 9f67 913f 0762 ab3f
00000040: 8500 053f 6e52 343f 368b 9c3f b87e 9f3f
00000050: 3d13 253f 30b5 973f c4b6 2b3f b8c0 0e3f
00000060: b1f3 663f 9112 943f 28b2 5b3f 121e 9e3f
00000070: 6fdc 4a3f b0fb 803f 1bab 963f 8b92 5f3f

pre_processing_batch_norm.1.bias f4 [32]
0.13492385 0.26668537 0.2595331 0.4201544 -0.10976697 0.046816144 -0.14428395 0.24676827
-0.07977774 -0.06497441 0.0455105 -0.11772424 -0.3632629 -0.18133639 0.12611212 0.18409248
-0.5129132 -0.37396502 0.018394422 0.0803781 -0.22866066 0.19822024 0.01594983 -0.065602064
-0.14014651 0.1713864 -0.03959128 -0.06503981 0.19486266 0.15680419 0.15996493 0.24099936
00000000: 7a29 0a3e fc8a 883e 86e1 843e 7a1e d73e
00000010: 81cd e0bd 49c2 3f3d 2cbf 13be d2b0 7c3e
00000020: 8362 a3bd 4e11 85bd 3869 3a3d 6819 f1bd
00000030: 98fd b9be 3fb0 39be 8923 013e bd82 3c3e
00000040: 484e 03bf 5878 bfbe e6af 963c 469d a43d
00000050: 0526 6abe 3ffa 4a3e 38a9 823c 605a 86bd
00000060: 9182 0fbe eb7f 2f3e 772a 22bd 9833 85bd
00000070: 148a 473e 4791 203e d9cd 233e 89c8 763e

pre_processing_batch_norm.1.running_mean f4 [32]
0.6129459 0.40310562 -0.5057434 0.37798253 0.15978645 0.49348128 0.5521685 -0.55393875
-0.1330497 0.433554 0.65901524 -0.2776894 0.01653643 -0.4436627 0.54584557 -0.42587596
-0.19115587 -0.4683849 -0.048697434 -0.384188 0.18439928 0.6375147 0.31482962 -0.14891104
-0.5687526 0.54225826 0.34634173 -0.3178312 0.25378147 -0.6860589 0.59148556 -0.19453584
00000000: 06ea 1c3f dc63 ce3e 6678 01bf ed86 c13e
00000010: 0f9f 233e 94a9 fc3e ea5a 0d3f eece 0dbf
00000020: 2e3e 08be cafa dd3e 39b5 283f 4e2d 8ebe
00000030: 6877 873c c227 e3be 89bc 0b3f 6a0c dabe
00000040: 5dbe 43be 25d0 efbe f676 47bd 4ab4 c4be
00000050: 2ad3 3c3e 2a34 233f 5931 a13e 237c 18be
00000060: c599 11bf 70d1 0a3f b453 b13e c5ba a2be
00000070: a5ef 813e 8ea1 2fbf 996b 173f 6734 47be

pre_processing_batch_norm.1.running_var f4 [32]
9.890468 11.360591 10.770973 9.280201 11.238173 8.777966 2.2584605 10.961616
5.4407997 7.5183597 15.522815 13.445459 6.470439 1.9723309 10.1017685 5.3543854
8.507142 5.4931645 15.084802 6.4177494 1.6487381 11.501793 8.971267 8.2403
11.250861 13.128919 7.721459 14.606056 12.232668 7.5215154 9.9923 11.9123
00000000: 5b3f 1e41 fbc4 3541 e855 2c41 b47b 1441
00000010: 8ecf 3341 8c72 0c41 9e8a 1040 c762 2f41
00000020: 081b ae40 6796 f040 735d 7841 9a20 5741
00000030: d60d cf40 5775 fc3f d8a0 2141 2057 ab40
00000040: 411d 0841 01c8 af40 595b 7141 345e cd40
00000050: da09 d33f 5807 3841 4f8a 0f41 45d8 0341
00000060: 8703 3441 0d10 5241 3116 f740 68b2 6941
00000070: 02b9 4341 41b0 f040 76e0 1f41 c898 3e41

pre_processing_batch_norm.2.weight f4 [32]
1.096922 1.180865 1.0384423 0.75573784 0.8711417 0.8959147 0.9395354 0.95606077
1.2302654 0.81700176 0.7780493 1.2124733 0.72199035 1.0412363 1.175751 0.834392
0.74077874 0.85917336 1.0403672 0.82575774 0.7313241 0.98269236 0.9579819 1.1838753
1.2617214 0.7876325 1.139886 1.1873292 0.98680776 1.2832273 1.1000025 1.1810608
00000000: f167 8c3f 9626 973f adeb 843f 0978 413f
00000010: 2403 5f3f aa5a 653f 6485 703f 66c0 743f
00000020: 5679 9d3f 0727 513f 3d2e 473f 5332 9b3f
00000030: 5cd4 383f 3b47 853f 027f 963f b79a 553f
00000040: ada3 3d3f c9f2 5b3f c12a 853f dc64 533f
00000050: 0e38 3b3f ba91 7b3f 4d3e 753f 3a89 973f
00000060: 1680 a13f 49a2 493f c9e7 913f 67fa 973f
00000070: 6f9f 7c3f cb40 a43f e2cc 8c3f 002d 973f

pre_processing_batch_norm.2.bias f4 [32]
0.40028483 0.46921435 -0.09579772 0.096403755 -0.2415906 0.09159166 -0.34067932 0.28353843
0.06354439 -0.107773304 -0.17558494 0.1357088 -0.22116818 -0.15031624 0.33735847 0.0051156324
-0.35899016 -0.26507655 0.33927098 -0.15557827 -0.1659138 0.14411925 0.03265258 0.510849
0.24616122 -0.25951853 -0.0022628712 0.42073664 0.10849321 -0.08056214 0.23778045 0.4482702
00000000: 22f2 cc3e dd3c f03e 9831 c4bd 556f c53d
00000010: 8763 77be 6994 bb3d 856d aebe f32b 913e
00000020: 9023 823d 40b8 dcbd 8acc 33be 3ff7 0a3e
00000030: e979 62be 80ec 19be 40ba ac3e 09a1 a73b
00000040: 8fcd b7be 1db8 87be edb4 ad3e e94f 1fbe
00000050: 4fe5 29be ff93 133e b6be 053d 00c7 023f
00000060: b011 7c3e 9ddf 84be ae4c 14bb cb6a d73e
00000070: b031 de3d c3fd a4bd b87c 733e ac83 e53e

pre_processing_batch_norm.2.running_mean f4 [32]
0.29222015 0.39381206 -0.14384575 0.3257554 -0.23650464 0.20653713 -0.085758105 0.2690782
-0.29744205 -0.809778 -0.20125441 -0.07057104 -0.12635665 -0.016341466 0.10979348 0.6612999
-0.036237396 -0.39750078 0.0018105615 -0.14639935 -0.89272 -0.41584542 -0.32086354 0.33946472
-0.25871384 0.09575232 -0.3136542 0.55815756 -0.5230151 -0.4105857 -0.4279119 0.31395012
00000000: e19d 953e bca1 c93e 4d4c 13be 69c9 a63e
00000010: 462e 72be 787e 533e f2a1 afbd 9ec4 893e
00000020: 534a 98be 9c4d 4fbf a315 4ebe 8d87 90bd
00000030: a363 01be 8ade 85bc 67db e03d f34a 293f
00000040: aa6d 14bd 3985 cbbe 5d50 ed3a b6e9 15be
00000050: 4c89 64bf b1e9 d4be 3a48 a4be 52ce ad3e
00000060: 2476 84be cb19 c43d 4997 a0be 6ae3 0e3f
00000070: 51e4 05bf 4a38 d2be 4517 dbbe 12be a03e

pre_processing_batch_norm.2.running_var f4 [32]
20.38372 15.739194 12.786636 18.082155 10.709318 13.971618 20.04906 22.152617
11.581862 13.297145 3.99276 12.299954 11.180078 13.263585 19.37947 9.545585
8.956729 8.52122 16.043255 5.7180176 13.316324 17.900167 12.417584 20.948965
16.310732 10.0410385 13.094464 20.289438 12.406832 23.508581 16.719831 23.241741
00000000: dc11 a341 bdd3 7b41 1096 4c41 41a8 9041
00000010: 5e59 2b41 bf8b 5f41 7a64 a041 8f38 b141
00000020: 4f4f 3941 1bc1 5441 6189 7f40 9dcc 4441
00000030: 99e1 3241 a537 5441 2809 9b41 b7ba 1841
00000040: c34e 0f41 eb56 0841 9658 8041 00fa b640
00000050: aa0f 5541 8b33 8f41 6dae 4641 7b97 a741
00000060: 617c 8241 18a8 2041 ed82 5141 c550 a241
00000070: 6282 4641 9311 bc41 37c2 8541 16ef b941

pre_processing_batch_norm.3.weight f4 [32]
1.244302 1.1309478 0.7671101 1.1807375 0.988499 0.61717147 1.2539805 1.06989
1.0461134 0.9277229 0.76248753 1.0322927 0.9815355 0.5462136 1.0503693 0.90518993
1.3050306 0.7467616 1.0665737 0.79224986 0.8319296 1.230823 0.67730504 1.0523922
0.7419495 1.0093726 1.0092615 1.0437175 0.8062224 0.7817525 1.0496683 0.8746392
00000000: 4a45 9f3f e6c2 903f 5461 443f 6822 973f
00000010: 450e 7d3f f3fe 1d3f 6f82 a03f 28f2 883f
00000020: 0be7 853f 3f7f 6d3f 6232 433f 2b22 843f
00000030: e945 7b3f a8d4 0b3f 8072 863f 87ba 673f
00000040: 3e0b a73f c52b 3f3f 7d85 883f e3d0 4a3f
00000050: 57f9 543f 9c8b 9d3f dd63 2d3f cab4 863f
00000060: 67f0 3d3f 1f33 813f 7b2f 813f 8998 853f
00000070: 9764 4e3f ef20 483f 885b 863f 5be8 5f3f

pre_processing_batch_norm.3.bias f4 [32]
-0.18240218 -0.31961247 -0.1430407 -0.17096482 -0.0845632 -0.021888157 0.24934514 -0.11882857
-0.2157716 -0.075096466 0.05158053 0.2378544 0.33384582 -0.22224498 0.33234355 -0.11443684
0.26408854 -0.16617449 0.20702353 -0.22563028 -0.09777175 0.23157817 0.13053432 -0.2137102
-0.2111771 0.1279562 -0.3250337 -0.27313888 0.30052915 -0.37804475 -0.10574162 0.19017375
00000000: a3c7 3abe 3fa4 a3be 4379 12be 6711 2fbe
00000010: 792f adbd cb4e b3bc 5554 7f3e 655c f3bd
00000020: 3bf3 5cbe 2dcc 99bd 1b46 533d 1b90 733e
00000030: d7ed aa3e 3094 63be ef28 aa3e dd5d eabd
00000040: 9d36 873e a529 2abe fafd 533e a00b 67be
00000050: 8e3c c8bd d422 6d3e caaa 053e d9d6 5abe
00000060: cf3e 58be f306 033e d16a a6be dcd8 8bbe
00000070: f5de 993e 158f c1be 108f d8bd e8bc 423e

pre_processing_batch_norm.3.running_mean f4 [32]
-0.33400363 -0.9728255 -0.5257103 -0.49604684 -0.48761696 0.44139963 0.9888208 -0.1624342
-1.0355397 -0.54178894 0.7769923 0.5000786 0.81065834 -0.41127044 0.27400354 -0.7172921
0.6765069 -0.13618007 0.24004377 0.05317885 0.78757954 0.4819785 0.58895284 -0.7917178
-0.52636194 0.5606855 -0.35499996 -0.8779705 -0.85518545 -0.5583191 -0.46694422 0.054676503
00000000: 8602 abbe 180b 79bf f394 06bf daf9 fdbe
00000010: eea8 f9be 22ff e13e 5c23 7d3f 2755 26be
00000020: 918c 84bf aeb2 0abf f8e8 463f 2705 003f
00000030: 4e87 4f3f 0a92 d2be 314a 8c3e 74a0 37bf
00000040: 8e2f 2d3f ca72 0bbe 09ce 753e 11d2 593d
00000050: d09e 493f e3c5 f63e 9dc5 163f 05ae 4abf
00000060: a8bf 06bf 1689 0f3f 8ec2 b5be adc2 60bf
00000070: 6fed 5abf 00ee 0ebf 5013 efbe 78f4 5f3d

pre_processing_batch_norm.3.running_var f4 [32]
20.02329 19.476086 18.468304 15.219131 19.447199 16.152107 18.735147 11.964105
15.388202 16.7532 10.731253 17.40643 13.841863 21.690744 25.885435 20.087217
20.944765 12.293186 13.558774 1.5488611 15.27078 21.044718 20.888968 13.268923
6.488877 22.77752 20.948921 13.943446 7.1677427 18.130306 14.858261 19.538599
00000000: b32f a041 06cf 9b41 16bf 9341 9081 7341
00000010: dd93 9b41 8437 8141 95e1 9541 f96c 3f41
00000020: 1336 7641 8e06 8641 36b3 2b41 5e40 8b41
00000030: 4578 5d41 a586 ad41 5f15 cf41 9fb2 a041
00000040: e18e a741 e4b0 4441 bdf0 5841 1541 c63f
00000050: 1d55 7441 955b a841 9b1c a741 824d 5441
00000060: e1a4 cf40 5c38 b641 6497 a741 5b18 5f41
00000070: 265e e540 de0a 9141 70bb 6d41 0d4f 9c41

post_processing_lin_layers.0.weight f4 [32, 32]
0.46602604 -0.2556092 -0.4742782 0.6840653 0.49502978 -0.08543185 0.47481814 0.2775791
0.13697633 -0.098192245 -0.19133957 0.26326847 0.096203126 -0.029171644 0.045290504 0.48737797
-0.12771928 -0.04751685 -0.25700912 0.11985084 -0.24781033 -0.1223015 0.03956677 0.23090038
-0.38826934 -0.21121036 0.39330587 -0.08947674 0.06460984 0.08939642 0.1157738 0.124281466
0.114610605 -0.02292468 0.052585684 0.09543905 0.3879624 -0.1766852 0.28666767 0.16192208
0.12666167 0.093696065 -0.258222 -0.1440104 -0.23977105 -0.23139076 -0.051271908 0.24577484
-0.22041173 -0.2762556 -0.38744146 0.23712997 -0.19268464 -0.1183152 -0.31426966 -0.013360595
-0.18275905 -0.37832558 0.07294318 -0.30448884 0.035740834 -0.2127943 0.20289755 -0.15293911
-0.23957078 0.3906649 0.048588756 0.11981266 -0.40507403 0.20325461 0.14981498 -0.20596853
-0.15415154 0.09493792 0.08269674 -0.24677321 0.3561497 0.15427521 0.21392521 0.23681346
0.3716517 0.3017063 0.18436791 -0.010896211 0.14128795 0.30121428 0.029566923 0.034423653
0.012575805 0.36577308 -0.24506032 0.16378209 -0.29366872 0.045811426 -0.4078145 0.083338
0.22054462 -0.21677817 -0.3426282 0.30642444 0.40285853 -0.21133192 0.3495941 0.27813026
0.28155738 0.08335921 -0.15153669 0.29542628 0.12646776 -0.25820217 0.37533683 -0.22236551
-0.26479498 -0.16646671 -0.21122594 0.24673066 -0.16544442 -0.2600889 0.009333176 0.12665223
-0.6010412 -0.19339421 -0.2551159 -0.06854298 0.09826589 0.2392458 0.012482687 -0.07709941
-0.35615924 0.25875854 -0.19844697 -0.091094635 -0.42909232 0.017297762 0.0032004903 -0.18883224
-0.10501065 0.0129768485 0.26779085 -0.06945084 0.35517997 0.08333278 0.1320545 0.19635841
0.3190007 0.18316312 0.20185685 -0.18096875 -0.08851131 0.2181813 0.15743461 -0.10082986
-0.14253847 0.38568425 -0.08041189 0.092734985 -0.044273924 -0.0024985147 -0.38685238 0.123939715
0.0026964925 -0.20782544 0.17399415 0.20652841 0.2997561 -0.24311072 0.16560653 0.16036054
0.067780316 0.015916849 -0.29664475 0.12493856 -0.32228172 -0.5080355 0.0020295253 0.04915518
-0.4753406 -0.37946287 -0.17890114 -0.11611743 -0.23121712 -0.28472534 -0.14907356 0.0335101
-0.06929414 -0.3214762 0.16040935 -0.39471033 -0.22179511 0.05128298 0.50510436 0.05084752
-0.07052565 0.12429957 0.14563264 -0.09179807 -0.33938667 0.09146281 0.058581796 -0.33937523
-0.2962285 -0.10112352 0.31398997 -0.19240987 0.58167756 0.34945533 0.07411457 0.040208835
0.39882544 0.46512312 0.32123098 0.004914331 0.09249701 0.3825707 0.24183542 -0.31913835
0.09363178 0.1349737 -0.18640985 0.32971376 0.032757994 0.08730377 -0.33494592 0.113846
-0.28045762 0.3677412 -0.02030915 -0.30801368 -0.23537393 -0.09475309 0.16160472 -0.22885162
-0.19850147 -0.04180615 0.23364018 -0.31905288 0.27890015 0.035837058 0.022781141 0.17098838
0.30149606 0.18042499 0.13985349 0.075180106 -0.39573708 0.24567522 0.12280177 -0.019206963
-0.28972116 0.10720917 -0.12936902 0.114743724 0.04358229 0.038789764 -0.29480192 0.23722872
00000000: f79a ee3e 36df 82be 98d4 f2be e71e 2f3f
00000010: 8b74 fd3e e5f6 aebd 5d1b f33e d91e 8e3e
00000020: 8643 0c3e 0419 c9bd 85ee 43be 20cb 863e
00000030: 2506 c53d 5ff9 eebc 8982 393d 9b89 f93e
00000040: d8c8 02be 07a1 42bd b396 83be 5b74 f53d
00000050: fec1 7dbe 3579 fabd c410 223d 2671 6c3e
00000060: 3dcb c6be 8747 58be 635f c93e 953f b7bd
00000070: 2a52 843d 7815 b73d d01a ed3d 4887 fe3d
00000080: f7b8 ea3d 8acc bbbc 1664 573d 8c75 c33d
00000090: 02a3 c63e f7ec 34be 1bc6 923e e7ce 253e
000000a0: 99b3 013e b9e3 bf3d ad35 84be 7677 13be
000000b0: 8b86 75be b3f1 6cbe 7e02 52bd 66ac 7b3e
000000c0: 9db3 61be 6071 8dbe ba5e c6be 33d2 723e
000000d0: 1f4f 45be 3d4f f2bd f4e7 a0be 66e6 5abc
000000e0: 3025 3bbe e4b3 c1be 3c63 953d f6e5 9bbe
000000f0: fb64 123d c0e6 59be 60c4 4f3e 129c 1cbe
00000100: 0b52 75be 3b05 c83e 0105 473d 5760 f53d
00000110: dd65 cfbe fa21 503e 1969 193e 6ae9 52be
00000120: e7d9 1dbe d06e c23d e95c a93d 1eb2 7cbe
00000130: 4159 b63e 52fa 1d3e 360f 5b3e 3a7f 723e
00000140: 2249 be3e 4079 9a3e f1ca 3c3e 0586 32bc
00000150: caad 103e c238 9a3e 5536 f23c d1ff 0c3d
00000160: c00a 4e3c 9c46 bb3e 18f1 7abe 7eb6 273e
00000170: bf5b 96be c3a4 3b3d 10cd d0be 1dad aa3d
00000180: 73d6 613e 19fb 5dbe f76c afbe aae3 9c3e
00000190: 7943 ce3e 6567 58be fffd b23e 1767 8e3e
000001a0: 4a28 903e 3cb8 aa3d 6f2c 1bbe 1d42 973e
000001b0: c480 013e 1333 84be 262c c03e c9b3 63be
000001c0: 3593 87be 4076 2abe 9d4b 58be f6a6 7c3e
000001d0: 436a 29be 5f2a 85be 2dea 183c 1fb1 013e
000001e0: d6dd 19bf 2209 46be 8d9e 82be 4360 8cbd
000001f0: a03f c93d dafc 743e 2f84 4c3c 4ce6 9dbd
00000200: 815a b6be 007c 843e af35 4bbe d38f babd
00000210: fdb1 dbbe 09b4 8d3c 51bf 513b 3d5d 41be
00000220: d30f d7bd d99c 543c e21b 893e 3e3c 8ebd
00000230: 26da b53e 60aa aa3d 4b39 073e 2e12 493e
00000240: 0f54 a33e 1d8f 3b3e 90b3 4e3e df4f 39be
00000250: 6b45 b5bd eb6a 5f3e 8a36 213e e37f cebd
00000260: 9bf5 11be 6878 c53e fdae a4bd d7eb bd3d
00000270: 9358 35bd 1fbe 23bb 8411 c6be 1bd4 fd3d
00000280: a3b7 303b 31d0 54be 862b 323e 2f7c 533e
00000290: a279 993e 04f2 78be c294 293e 8e35 243e
000002a0: 68d0 8a3d 0d64 823c d2e1 97be cadf ff3d
000002b0: 1c02 a5be 9d0e 02bf c901 053b f156 493d
000002c0: d85f f3be f548 c2be dc31 37be face edbd
000002d0: 2ec4 6cbe 85c7 91be bda6 18be e341 093d
000002e0: 16ea 8dbd 8798 a4be 5942 243e 7917 cabe
000002f0: 421e 63be 1a0e 523d 854e 013f 7d45 503d
00000300: c16f 90bd c690 fe3d b920 153e a000 bcbd
00000310: 17c4 adbe db50 bb3d 77f3 6f3d 97c2 adbe
00000320: 43ab 97be d919 cfbd 4bc3 a03e 1807 45be
00000330: d2e8 143f cfeb b23e 61c9 973d 05b2 243d
00000340: d932 cc3e 9e24 ee3e 6378 a43e 6508 a13b
00000350: 136f bd3d 4fe0 c33e b4a3 773e 1a66 a3be
00000360: 05c2 bf3d 8c36 0a3e 39e2 3ebe 3ed0 a83e
00000370: 3f2d 063d 52cc b23d 087e abbe 1728 e93d
00000380: 2498 8fbe 9348 bc3e 605f a6bc f8b3 9dbe
00000390: dd05 71be e80d c2bd b57b 253e 1458 6abe
000003a0: f843 4bbe ed3c 2bbd 5f3f 6f3e e65a a3be
000003b0: 00cc 8e3e e1c9 123d 849f ba3c 9417 2f3e
000003c0: b15d 9a3e 54c1 383e c135 0f3e 07f8 993d
000003d0: 0d9e cabe 4992 7b3e 7f7f fb3d ec57 9dbc
000003e0: 5556 94be 7b90 db3d 5079 04be c2fe ea3d
000003f0: 5883 323d 04e2 1e3d 47f0 96be 16ec 723e

post_processing_lin_layers.0.bias f4 [32]
-0.16570662 -0.14262229 -0.11563827 0.10475437 0.12987667 -0.1253596 -0.16972473 0.02603014
-0.0044809156 0.09482091 -0.11090842 0.07894747 0.052175425 -0.06588148 -0.08105383 0.019519584
0.12461658 0.0031114325 0.050977938 0.110043645 0.062937595 -0.15210678 0.08691488 -0.043502733
0.13070954 0.0067289425 -0.17488578 -0.100989036 -0.0057623326 0.09430609 -0.02641519 -0.10650955
00000000: ffae 29be 940b 12be c2d3 ecbd 7689 d63d
00000010: 64fe 043e 445e 00be 52cc 2dbe 293d d53c
00000020: a5d4 92bb 7731 c23d f423 e3bd 36af a13d
00000030: e6b5 553d dfec 86bd 8dff a5bd 89e7 9f3c
00000040: fa36 ff3d 2de9 4b3b 3ece 503d 905e e13d
00000050: 6de5 803d e1c1 1bbe 6e00 b23d ec2f 32bd
00000060: b9d8 053e 767e dc3b 4215 33be 57d3 cebd
00000070: f3d1 bcbb 8d23 c13d ab64 d8bc ae21 dabd

post_processing_batch_norm.0.weight f4 [32]
0.48185995 0.87685853 0.97896177 0.62194496 0.79301304 0.81051975 0.7150152 0.554822
0.40948972 0.50878173 0.70290726 0.6371874 0.4825213 0.81685984 0.8206274 0.6855726
0.61982363 0.6874559 0.84764093 0.62516266 0.34561262 0.681686 0.57543385 0.50050455
0.8211679 0.6225829 0.49968025 0.17123456 0.5188083 0.43998328 0.85805184 0.8731211
00000000: 59b6 f63e cd79 603f 3d9d 7a3f c937 1f3f
00000010: e702 4b3f 397e 4f3f 3c0b 373f d108 0e3f
00000020: a3a8 d13e 853f 023f bbf1 333f b71e 233f
00000030: 080d f73e ba1d 513f a314 523f b081 2f3f
00000040: c3ac 1e3f 1cfd 2f3f fffe 583f a90a 203f
00000050: 23f4 b03e f982 2e3f a24f 133f 1121 003f
00000060: 0f38 523f 9861 1f3f 17d6 ff3e 1d58 2f3e
00000070: 9fd0 043f 7d45 e13e 49a9 5b3f dd84 5f3f

post_processing_batch_norm.0.bias f4 [32]
-0.0347743 0.105474845 -0.04618642 -0.04958184 -0.0697389 0.020286234 -0.08185933 0.02568382
0.037574884 -0.0677764 -0.10446657 -0.06015226 -0.10776172 -0.043547764 -0.04394403 0.035415933
0.050988615 0.014568768 -0.014098677 0.007984852 -0.115785755 -0.022925388 0.033175085 0.08441118
0.064262904 -0.025766032 0.00911867 -0.02229682 -0.014163387 0.07205247 0.014937967 0.041144773
00000000: 7f6f 0ebd 3203 d83d f92d 3dbd 5416 4bbd
00000010: 45d3 8ebd 512f a63c dda5 a7bd e066 d23c
00000020: 1fe8 193d 5ace 8abd 92f2 d5bd 3762 76bd
00000030: 2db2 dcbd 245f 32bd a8fe 33bd 4c10 113d
00000040: 70d9 503d d8b1 6e3c 23fe 66bc e6d2 023c
00000050: 1521 edbd 06ce bbbc 99e2 073d c5df ac3d
00000060: 459c 833d 4913 d3bc 7966 153c d2a7 b6bc
00000070: 8d0d 68bc 3f90 933d 60be 743c 6c87 283d

post_processing_batch_norm.0.running_mean f4 [32]
-1006.29596 -1453.9829 1261.0568 -579.872 1192.536 -1715.5802 1734.626 967.51935
960.2042 1285.9587 1610.1746 1339.3407 1584.9597 1737.38 1379.7902 -1116.8038
-1226.8783 -1597.3771 1107.1093 -1576.2332 -1076.4788 -614.08954 1120.3138 1194.0896
-1734.2197 -1593.4745 811.2722 879.1507 423.54877 424.8046 -1008.0573 -1718.5238
00000000: f192 7bc4 74bf b5c4 d1a1 9d44 cff7 10c4
00000010: 2711 9544 9172 d6c4 08d4 d844 3de1 7144
00000020: 120d 7044 aebe a044 9645 c944 e76a a744
00000030: b61e c644 292c d944 4979 ac44 b999 8bc4
00000040: 1b5c 99c4 11ac c7c4 7f63 8a44 7607 c5c4
00000050: 528f 86c4 bb85 19c4 0b0a 8c44 de42 9544
00000060: 08c7 d8c4 2f2f c7c4 6cd1 4a44 a5c9 5b44
00000070: 3ec6 d343 fd66 d443 ab03 7cc4 c3d0 d6c4

post_processing_batch_norm.0.running_var f4 [32]
775182.94 1.5608181e+06 1.2005179e+06 287395.72 1.074536e+06 2.1796212e+06 2.2354655e+06 704774.8
678920.6 1.1723331e+06 1.8715875e+06 1.2651102e+06 1.857714e+06 2.2393485e+06 1.4307836e+06 934076.5
1.1493069e+06 1.8979196e+06 930344.25 1.8373968e+06 878498.94 317528.75 964722.1 1.0907966e+06
2.141965e+06 1.8522565e+06 500160.44 585947.1 156537.81 158044.73 758221.1 2.1560765e+06
00000000: ef40 3d49 9187 be49 2f8c 9249 7754 8c48
00000010: 402b 8349 9508 054a 2671 084a 6d10 2c49
00000020: 8ac0 2549 691b 8f49 1c77 e449 b26e 9a49
00000030: 90c5 e249 d2ad 084a fda7 ae49 c80b 6449
00000040: d74b 8c49 fdad e749 8422 6349 a64a e049
00000050: 2f7a 5649 180b 9b48 2287 6b49 6527 8549
00000060: 34bc 024a 041b e249 0e38 f448 b20d 0f49
00000070: 74de 1848 2f57 1a48 d21c 3949 b298 034a
